model/checkpoint_20251029_194709_score61.pth (torch, 21291 bytes, 4 tensors)

linear1.weight f4 [256, 14]
0.32243413 0.17345151 -0.0825212 -0.23867829 0.078115016 0.01881856 0.21237236 0.2241991
-0.011600377 0.16928425 0.16680337 0.19426876 -0.27407116 0.1849691 0.032168757 0.01576741
0.36762086 0.31505585 -0.11224128 0.020303586 0.09937872 0.30542073 -0.1462806 -0.16961062
0.030622074 0.42136586 0.18761553 0.26540667 0.110094585 0.023718372 0.091254555 0.12415261
-0.040556952 0.31006387 0.1646719 -0.15911298 0.00934842 0.014661057 0.106405266 0.059234507
-0.14226829 0.04227916 -0.08121687 0.19571772 0.02768167 -0.2759012 -0.046620425 -0.21283303
-0.177233 -0.09747157 -0.106602736 0.070390746 -0.26500043 -0.41243005 -0.22238381 -0.20168434
-0.24308543 0.30375844 -0.28154698 -0.3364366 -0.013316633 -0.035653237 -0.29982114 0.07853268
-0.22556399 0.056589834 -0.102657415 0.031772643 -0.08942586 0.24584712 0.08498414 0.14854847
-0.09056185 0.01612322 0.014115847 -0.03744928 -0.26774892 0.13997385 -0.12478458 0.21220218
0.1196097 -0.013288172 0.13649811 0.052981544 0.16029169 -0.06798668 0.13081054 0.2077603
0.10530454 0.12092238 -0.006879178 0.10857985 -0.27983662 -0.26942566 0.044942383 -0.30164403
-0.13602833 -0.024476178 -0.22395799 -0.19210754 0.1414942 0.12796801 -0.114220545 0.26936615
-0.137078 0.13599283 -0.17570388 0.011896298 0.15045704 -0.09978326 0.21367764 0.07540855
0.34378925 0.25611708 -0.25572324 -0.054478057 0.07748274 0.28947678 -0.25915653 0.1901973
-0.28035766 0.14316955 0.0853392 0.22399245 -0.030465141 0.009976742 0.17010751 -0.32785317
0.29338977 0.1940881 -0.17678706 0.09261514 -0.08418679 -0.18703818 -0.07169715 0.3102688
0.058736168 0.15648222 0.07559436 0.086705215 0.00058261893 0.04388426 -0.10771565 0.019269781
-0.20730232 -0.15922545 -0.31627673 -0.25816122 0.016874278 0.18511234 -0.34749871 -0.059830308
-0.22646254 0.2544936 -0.05975776 0.036256257 0.39302346 0.04329688 0.037236646 0.06311114
0.21383446 0.2064241 -0.113341235 0.17346032 -0.18392918 0.00033788529 -0.06956602 -0.22534585
-0.14834115 -0.037561245 -0.07458282 -0.20349547 -0.24642506 0.17321268 -0.20421517 0.054270174
-0.23835582 -0.045054242 0.091584116 0.0335595 0.0291839 -0.152586 -0.035435766 -0.16271105
-0.076782465 -0.10644306 0.10986999 0.1593084 0.13078472 -0.008646607 -0.03005904 0.19185603
0.15372318 -0.18266669 -0.019578427 -0.14481571 0.18594141 -0.2621498 -0.30293807 0.1100621
-0.18366072 0.25936112 -0.1959125 0.11101495 -0.05959316 0.20431647 0.16575488 -0.20974405
-0.19553936 0.017104225 -0.19565348 0.24598767 0.16536717 -0.15945269 0.21999429 -0.18866801
0.03416291 0.00524826 0.09416178 0.2830642 -0.10343577 0.062359635 -0.039522424 -0.13875806
-0.26006794 0.1912778 0.12418112 0.03959021 -0.16948271 -0.1302719 0.20720682 -0.24210657
-0.256495 -0.0782073 -0.2050157 -0.20565766 -0.07495421 0.1623398 -0.23034385 0.015025996
-0.048479732 -0.2552618 -0.081810415 -0.21231039 -0.005498292 -0.17889209 -0.15865691 -0.09848534
0.13480549 -0.38559258 -0.20709352 -0.3002144 0.2527799 -0.02486052 -0.004128502 -0.053323608
00000000: 1616 a53e 469d 313e e000 a9bd 1568 74be
00000010: c4fa 9f3d 6129 9a3c 2478 593e 7394 653e
00000020: 820f 3ebc da58 2d3e 81ce 2a3e 64ee 463e
00000030: 0e53 8cbe 8a68 3d3e 63c3 033d a82a 813c
00000040: cd38 bc3e 004f a13e c2de e5bd b553 a63c
00000050: 1287 cb3d 1b60 9c3e 95ca 15be 68ae 2dbe
00000060: 25db fa3c 44bd d73e 491e 403e 62e3 873e
00000070: 4579 e13d 084d c23c abe3 ba3d b943 fe3d
00000080: 0c1f 26bd b1c0 9e3e c09f 283e 83ee 22be
00000090: 1e2a 193c ee34 703c 01eb d93d e29f 723d
000000a0: c7ae 11be ea2c 2d3d 0855 a6bd 3a6a 483e
000000b0: abc4 e23c ec42 8dbe 0ff5 3ebd e7f0 59be
000000c0: 917c 35be 2d9f c7bd 8952 dabd 0629 903d
000000d0: 23ae 87be 082a d3be 95b8 63be 5786 4ebe
000000e0: 63eb 78be 3a86 9b3e ed26 90be 6b41 acbe
000000f0: 022e 5abc 2109 12bd 2882 99be bed5 a03d
00000100: 3ffa 66be beca 673d 0d3e d2bd 0824 023d
00000110: e824 b7bd 59bf 7b3e 2a0c ae3d 171d 183e
00000120: 7e78 b9bd d814 843c 2746 673c 6b64 19bd
00000130: 6316 89be 4e55 0f3e 0f8f ffbd 874b 593e
00000140: eef5 f43d a2b6 59bc 29c6 0b3e 2d03 593d
00000150: 8123 243e 9a3c 8bbd 33f3 053e 1ebf 543e
00000160: e8a9 d73d 27a6 f73d ba6a e1bb 1d5f de3d
00000170: bf46 8fbe 29f2 89be 8115 383d 1671 9abe
00000180: 034b 0bbe 4482 c8bc 3e55 65be d7b7 44be
00000190: dbe3 103e 0c0a 033e 76ec e9bd 5cea 893e
000001a0: 2d5e 0cbe b441 0b3e b8eb 33be b1e8 423c
000001b0: 6911 1a3e 2a5b ccbd 50ce 5a3e cc6f 9a3d
000001c0: 2505 b03e c721 833e 28ee 82be 6224 5fbd
000001d0: 45af 9e3d 4d36 943e 2ab0 84be 15c3 423e
000001e0: 0a8b 8fbe 0a9b 123e 52c6 ae3d 475e 653e
000001f0: 0892 f9bc 7d75 233c aa30 2e3e 5fdc a7be
00000200: 2f37 963e 08bf 463e ab07 35be 02ad bd3d
00000210: 206a acbd f086 3fbe f5d5 92bd 8ddb 9e3e
00000220: 5695 703d e03c 203e 37d1 9a3d 8192 b13d
00000230: e5ba 183a fbbf 333d 069a dcbd a9db 9d3c
00000240: 0f47 54be ff0b 23be 06ef a1be b52d 84be
00000250: ed3b 8a3c 178e 3d3e 5aeb b1be a010 75bd
00000260: cce5 67be fc4c 823e 8ec4 74bd 7181 143d
00000270: 5f3a c93e 1258 313d 7485 183d 6a40 813d
00000280: 6cf7 5a3e d760 533e 731f e8bd 959f 313e
00000290: ee57 3cbe 3226 b139 a178 8ebd 10c1 66be
000002a0: bee6 17be d2d9 19bd e1be 98bd 1e61 50be
000002b0: da56 7cbe aa5e 313e c81d 51be 674a 5e3d
000002c0: 8c13 74be cc8a 38bd 7490 bb3d b075 093d
000002d0: 1313 ef3c 813f 1cbe 1825 11bd ba9d 26be
000002e0: 2040 9dbd d2fe d9bd 8403 e13d be21 233e
000002f0: 6eec 053e 80aa 0dbc 603e f6bc e875 443e
00000300: 9c69 1d3e fa0c 3bbe f062 a0bc 924a 14be
00000310: 6d67 3e3e 8038 86be b31a 9bbe 3d68 e13d
00000320: 8e11 3cbe fbca 843e 499d 48be ce5b e33d
00000330: f517 74bd 5638 513e a6bb 293e 25c7 56be
00000340: 783b 48be 291e 8c3c 6359 48be 31e4 7b3e
00000350: 0356 293e 9147 23be 2f46 613e 3032 41be
00000360: 68ee 0b3d 99f9 ab3b e4d7 c03d caed 903e
00000370: 22d6 d3bd d16c 7f3d 44e2 21bd 9816 0ebe
00000380: a027 85be 54de 433e ac52 fe3d 5829 223d
00000390: e08c 2dbe ff65 05be 062e 543e c9ea 77be
000003a0: 5053 83be 262b a0bd a3ef 51be ec97 52be
000003b0: 9881 99bd 683c 263e 42df 6bbe 982f 763c
000003c0: af92 46bd adb1 82be 388c a7bd e567 59be
000003d0: 042b b4bb 7d2f 37be f576 22be afb2 c9bd
000003e0: 730a 0a3e 646c c5be 5310 54be b4b5 99be
000003f0: 5e6c 813e 4aa8 cbbc 6348 87bb db69 5abd

linear1.bias f4 [256]
-0.15305763 -0.06433468 -0.31719032 0.6481181 -0.010368381 0.0875396 0.15878609 -0.1493439
-0.3035315 -0.23502357 0.101352274 0.044525795 -0.2543575 -0.32030395 0.12951516 -0.13286787
-0.325747 0.84043217 -0.12818167 -0.29220617 0.18154337 0.03423279 -0.20442784 -0.11704868
-0.20285943 0.083335236 0.24504098 0.8598033 -0.01009001 0.024816237 -0.3002654 -0.4250066
-0.20818652 -0.033967916 -0.01413693 -0.116643846 -0.053606905 0.05168142 -0.13815574 0.08402121
0.43857795 -0.14832272 -0.09130984 -0.19856018 0.020915683 0.0929639 -0.47295028 0.042569175
0.95422804 0.18106915 0.09338264 -0.06631571 -0.20899065 0.16494837 0.008740998 -0.046226334
-0.0213561 0.111217886 -0.08259579 -0.19783182 -0.27808908 -0.16804835 0.32715523 -0.19688986
0.46129698 1.1757374 0.12460394 -0.089077435 0.14996557 0.095590755 -0.035398528 -0.06781827
-0.30671436 -0.08140292 0.106700845 -0.19321072 -0.3362975 -0.049944848 -0.46087265 -0.018451827
0.2917838 0.08351754 0.04969119 -0.09856499 -0.1789922 -0.023748664 0.17401867 -0.2270211
-0.09583168 -0.041404136 -0.25693807 0.770724 -0.059512667 -0.1240363 0.17007835 -0.10136321
0.013671111 -0.031400897 0.11657654 -0.31603253 0.28029367 -0.61964595 0.6953233 0.15544036
-0.36839935 0.015822815 -0.14119554 0.13069463 -0.35022303 -0.1854143 0.041258626 -0.027573952
-0.24094243 -0.08647894 0.095627934 -0.21495894 -0.1511862 -0.28956422 0.12201433 -0.10088201
0.1004586 -0.0886866 -0.39702833 -0.16462165 0.01671321 0.060612354 -0.29324642 -0.60782814
-0.29540768 0.06537582 -0.17568319 -0.37168306 -0.16342066 -0.10649372 -0.2546418 -0.06591333
-0.102930166 0.30149227 -0.14711916 -0.07687374 -0.14845437 -0.45050246 -0.23623307 0.595808
-0.31493816 0.009721793 0.0020064649 -0.4765176 -0.20352142 -0.52889353 -0.04143537 -0.023674678
-0.28861445 0.13023974 0.12723704 -0.06797864 -0.075164035 -0.010118372 -0.24991357 -0.076871835
-0.13077039 0.6264443 0.3749294 -0.033961024 -0.41221973 0.87756634 -0.008503403 -0.22142825
-0.25311312 -0.109828 0.109959535 -0.23125139 0.055646244 0.16771245 -0.2268527 0.1631197
0.12973809 0.14661466 -0.3663067 0.07480008 0.4639984 -0.5301222 -0.037605472 -0.15366034
-0.09404633 -0.073903576 -0.24316654 -0.20373465 -0.013421274 0.3476068 1.4482012 0.93401384
-0.29908988 -0.22314969 -0.33570865 -0.25338405 -0.30031246 0.03874257 -0.042470824 -0.25306162
0.16028194 -0.17166601 0.2147115 0.09384736 0.42346436 -0.40353388 -0.40337974 -0.07540252
-0.056179933 -0.2747685 -0.3054072 -0.0007719982 -0.09362741 0.87550914 -0.09080492 -0.06449658
0.20516485 -0.04081802 -0.32275033 -0.07514075 -0.086215824 0.010008048 0.124096505 -0.35727245
-0.019490827 0.56540877 0.010828861 -0.14263149 -0.207752 0.22311091 0.21979247 0.06643325
0.036080994 0.38894215 -0.10760633 -0.46707186 0.3225141 0.06547241 -0.29006115 0.1956256
-0.084075384 -0.043244638 0.104038596 -0.3385981 -0.36861685 0.43613678 0.024471644 -0.23362967
-0.28514907 -0.2635534 -0.21610275 0.25980297 -0.12891199 -0.028914643 -0.018112848 0.015849357
00000000: 24bb 1cbe e7c1 83bd c566 a2be 11eb 253f
00000010: 24e0 29bc f647 b33d d298 223e 9bed 18be
00000020: 7b68 9bbe 05aa 70be c891 cf3d ae60 363d
00000030: 253b 82be e1fe a3be 9f9f 043e 840e 08be
00000040: 50c8 a6be 9026 573f 0e42 03be 0c9c 95be
00000050: 81e6 393e af37 0c3d 8855 51be 38b7 efbd
00000060: 62ba 4fbe aaab aa3d 06ec 7a3e 121c 5c3f
00000070: 9250 25bc 6c4b cb3c 63bc 99be 779a d9be
00000080: d92e 55be f121 0bbd 959e 67bc f8e2 eebd
00000090: ea92 5bbd e6af 533d b378 0dbe 5013 ac3d
000000a0: 4a8d e03e e9e1 17be a700 bbbd 5c53 4bbe
000000b0: 5e57 ab3c db63 be3d 8a26 f2be 045d 2e3d
000000c0: 4a48 743f 316a 393e 663f bf3d 88d0 87bd
000000d0: a501 56be 3ae8 283e 6736 0f3c d357 3dbd
000000e0: fdf2 aebc 34c6 e33d fb27 a9bd 6d94 4abe
000000f0: b161 8ebe de14 2cbe e480 a73e 7f9d 49be
00000100: 1e2f ec3e 907e 963f 5a30 ff3d 3b6e b6bd
00000110: 9390 193e 16c5 c33d 0cfe 10bd 4ee4 8abd
00000120: aa09 9dbe 93b6 a6bd f985 da3d 08d9 45be
00000130: 302f acbe f892 4cbd 80f7 ebbe 4928 97bc
00000140: b064 953e 3e0b ab3d fd88 4b3d 71dc c9bd
00000150: bb49 37be 8f8c c2bc f331 323e 3878 68be
00000160: 6643 c4bd 6297 29bd 638d 83be 2b4e 453f
00000170: 8ec3 73bd be06 febd 0529 2e3e 8497 cfbd
00000180: ccfc 5f3c 3a9e 00bd aebf ee3d 04cf a1be
00000190: a782 8f3e 1ea1 1ebf b500 323f c22b 1f3e
000001a0: d79e bcbe d99e 813c 9095 10be d0d4 053e
000001b0: 6f50 b3be 3fdd 3dbe cefe 283d c5e2 e1bc
000001c0: 9db9 76be df1b b1bd 94d8 c33d 321e 5cbe
000001d0: 8ed0 1abe c341 94be a6e2 f93d 3a9b cebd
000001e0: 3dbd cd3d 52a1 b5bd 4c47 cbbe 9492 28be
000001f0: 24ea 883c a944 783d 6524 96be a09a 1bbf
00000200: ad3f 97be c2e3 853d 4be6 33be 3e4d bebe
00000210: bf57 27be 6119 dabd 6960 82be 91fd 86bd
00000220: 0dcd d2bd 325d 9a3e 68a6 16be fb6f 9dbd
00000230: 6c04 18be 42a8 e6be 15e7 71be e086 183f
00000240: 933f a1be 2848 1f3c e57e 033b 1dfa f3be
00000250: eb67 50be 9165 07bf 22b8 29bd 66f1 c1bc
00000260: 46c5 93be 915d 053e 6d4a 023e 6338 8bbd
00000270: 9aef 99bd 87c7 25bc 58e9 7fbe fb6e 9dbd
00000280: ace8 05be a75e 203f bff6 bf3e b71a 0bbd
00000290: 770e d3be 30a8 603f db51 0bbc 16be 62be
000002a0: 0b98 81be 81ed e0bd 7732 e13d 2acd 6cbe
000002b0: 51ed 633d d0bc 2b3e 134c 68be da08 273e
000002c0: 10da 043e 2722 163e 8d8c bbbe c930 993d
000002d0: 3391 ed3e 17b6 07bf 3208 1abd 2359 1dbe
000002e0: 5d9b c0bd c25a 97bd a600 79be d19f 50be
000002f0: e7e4 5bbc 85f9 b13e a85e b93f 881b 6f3f
00000300: 4f22 99be 5a81 64be 01e2 abbe 8ebb 81be
00000310: 8ec2 99be 87b0 1e3d e3f5 2dbd 4b91 81be
00000320: f320 243e 37c9 2fbe 55dd 5b3e 0b33 c03d
00000330: 52d0 d83e fe9b cebe ca87 cebe a36c 9abd
00000340: ee1c 66bd 75ae 8cbe 555e 9cbe ec5f 4aba
00000350: babf bfbd 5e21 603f eef7 b9bd c816 84bd
00000360: bc16 523e cc30 27bd 883f a5be 65e3 99bd
00000370: ec91 b0bd ccf8 233c 4f26 fe3d 6aec b6be
00000380: 3aab 9fbc a1be 103f 896b 313c fd0d 12be
00000390: f1bc 54be 3077 643e 4711 613e 280e 883d
000003a0: aac9 133d 6d23 c73e b560 dcbd 0b24 efbe
000003b0: 9120 a53e 6616 863d e582 94be 1452 483e
000003c0: b72f acbd 4a21 31bd 3012 d53d bb5c adbe
000003d0: 59bb bcbe 524d df3e c278 c83c 9e3c 6fbe
000003e0: 0fff 91be 79f0 86be 0a4a 5dbe e504 853e
000003f0: 8101 04be 67de ecbc 6561 94bc 83d6 813c

linear2.weight f4 [3, 256]
-0.2219657 -0.16677804 -0.019925194 0.36140966 -0.016542388 -0.0403308 0.23158059 0.41854304
-0.062995836 -0.08537008 0.0037796157 0.03923853 -0.045111936 0.03967932 0.284395 0.24828155
-0.087387875 0.20883293 -0.15692493 -0.3730788 0.2386492 0.0008377574 -0.22106647 -0.15124376
-0.05295505 0.123599716 0.32489812 0.36059138 -0.09787963 0.3714027 0.38806498 -0.057786595
0.049842607 0.012576862 0.57504314 -0.38868824 -0.38370013 0.24470678 -0.2571829 -0.54315156
0.2045568 -0.11559118 -0.51620674 -0.115188606 0.08497895 0.22089988 -0.09124088 -0.5586294
0.36640012 0.110920906 0.2045645 0.044522136 -0.28748804 0.36697444 0.42699963 0.045433383
0.15686396 -0.14809564 0.18484075 -0.102535605 -0.40936282 -0.5770968 0.431203 -0.25077024
0.046150614 0.42891195 -0.14125523 -0.0077203005 -0.1787508 0.20340408 -0.4586822 -0.33474642
-0.13489597 0.22815983 -0.13015042 -0.09215092 -0.26774108 -0.40700978 -0.12548637 0.52701515
0.06298865 0.16983151 0.11914938 -0.37972772 0.061989468 0.43113622 0.15696661 -0.10130514
0.12414556 0.15044403 0.07479283 0.1571365 0.30963627 -0.21843028 0.32839906 0.11961258
0.33243757 -0.1664707 -0.5201297 -0.14609866 0.21944794 -0.16319674 0.38959756 0.06353566
0.040594686 0.31933615 -0.3560845 -0.6548514 -0.0028887426 -0.0766296 -0.4897791 -0.03588352
-0.20488623 -0.49961767 -0.48821265 0.04081238 0.06237268 -0.062107585 0.12953265 -0.61507845
0.42159846 0.29249772 -0.07643044 -0.5754422 -0.047182262 -0.053360246 -0.3044051 -0.140932
-0.22905079 0.08134637 0.071948476 0.017120942 -0.055711854 0.028096141 -0.15711506 -0.08497721
-0.027362704 0.11760788 -0.12534437 -0.8200324 -0.08251255 -0.20426978 0.12182975 0.24831341
-0.0902051 0.115536265 -0.044212148 -0.16827448 -0.0195727 -0.12014049 0.616752 0.014899476
0.01911668 0.24083866 0.124124 0.07035397 0.2087148 0.17134 0.03186061 0.2660565
0.066194646 0.4572273 0.1669703 0.40473288 0.008920047 0.37782502 -0.18899766 -0.11321218
-0.22251935 -0.744094 -0.25154665 -0.36810908 0.1453329 -0.57085437 -0.012660517 0.09447112
-0.09795003 0.0467367 -0.34139922 0.025119483 0.06760852 -0.14663391 0.05758272 -0.0054899207
0.19172488 0.3772326 -0.37008214 -0.26213834 0.20973937 0.45306838 0.31398016 0.2621762
-0.003990066 -0.047021315 -0.2035809 0.023634002 0.013662348 -0.24311978 -0.6313343 -0.060693685
0.023147363 0.20846274 0.0323269 0.03090851 0.120665245 -0.12052044 -0.17021245 -0.28997847
0.0458336 -0.0828445 -0.0013114575 -0.66054296 -0.13810763 0.21146879 -0.55652076 -0.47546065
0.2696773 -0.041564014 0.19043534 -0.31604037 0.3279354 0.0038886769 -0.6992786 -0.16520894
0.04283759 0.1907978 0.4592628 0.08679918 -0.5265291 0.3565402 0.23832086 0.10797276
0.32310236 0.32061234 -0.2708289 -0.13375884 0.26004067 0.054099623 0.097695105 -0.021732723
-0.69705606 0.18511617 0.062490117 -0.14114846 -0.009335002 0.4961303 0.34393984 -0.06346392
0.03750771 0.06425338 0.14482722 0.27384165 0.06961548 0.026537186 -0.046237707 0.29859117
00000000: fa4a 63be ddc7 2abe 293a a3bc b00a b93e
00000010: e783 87bc e931 25bd 7623 6d3e 464b d63e
00000020: f603 81bd 82d6 aebd 6eb3 773b 95b8 203d
00000030: 4bc7 38bd c886 223d 399c 913e 853d 7e3e
00000040: 6af8 b2bd 4dd8 553e eeb0 20be 2f04 bfbe
00000050: 7560 743e f39c 5b3a 405f 62be a5df 1abe
00000060: 65e7 58bd d921 fd3d 0c59 a63e 6f9f b83e
00000070: 1e75 c8bd 7f28 be3e 74b0 c63e a3b1 6cbd
00000080: c327 4c3d 2f0f 4e3c 0736 133f 2502 c7be
00000090: 5874 c4be 6a94 7a3e 7aad 83be fb0b 0bbf
000000a0: 5677 513e 12bb ecbd 2026 04bf 01e8 ebbd
000000b0: 7209 ae3d 9433 623e 80dc babd 5602 0fbf
000000c0: cc98 bb3e 802a e33d 5b79 513e d85c 363d
000000d0: a231 93be 13e4 bb3e b29f da3e 5b18 3a3d
000000e0: f2a0 203e 62a6 17be e546 3d3e 30fe d1bd
000000f0: 0198 d1be 9ebc 13bf a4c6 dc3e f564 80be
00000100: 6d08 3d3d 599a db3e 36a5 10be 93fa fcbb
00000110: 730a 37be 2949 503e 65d8 eabe e263 abbe
00000120: 2b22 0abe bba2 693e 2746 05be 9fb9 bcbd
00000130: 5c15 89be 9663 d0be 807f 00be 77ea 063f
00000140: 3100 813d 50e8 2d3e 9704 f43d ac6b c2be
00000150: abe8 7d3d e3bd dc3e dbbb 203e 1279 cfbd
00000160: 0740 fe3d 000e 1a3e fc2c 993d 64e8 203e
00000170: a588 9e3e 30ac 5fbe ec23 a83e 71f7 f43d
00000180: 4235 aa3e 4c77 2abe 3827 05bf e39a 15be
00000190: f6b6 603e 0c1d 27be 5579 c73e fc1e 823d
000001a0: 9d46 263d 0780 a33e b550 b6be 57a4 27bf
000001b0: 0f51 3dbb fbef 9cbd 54c4 fabe 99fa 12bd
000001c0: b2cd 51be e3cd ffbe 02f7 f9be e22a 273d
000001d0: 7f7a 7f3d 8664 7ebd 35a4 043e c875 1dbf
000001e0: c1db d73e 43c2 953e 9087 9cbd 2e50 13bf
000001f0: 3042 41bd 4690 5abd fcda 9bbe 7a50 10be
00000200: 4a8c 6abe ed98 a63d b959 933d 3841 8c3c
00000210: 1d32 64bd e129 e63c c5e2 20be 8808 aebd
00000220: c027 e0bc 66dc f03d 465a 00be a5ed 51bf
00000230: 57fc a8bd 192c 51be e081 f93d df45 7e3e
00000240: 74bd b8bd 479e ec3d cc17 35bd 2550 2cbe
00000250: ed56 a0bc 380c f6bd 76e3 1d3f ef1c 743c
00000260: 959a 9c3c 699e 763e b934 fe3d be15 903d
00000270: 55b9 553e c173 2f3e 4580 023d 8f38 883e
00000280: 0f91 873d b219 ea3e 43fa 2a3e 2639 cf3e
00000290: 6425 123c 4872 c13e 9a88 41be cadb e7bd
000002a0: 1ddc 63be f27c 3ebf b9ca 80be cb78 bcbe
000002b0: 26d2 143e 8323 12bf 0f6e 4fbc 137a c13d
000002c0: 069a c8bd fb6e 3f3d e1cb aebe 60c7 cd3c
000002d0: 5676 8a3d 3327 16be dcdb 6b3d cbe4 b3bb
000002e0: 8753 443e a224 c13e 687b bdbe ff36 86be
000002f0: ebc5 563e 94f8 e73e 02c2 a03e f53b 863e
00000300: 19bf 82bb 6c99 40bd 8377 50be 189c c13c
00000310: 0ad8 5f3c 64f4 78be 209f 21bf f199 78bd
00000320: 8a9f bd3c 4277 553e 3669 043d d833 fd3c
00000330: 571f f73d 6cd3 f6bd 2c4c 2ebe 0f78 94be
00000340: 03bc 3b3d 61aa a9bd 36e5 abba 5819 29bf
00000350: 166c 0dbe 468b 583e 2578 0ebf 946f f3be
00000360: 2513 8a3e 073f 2abd 7b01 433e 0bd0 a1be
00000370: 26e7 a73e 2cd9 7e3b ec03 33bf 882c 29be
00000380: 7876 2f3d 8060 433e 7e24 eb3e c5c3 b13d
00000390: 9cca 06bf 708c b63e 620a 743e d320 dd3d
000003a0: ac6d a53e 4d27 a43e 16aa 8abe 14f8 08be
000003b0: 0d24 853e 9197 5d3d 5f14 c83d d308 b2bc
000003c0: 4472 32bf 188f 3d3e a3f5 7f3d 3989 10be
000003d0: d6f1 18bc ca04 fe3e e218 b03e 5ff9 81bd
000003e0: afa1 193d 4797 833d 964d 143e f934 8c3e
000003f0: 9092 8e3d 8364 d93c c063 3dbd f1e0 983e

linear2.bias f4 [3]
0.33033967 0.12100655 0.13951395
00000000: 4822 a93e 48d2 f73d bfdc 0e3e
