model/checkpoint_20251029_194656_score61.pth (torch, 21291 bytes, 4 tensors)

linear1.weight f4 [256, 14]
0	0x3e8bc67b	0.27299866
1	0x3e53fb03	0.20701222
2	0x3ad5aa8c	0.0016301437
3	0xbe57b934	-0.21066743
4	0x3db832df	0.08994078
5	0x3cad2138	0.021134004
6	0x3e712b0f	0.23551582
7	0x3e71df36	0.23620304
8	0xbcb5509a	-0.02213316
9	0x3e2fe171	0.17175843
10	0x3e283bb8	0.16429031
11	0x3e673013	0.22576933
12	0xbe83154a	-0.2560218
13	0x3e6ca1d4	0.23108608
14	0x3c4150a7	0.011799014
15	0xbd6b4230	-0.05743617
16	0x3e9a45f1	0.30131486
17	0x3e9aec26	0.30258292
18	0xbe15406c	-0.14575356
19	0x3c1aa56a	0.009438852
20	0x3d9559f5	0.072925486
21	0x3eb3efb0	0.35143805
22	0xbe72d1e0	-0.23712873
23	0xbe33b9a9	-0.17551292
24	0x3c6710eb	0.014103155
25	0x3ebc2f9b	0.3675507
26	0x3e25b7db	0.16183417
27	0x3e984a18	0.2974403
28	0x3e1e1218	0.1543659
29	0x3d34fce6	0.044186495
30	0x3d51e566	0.051244162
31	0x3e266925	0.16251047
32	0xbd261f0c	-0.040556952
33	0x3e914d27	0.28379175
34	0x3e3c69ea	0.18399778
35	0xbe2de2f8	-0.16981113
36	0xbc666fc6	-0.014064735
37	0x3d53813b	0.051636916
38	0x3dae0996	0.08497922
39	0x3d5d7059	0.05406222
40	0xbdf29f21	-0.11846758
41	0x3d23be71	0.03997654
42	0xbda4ee99	-0.080533214
43	0x3e5c24c1	0.21498396
44	0x3d6c3e1c	0.05767642
45	0xbe9341ba	-0.28761083
46	0xbcd56db1	-0.026053282
47	0xbe1b81cb	-0.15186231
48	0xbe293863	-0.16525416
49	0xbd9a6893	-0.07539477
50	0xbd994286	-0.074833915
51	0x3df0ecea	0.11763938
52	0xbe888a54	-0.26668036
53	0xbeb44388	-0.35207772
54	0xbe3b73b3	-0.18305854
55	0xbe2d2f68	-0.16912615
56	0xbe713e1e	-0.23558852
57	0x3e6b8733	0.23000793
58	0xbe708832	-0.23489454
59	0xbe5b29e9	-0.21402706
60	0xbd5983f5	-0.05310436
61	0xbe42ecb3	-0.19035606
62	0xbe6a6571	-0.2289026
63	0x3d722bf7	0.05912396
64	0xbe74ece9	-0.23918499
65	0x3d90bfa8	0.070678055
66	0xbe3fb72f	-0.18722223
67	0x3c48b085	0.012249117
68	0xbd49fe29	-0.04931465
69	0x3e727dab	0.23680751
70	0x3d8f56bd	0.06998966
71	0x3d25fb9c	0.040523157
72	0xbd336a95	-0.043802816
73	0x3cfb935a	0.030709911
74	0xbc7bccd4	-0.015368659
75	0xbd8dde91	-0.06927217
76	0xbe543caa	-0.20726267
77	0x3e30e16e	0.17273495
78	0xbe16de1c	-0.14733166
79	0x3e614231	0.21997906
80	0x3e092c01	0.13395692
81	0xbcd719f6	-0.026257496
82	0x3e1b2359	0.15150203
83	0x3d821e8c	0.063534826
84	0x3e365410	0.17805505
85	0xbdc93658	-0.098248184
86	0x3e22c25c	0.15894455
87	0x3e30676b	0.17226951
88	0x3e1482ee	0.1450307
89	0x3dd49a1c	0.103809565
90	0xbcb4e000	-0.022079468
91	0x3dab108f	0.08352768
92	0xbe8f46bf	-0.27983662
93	0xbe89f229	-0.26942566
94	0x3d87e264	0.066349775
95	0xbe9c9a94	-0.30586684
96	0xbdf69c18	-0.12041491
97	0xbd3e1a0f	-0.04641157
98	0xbe410008	-0.18847668
99	0xbe3d3f6b	-0.18481223
100	0x3decc2cf	0.11560594
101	0x3ded30c5	0.11581568
102	0xbd9bda98	-0.07610053
103	0x3e85fbe5	0.26168743
104	0xbde59a0f	-0.11211025
105	0x3e060f12	0.13091686
106	0xbe37d296	-0.17951426
107	0x3c9e234f	0.019303946
108	0x3e748303	0.23878102
109	0xbdbae189	-0.09125049
110	0x3e5b584a	0.21420398
111	0x3dacfd30	0.08446729
112	0x3e9f667b	0.31132874
113	0x3e131073	0.14361744
114	0xbe53a559	-0.20668544
115	0xbba885ec	-0.005142918
116	0x3dac61d4	0.08417097
117	0x3e687ba2	0.22703412
118	0xbe4fe17d	-0.2030086
119	0x3e394d70	0.18095946
120	0xbe715895	-0.23568948
121	0x3df6a296	0.120427296
122	0x3dba5f02	0.091001526
123	0x3e62d5c0	0.22151852
124	0xbd167a83	-0.03673793
125	0xbb1e0732	-0.0024113175
126	0x3e47db07	0.19517146
127	0xbe92009e	-0.28516096
128	0x3e74f37a	0.23921004
129	0x3e368698	0.17824781
130	0xbe2bab40	-0.16764545
131	0x3da147ee	0.078750476
132	0xbdd0f385	-0.10202698
133	0xbe1630d5	-0.14667065
134	0xbde7bc30	-0.11315191
135	0x3e9a0bb8	0.30087066
136	0xba757689	-0.00093636714
137	0x3e07c57a	0.13258925
138	0x3db65e9b	0.08904763
139	0x3dcdfb17	0.10057657
140	0x3d3e4e6b	0.046461504
141	0x3dae4a13	0.08510222
142	0xbddd9cf7	-0.10820954
143	0x3b8f383d	0.004370718
144	0xbe53428b	-0.20630853
145	0xbe31e7be	-0.17373559
146	0xbe7b0e65	-0.2451721
147	0xbe8cc457	-0.27493545
148	0x3d4dfdce	0.050290875
149	0x3e41ee5b	0.18938582
150	0xbeb1aef9	-0.34703806
151	0xbd62f779	-0.05541179
152	0xbe713b86	-0.23557863
153	0x3e838546	0.25687617
154	0xbd9d66d6	-0.0768563
155	0x3df0a58e	0.11750327
156	0x3eacca1c	0.33747947
157	0xbaa7525b	-0.0012765633
158	0x3db60353	0.08887353
159	0x3dc89260	0.09793544
160	0x3e0a8b08	0.13529599
161	0x3e55e58f	0.20888351
162	0xbe191856	-0.1495069
163	0x3e2eb304	0.17060477
164	0xbe5c7047	-0.21527205
165	0x3b38c7c0	0.0028195232
166	0xbd9940c2	-0.07483055
167	0xbe5d0560	-0.21584082
168	0xbe17e6be	-0.14834115
169	0xbd422c22	-0.04740537
170	0xbd5f6610	-0.054540694
171	0xbe50611e	-0.20349547
172	0xbe7c56da	-0.24642506
173	0x3e2c9985	0.16855438
174	0xbe511dc8	-0.20421517
175	0x3d4b356c	0.049611494
176	0xbe74138c	-0.23835582
177	0xbd388acc	-0.045054242
178	0x3db205f4	0.08692542
179	0x3cecc167	0.028900815
180	0x3ce781e8	0.028260186
181	0xbe1d2571	-0.15346314
182	0xbd112518	-0.035435766
183	0xbe269dba	-0.16271105
184	0xbd9d4020	-0.076782465
185	0xbdd9fed2	-0.10644306
186	0x3de10384	0.10986999
187	0x3e2321be	0.1593084
188	0x3e05ec6e	0.13078472
189	0xbc0daa80	-0.008646607
190	0xbcf63e60	-0.03005904
191	0x3e4475e8	0.19185603
192	0x3e1d699c	0.15372318
193	0xbe3b0cfa	-0.18266669
194	0xbca062f0	-0.019578427
195	0xbe144a92	-0.14481571
196	0x3e63380a	0.22189346
197	0xbe6bfaec	-0.23044938
198	0xbe9c007c	-0.3046912
199	0x3e1e3bed	0.15452547
200	0xbe31cabd	-0.17362495
201	0x3e768161	0.24072792
202	0xbe560a43	-0.20902352
203	0x3d5cc9ce	0.053903393
204	0xbce85b74	-0.02836392
205	0x3e356603	0.17714696
206	0x3e638a83	0.22220807
207	0xbe48253f	-0.19545458
208	0xbe56d66e	-0.20980236
209	0xbbeb81d2	-0.0071871066
210	0xbe483ad4	-0.19553691
211	0x3e0f82d9	0.14014758
212	0x3e24e483	0.16102795
213	0xbe244ffd	-0.16046138
214	0x3e259c68	0.16172945
215	0xbe38131c	-0.1797604
216	0x3df221c3	0.11822846
217	0x3d2786ad	0.04089992
218	0x3d8fbd85	0.0701857
219	0x3e903ce7	0.28171465
220	0xbdc68f43	-0.09695294
221	0x3d572756	0.052527748
222	0xbcab30a8	-0.020897225
223	0xbe25d69c	-0.16195148
224	0xbe8527a0	-0.26006794
225	0x3e43de54	0.1912778
226	0x3dfe52ac	0.12418112
227	0x3d222958	0.03959021
228	0xbe2d8ce0	-0.16948271
229	0xbe0565ff	-0.1302719
230	0x3e542e06	0.20720682
231	0xbe77eac9	-0.24210657
232	0xbe835350	-0.256495
233	0xbda02b26	-0.0782073
234	0xbe51efa3	-0.2050157
235	0xbe5297ec	-0.20565766
236	0xbd998198	-0.07495421
237	0x3e263c68	0.1623398
238	0xbe645537	-0.22298132
239	0x3d97c8e8	0.07411367
240	0xbbda5e00	-0.0066640377
241	0xbe622159	-0.22083034
242	0xbd167f24	-0.036742344
243	0xbe43299f	-0.19058846
244	0xbc3f4946	-0.011675185
245	0xbe31d1d5	-0.17365201
246	0xbdb662c7	-0.08905559
247	0xbd38941a	-0.045063116
248	0x3e0871ee	0.1332471
249	0xbea74864	-0.32672417
250	0xbe0c1b22	-0.13682225
251	0xbe8ee002	-0.2790528
252	0x3e805c82	0.25070578
253	0xbde594f6	-0.11210053
254	0x3c5f9729	0.013646879
255	0x3d470e27	0.04859748

linear1.bias f4 [256]
0	0xbdf8f2e3	-0.12155702
1	0xbdf1f89a	-0.11814995
2	0xbea50cb2	-0.32236248
3	0x3f355e4e	0.7084702
4	0xbcf4dfe2	-0.029891912
5	0x3d98b855	0.074570335
6	0x3e1e45bd	0.1545629
7	0xbe1030d3	-0.14081125
8	0xbe9cacb8	-0.30600524
9	0xbe8490b7	-0.2589166
10	0x3dd89e6f	0.10577094
11	0x3d408ae3	0.047007453
12	0xbe849dc1	-0.25901607
13	0xbea3fee1	-0.32030395
14	0x3e134187	0.14380465
15	0xbe121fe4	-0.14269978
16	0xbea6c850	-0.325747
17	0x3f66389b	0.89930123
18	0xbe132132	-0.14368132
19	0xbe959c0c	-0.29220617
20	0x3e57490f	0.21023963
21	0x3d4a71f2	0.049425073
22	0xbe515588	-0.20442784
23	0xbdb88e9c	-0.090115756
24	0xbe31d45b	-0.17366163
25	0x3dbea887	0.09309488
26	0x3e5a9c9b	0.21348803
27	0x3f68770f	0.9080667
28	0xbd017d83	-0.031613838
29	0xbb7dafd2	-0.0038709533
30	0xbe8a3414	-0.26992857
31	0xbed99a77	-0.4250066
32	0xbe4e518f	-0.201483
33	0xbd10cae7	-0.035349753
34	0xbd7f6187	-0.06234887
35	0xbe0ea562	-0.13930276
36	0xbd283542	-0.041066416
37	0x3d2c18dd	0.0420159
38	0xbe17f3b0	-0.14839053
39	0x3d904646	0.070446536
40	0x3f0155c9	0.5052152
41	0xbe1b2177	-0.15149485
42	0xbdb143c3	-0.08655503
43	0xbe4a64fa	-0.19765082
44	0x3b120ab2	0.0022284207
45	0x3d7f696e	0.062356405
46	0xbee4b56e	-0.4466967
47	0x3c987efc	0.018615238
48	0x3f76e94a	0.9644972
49	0x3e2796a1	0.16366054
50	0x3d8876de	0.06663297
51	0xbdd0910e	-0.10183917
52	0xbe71150e	-0.23543188
53	0x3e577977	0.21042429
54	0xbd8ba124	-0.068178445
55	0xbd78490b	-0.060616534
56	0x3a9312f9	0.0011220864
57	0x3d4f4449	0.05060223
58	0xbd7f3423	-0.06230558
59	0xbe726574	-0.23671514
60	0xbe8a4857	-0.27008316
61	0xbe55f469	-0.20894016
62	0x3eb566f0	0.35430098
63	0xbe3e7fd7	-0.18603455
64	0x3f0365a9	0.51326996
65	0x3f9e73c6	1.2379081
66	0x3e0da50d	0.13832493
67	0xbd98b3cd	-0.07456169
68	0x3e15879f	0.14602517
69	0x3dde3ee1	0.10851837
70	0xbd81ddb6	-0.06341116
71	0xbd9f8cb4	-0.07790509
72	0xbe9b3666	-0.3031494
73	0xbd962759	-0.07331724
74	0x3dad9d6c	0.084772915
75	0xbe40f03c	-0.18841642
76	0xbecf1a58	-0.40449786
77	0xbd8a12a3	-0.06741836
78	0xbeebf780	-0.46087265
79	0x3c8bb236	0.017052751
80	0x3e9f7f0b	0.31151614
81	0x3dc8b58f	0.098002546
82	0x3cafd482	0.021463636
83	0xbda45a6b	-0.08025058
84	0xbe4843ed	-0.19557162
85	0xbd61ac66	-0.055096053
86	0x3e256c3a	0.16154566
87	0xbe96e039	-0.29467943
88	0xbdca5a3f	-0.09880494
89	0xbc8bbad6	-0.017056864
90	0xbe838d63	-0.25693807
91	0x3f57a44d	0.8423508
92	0xbda072b1	-0.07834376
93	0xbe30f8ae	-0.17282364
94	0x3e3fec63	0.18742518
95	0xbde8d8c2	-0.11369468
96	0xbcd24220	-0.025666296
97	0xbcc459c5	-0.023968587
98	0x3de14520	0.10999513
99	0xbea382f5	-0.3193585
100	0x3ea20208	0.31642175
101	0xbf1ea11e	-0.61964595
102	0x3f491823	0.78552455
103	0x3e51b45b	0.20478956
104	0xbebd9b3d	-0.370325
105	0xbc3129ec	-0.010813218
106	0xbe0aa711	-0.13540293
107	0x3dfc139b	0.12308427
108	0xbeb3506f	-0.35022303
109	0xbe6ba624	-0.23012596
110	0x3d8d92d9	0.069127746
111	0xbc66305e	-0.014049618
112	0xbe76b99d	-0.24094243
113	0xbdb7e743	-0.089796565
114	0x3db77d57	0.089594536
115	0xbe3cd668	-0.18441164
116	0xbe3f1084	-0.18658644
117	0xbe9441c3	-0.28956422
118	0x3daa23cb	0.08307608
119	0xbdce9b3a	-0.10088201
120	0x3e0009c9	0.12503733
121	0xbdac1fca	-0.08404501
122	0xbebebca7	-0.37253305
123	0xbe3c2d26	-0.18376598
124	0x3c14f6b2	0.00909202
125	0x3d176491	0.036961142
126	0xbe93f4b9	-0.28897646
127	0xbf1b9aa0	-0.60782814
128	0xbe8d2a92	-0.2757154
129	0x3d2aa6d5	0.04166301
130	0xbe5ff8de	-0.21872279
131	0xbeafd8dd	-0.3434514
132	0xbe4437a4	-0.1916185
133	0xbde45d71	-0.11150635
134	0xbe9c57b4	-0.30535662
135	0xbdf79431	-0.12088812
136	0xbe1f4463	-0.15553431
137	0x3eba0b74	0.36336863
138	0xbe3c173c	-0.18368238
139	0xbc9f7fcb	-0.019470116
140	0xbe44878e	-0.19192335
141	0xbee6a842	-0.45050246
142	0xbe624bb0	-0.22099185
143	0x3f22d6b5	0.63608867
144	0xbe9ec818	-0.31012034
145	0x3cc0d373	0.023538327
146	0xbc9290b8	-0.017891273
147	0xbef3fa1d	-0.4765176
148	0xbe3b0369	-0.1826302
149	0xbf076591	-0.52889353
150	0xbd1106e7	-0.035406973
151	0xbd4fde3e	-0.050749056
152	0xbe9b1aaa	-0.3029378
153	0x3e3db341	0.18525411
154	0x3dd96599	0.10615081
155	0xbdc319c0	-0.09526396
156	0xbd8192bd	-0.06326816
157	0xbd03bc25	-0.03216185
158	0xbe7fe958	-0.24991357
159	0xbc8dccfa	-0.017309655
160	0xbe553319	-0.20820273
161	0x3f2e5dfb	0.6811215
162	0x3ece81df	0.4033346
163	0xbce0c70d	-0.027438665
164	0xbed30e77	-0.41221973
165	0x3f61f198	0.8825927
166	0x3c80b2b7	0.015710218
167	0xbe5b202a	-0.21398988
168	0xbe81980b	-0.25311312
169	0xbde1e55b	-0.11030074
170	0x3db872d6	0.09006278
171	0xbe7a75e0	-0.24459028
172	0x3d92b5c6	0.07163577
173	0x3e2a4b87	0.16630374
174	0xbe85a3ec	-0.26101625
175	0x3df20b4a	0.118185595
176	0x3e017a23	0.12644248
177	0x3de6bd84	0.11266616
178	0xbeba0f3a	-0.36339742
179	0x3daeb6cf	0.08530962
180	0x3ef0b04f	0.47009513
181	0xbf07b617	-0.5301222
182	0xbd8102c0	-0.06299353
183	0xbe1d5923	-0.15366034
184	0xbda2e42f	-0.07953679
185	0xbdafdba6	-0.085868165
186	0xbe7900a6	-0.24316654
187	0xbe7a3d8b	-0.2443754
188	0x3ba34bcd	0.0049834014
189	0x3eb1190a	0.34589416
190	0x3fc1300a	1.5092785
191	0x3f6cd333	0.92509764
192	0xbe8b5014	-0.27209532
193	0xbe93c00c	-0.28857458
194	0xbeb51786	-0.3536951
195	0xbe81bb8e	-0.25338405
196	0xbe94d7f9	-0.29071024
197	0x3d9d86a3	0.076916955
198	0xbd17c08b	-0.037048858
199	0xbe83166f	-0.25603053
200	0x3e2f6720	0.17129183
201	0xbe3cb28d	-0.18427487
202	0x3e95c4ba	0.29251653
203	0x3d861b0b	0.06548127
204	0x3ee13e5c	0.4399289
205	0xbece9bfe	-0.40353388
206	0xbece87ca	-0.40337974
207	0xbd2c84b5	-0.042118747
208	0xbd982a84	-0.07429984
209	0xbe94d7af	-0.29070804
210	0xbea384bf	-0.31937215
211	0xbbdceedc	-0.0067423414
212	0xbe01acea	-0.12663618
213	0x3f721e40	0.9457741
214	0xbd909acd	-0.07060776
215	0xbd92b9b0	-0.07164323
216	0x3e284c67	0.16435395
217	0xbdab9678	-0.08378309
218	0xbe9b9339	-0.3038576
219	0xbe388b7a	-0.18021956
220	0xbde1ecd8	-0.110315025
221	0x3d589425	0.052875657
222	0x3d8caf56	0.0686938
223	0xbebe3268	-0.37147832
224	0xbd502d2c	-0.05082433
225	0x3f187b09	0.59562737
226	0xbce232dc	-0.027612142
227	0xbe156829	-0.14590515
228	0xbe2d6352	-0.16932419
229	0x3e9b6dca	0.303572
230	0x3e5ed98d	0.21762677
231	0x3d523c38	0.05132696
232	0x3b1a910a	0.0023584985
233	0x3ec0b333	0.37636718
234	0xbe0cf21e	-0.13764235
235	0xbef47fbe	-0.4775371
236	0x3ea1892e	0.31549972
237	0x3d64b428	0.055835873
238	0xbe8a7ad9	-0.2704685
239	0x3e627678	0.22115505
240	0xbdec9f5a	-0.115538314
241	0xbc15a80f	-0.009134307
242	0x3dd51230	0.104038596
243	0xbec60f55	-0.38683572
244	0xbea897a8	-0.32928205
245	0x3ede2826	0.43390006
246	0x3c80dd61	0.015730562
247	0xbe58d95b	-0.21176665
248	0xbe845ced	-0.25852147
249	0xbe857f5d	-0.26073733
250	0xbe533483	-0.206255
251	0x3e955286	0.29164523
252	0xbde2ff1d	-0.11083815
253	0xbd4833ed	-0.048877645
254	0x3ceaba6a	0.028653342
255	0x3be879a4	0.007094579

linear2.weight f4 [3, 256]
0	0xbe71c7a0	-0.23611307
1	0xbe470cfe	-0.1943855
2	0xbcc8f937	-0.024532897
3	0x3eb7520c	0.35804784
4	0xbd65d3d6	-0.056110226
5	0xbccdda21	-0.025128426
6	0x3e6f5d01	0.23375322
7	0x3ed14402	0.40872198
8	0xbd1f8f90	-0.03895527
9	0xbd6c720c	-0.05772595
10	0x3c69efbe	0.01427835
11	0x3d23d90a	0.040001906
12	0xbd37504b	-0.044754308
13	0x3d2286c8	0.03967932
14	0x3ea3f7bc	0.32024944
15	0x3e91091a	0.28327256
16	0xbdb2f86a	-0.087387875
17	0x3e30c4e1	0.17262603
18	0xbe2bb82c	-0.16769475
19	0xbebf042f	-0.3730788
20	0x3e5f237f	0.21790884
21	0xbc9e7612	-0.01934341
22	0xbe625f40	-0.22106647
23	0xbe36f6fc	-0.17867655
24	0xbd5e9ab1	-0.054346744
25	0x3df05604	0.11735156
26	0x3e9854aa	0.29752094
27	0x3eb2f086	0.3494913
28	0xbdceaa3c	-0.100910634
29	0x3e960c80	0.29306412
30	0x3ec82e42	0.39097792
31	0xbd6cb1a3	-0.057786595
32	0x3d464b23	0.0484115
33	0x3d2f4c68	0.042797476
34	0x3f0b152b	0.54329175
35	0xbec5da3f	-0.3864307
36	0xbec85935	-0.3913056
37	0x3e6b196b	0.22958915
38	0xbe907226	-0.28212088
39	0xbefa66c0	-0.48906517
40	0x3e6daa21	0.2320943
41	0xbe0ba6b9	-0.13637818
42	0xbf00ba73	-0.502845
43	0xbe2b8371	-0.1674936
44	0x3daa0844	0.08302358
45	0x3e24479a	0.16042939
46	0xbddc1500	-0.10746193
47	0xbef9e16d	-0.488048
48	0x3eb487a2	0.3525973
49	0x3df2fa5a	0.11864157
50	0x3e6f9107	0.23395167
51	0x3d315fd0	0.043304265
52	0xbe8be7c4	-0.2732526
53	0x3ec4f791	0.38470128
54	0x3eb01c22	0.34396464
55	0x3d577d4b	0.052609723
56	0x3e38a9ca	0.1803352
57	0xbe1208e5	-0.14261205
58	0x3e404f93	0.18780355
59	0xbe3716e9	-0.17879833
60	0xbec6a050	-0.38794184
61	0xbf0a7d65	-0.54097587
62	0x3ed55efe	0.41674036
63	0xbe80c312	-0.25148827
64	0x3df6cb54	0.120505005
65	0x3ed5924c	0.41713178
66	0xbdca0b69	-0.098654576
67	0x3c71cdac	0.014758509
68	0xbe0e4f48	-0.13897431
69	0x3e725a8f	0.23667358
70	0xbe9a6ea3	-0.30162534
71	0xbe98042d	-0.29690686
72	0xbdd2114e	-0.10257207
73	0x3e562f15	0.20916398
74	0xbe26491d	-0.16238828
75	0xbdbd8f7f	-0.09255885
76	0xbe1b320e	-0.15155813
77	0xbedb41e7	-0.42823717
78	0xbe007f80	-0.12548637
79	0x3f0b2acf	0.54362196
80	0x3d0f44bb	0.034977656
81	0x3e1e7d02	0.15477374
82	0x3dc61bea	0.09673293
83	0xbeac4d75	-0.33652845
84	0x3d556621	0.05209935
85	0x3ee7dc39	0.45285204
86	0x3e243fbe	0.1603994
87	0xbd8b8b61	-0.06813694
88	0x3e15250c	0.14564914
89	0x3e30d410	0.17268395
90	0x3d992cfc	0.07479283
91	0x3e445216	0.19171938
92	0x3eb41f64	0.351802
93	0xbe54c65e	-0.20778796
94	0x3ea2962e	0.31755203
95	0x3e13879a	0.14407197
96	0x3ea055a0	0.31315327
97	0xbde8d359	-0.11368436
98	0xbf0b4ed8	-0.5441718
99	0xbdd07730	-0.10178983
100	0x3e6a30a4	0.22870117
101	0xbe271d0c	-0.16319674
102	0x3ec22435	0.3791825
103	0x3dafb118	0.085787
104	0xbca9e3a3	-0.020738428
105	0x3ece0540	0.4023838
106	0xbeaf0287	-0.34181616
107	0xbf20ed83	-0.62862414
108	0xbb3d510f	-0.0028887426
109	0xbdb961d9	-0.09051866
110	0xbf04e1ba	-0.5190693
111	0xbd208023	-0.0391847
112	0xbe51cdb2	-0.20488623
113	0xbf0c32f8	-0.5476527
114	0xbef1b2ea	-0.47206813
115	0x3cc1ed69	0.023672776
116	0x3d6dd0ce	0.05806046
117	0xbd7e6486	-0.062107585
118	0x3dce397f	0.1006956
119	0xbf1d75c8	-0.61507845
120	0x3eda2aa6	0.42610663
121	0x3ea3f14f	0.3202004
122	0xbd9c8790	-0.07643044
123	0xbf187804	-0.5955813
124	0xbc86b6d4	-0.016444601
125	0xbda8b622	-0.08237864
126	0xbea2f6a8	-0.3182881
127	0xbe10507a	-0.140932
128	0xbe86fd0b	-0.2636493
129	0x3d5eaca6	0.05436387
130	0xbc1edd12	-0.009696262
131	0x3d163ea5	0.036680836
132	0xbd21df70	-0.039519727
133	0x3cd1a1e2	0.025589887
134	0xbe0ba481	-0.13636972
135	0xbbb93d50	-0.005653061
136	0xbc8f10bf	-0.01746404
137	0x3e0060cf	0.1253693
138	0xbe02d2cc	-0.12775725
139	0xbf5c1fe2	-0.8598615
140	0xbd0c6745	-0.034278173
141	0xbe512c19	-0.20426978
142	0x3d8c091e	0.068376765
143	0x3e844eb4	0.25841296
144	0xbd6d0288	-0.057863742
145	0x3de57a81	0.112050064
146	0xbd8598d6	-0.06523292
147	0xbe2c5025	-0.16827448
148	0xbc9fe475	-0.019518116
149	0xbdf60c38	-0.12014049
150	0x3f2399e8	0.6390672
151	0xbd5f5138	-0.054520816
152	0x3d93063a	0.07178922
153	0x3e8d1829	0.27557495
154	0x3d8fb46c	0.070168346
155	0x3d600a72	0.05469746
156	0x3e5d63b4	0.21620065
157	0x3e294b5f	0.16532658
158	0x3d028045	0.03186061
159	0x3e9fb158	0.3118999
160	0x3d880694	0.0664188
161	0x3ee89d4e	0.45432514
162	0x3e09837a	0.1342906
163	0x3eeab4e3	0.4584113
164	0x3c122564	0.008920047
165	0x3ec36c26	0.38168448
166	0xbe1c17a3	-0.15243392
167	0xbd404b5b	-0.046946865
168	0xbe63dc1d	-0.22251935
169	0xbf3c0408	-0.7344365
170	0xbe97cce3	-0.29648504
171	0xbeaeeb93	-0.34164104
172	0x3e1052ff	0.1409416
173	0xbf0c3aa9	-0.5477701
174	0xbd2191ae	-0.03944557
175	0x3dd0f9ee	0.1020392
176	0xbd8e3b46	-0.06944899
177	0x3d4443d8	0.047916263
178	0xbe0e8eb0	-0.13921618
179	0x3d831885	0.06401161
180	0x3d8a2564	0.06745413
181	0xbe162733	-0.14663391
182	0x3d82b2a1	0.06381727
183	0xbbb3e4cb	-0.0054899207
184	0x3e47b99b	0.19504397
185	0x3eb34397	0.35012504
186	0xbebd7b68	-0.37008214
187	0xbe545a53	-0.20737581
188	0x3e5a3691	0.21309878
189	0x3ec2dc32	0.3805862
190	0x3ea9786d	0.3309969
191	0x3e895686	0.26823825
192	0xbc0392c3	-0.008030596
193	0xbd138a60	-0.036020637
194	0xbe4936c4	-0.19649798
195	0x3cc19c18	0.023634002
196	0xbd0fca7a	-0.035105206
197	0xbe7e946d	-0.24861307
198	0xbf1e8d42	-0.6193429
199	0xbd075d6a	-0.03304807
200	0x3ca8105e	0.020515617
201	0x3e2c24af	0.16810869
202	0x3d42bb92	0.047542162
203	0x3db2344f	0.08701383
204	0x3e0f4f91	0.13995196
205	0xbdf6d36c	-0.12052044
206	0xbe2e4c2c	-0.17021245
207	0xbe948516	-0.29007787
208	0xbcbd42a4	-0.023103066
209	0xbd8f0db3	-0.06985035
210	0x3b34422c	0.0027505262
211	0xbf1bbcd1	-0.60834986
212	0xbe47784b	-0.19479482
213	0x3e794f8d	0.24346752
214	0xbf124514	-0.57136655
215	0xbedcf021	-0.43151954
216	0x3e5f212b	0.21789996
217	0x3bdf0796	0.0068063242
218	0x3e022909	0.12710966
219	0xbdc10fab	-0.094268166
220	0x3e99f4f0	0.30069685
221	0x3d1a4653	0.037664723
222	0xbf0a4487	-0.54010814
223	0xbe60a10a	-0.21936432
224	0x3d841fc1	0.06451369
225	0x3e42ac01	0.19010927
226	0x3ef4f5d5	0.47843805
227	0x3da26017	0.07928484
228	0xbf08fc26	-0.5350975
229	0x3eb58ce8	0.35459065
230	0x3e8823dc	0.2658986
231	0x3ddc9356	0.107702896
232	0x3ea2145b	0.31656155
233	0x3eaa2182	0.3322869
234	0xbe1ddf5a	-0.15417233
235	0xbe4618c9	-0.19345392
236	0x3e87930f	0.26479384
237	0x3d258e32	0.04041881
238	0x3dc81d8f	0.09771263
239	0xbc855863	-0.016277498
240	0xbf23c673	-0.63974684
241	0x3e496aa4	0.19669586
242	0x3d7ff5a3	0.062490117
243	0xbe15607a	-0.14587584
244	0xbc58183d	-0.013189373
245	0x3eeecf8b	0.46642718
246	0x3ebc3873	0.36761817
247	0xbd80cde3	-0.0628927
248	0x3d178503	0.036992084
249	0x3d84212c	0.064516395
250	0x3e377bb3	0.17918281
251	0x3e9033fc	0.2816466
252	0x3dc04407	0.09387975
253	0xba30fe2f	-0.00067517435
254	0xbcc809b6	-0.024418693
255	0x3e85f8df	0.26166436

linear2.bias f4 [3]
0	0x3eac8595	0.33695665
1	0x3e204fb7	0.15655409
2	0x3e2a51ef	0.16632818
