model/checkpoint_20251029_194703_score61.pth (torch, 21291 bytes, 4 tensors)

linear1.weight f4 [256, 14]
000000 59 2b 94 3e 34 4f 36 3e 24 ea 30 bd 8e 64 73 be
       0.28939322 0.17803651 -0.043192044 -0.23768827
000010 5b f9 82 3d 53 41 33 3c 80 64 69 3e fb 3e 65 3e
       0.06395217 0.0109408675 0.22792244 0.22387306
000020 c1 59 b9 bc 4e ef 28 3e 2a 20 1f 3e 46 c7 45 3e
       -0.022625806 0.16497537 0.15539613 0.19314298
000030 00 ae 92 be 5e 8d 49 3e d3 fb 14 3d 14 63 4e bd
       -0.28648376 0.19682834 0.03637297 -0.050387457
000040 52 52 b1 3e 1f 6a 99 3e dc 0b c3 bd 02 24 ab 3b
       0.34633118 0.29963776 -0.09523746 0.0052227983
000050 ad f4 9d 3d a0 58 ab 3e d4 cb 49 be 30 d8 1f be
       0.07712684 0.33466053 -0.1970666 -0.15609813
000060 15 1a ec 3c b1 74 cd 3e c2 f4 39 3e 20 29 91 3e
       0.02882103 0.4012809 0.18159774 0.28351688
000070 94 83 0a 3e 17 63 36 3d 3e dd 45 3d 73 31 14 3e
       0.13526756 0.044528093 0.048306696 0.14471988
000080 0c 1f 26 bd c7 40 8b 3e 82 68 3a 3e e9 3e 2e be
       -0.040556952 0.2719786 0.18203929 -0.17016186
000090 c6 11 c4 bc ee 73 70 3c cc d8 ab 3d 14 08 1c 3d
       -0.023934256 0.014676077 0.0839096 0.03809364
0000a0 81 12 0c be 9d 19 cc 3c 08 55 a6 bd f6 1e 53 3e
       -0.13678934 0.024914557 -0.08121687 0.2061728
0000b0 69 ac 35 3d 95 42 8d be 65 ab 35 bd 64 04 45 be
       0.044353876 -0.2758986 -0.044352908 -0.19239956
0000c0 14 fc 2e be 3f 68 a5 bd 46 71 c5 bd aa 7b 95 3d
       -0.17088348 -0.08076524 -0.09640746 0.07298978
0000d0 23 ae 87 be 59 26 c9 be d2 51 60 be 7d b9 49 be
       -0.26500043 -0.3928707 -0.21906212 -0.19699664
0000e0 ba d8 67 be dd 71 96 3e da 01 6f be 01 b8 9d be
       -0.22641268 0.29383746 -0.2334055 -0.30804446
0000f0 e1 ed e1 bc ca ab cc bd 08 d3 69 be 51 6e b5 3d
       -0.02757925 -0.09993704 -0.22834408 0.08858932
000100 03 fe 5f be 37 c3 e7 3d 1f 1b 12 be 80 ce 2f 3d
       -0.21874242 0.11316531 -0.14268158 0.042921543
000110 f8 a4 22 bd 05 09 83 3e 55 ab f4 3d 51 45 b4 3d
       -0.039708108 0.2559282 0.119467415 0.088022836
000120 a0 fa bd bd ba 64 ef 3b ff fb 01 3c 84 75 06 bd
       -0.092763186 0.0073057087 0.007933616 -0.032826915
000130 3d 5b 7a be 35 cb 3b 3e 62 2b 1f be 54 ba 82 3e
       -0.24448867 0.18339236 -0.15543893 0.25532782
000140 9e 02 cc 3d ad c6 12 bc 23 e2 27 3e bd f4 8e 3d
       0.09961437 -0.008958501 0.16394858 0.06980274
000150 e8 16 33 3e 5d f2 9a bd 5f c9 16 3e db f4 28 3e
       0.17489207 -0.075657584 0.14725254 0.16499655
000160 59 0b f1 3d 29 5e 00 3e 4c 42 ba bc 6c ea ba 3d
       0.117697425 0.12535919 -0.022736691 0.09126744
000170 bf 46 8f be 29 f2 89 be ae 0b 4f 3d 60 f8 9f be
       -0.27983662 -0.26942566 0.050548248 -0.31244183
000180 6a 58 03 be 66 0e 61 bd 7b b2 43 be f1 99 20 be
       -0.12826696 -0.054945372 -0.19111054 -0.15683724
000190 1c 69 05 3e 62 0a 03 3e 47 a4 a6 bd ed 57 92 3e
       0.13028377 0.1279693 -0.08136802 0.28582707
0001a0 72 ac 0f be 6a 3a 09 3e c3 b9 28 be 68 af e4 3c
       -0.14030626 0.1340119 -0.16477112 0.027915671
0001b0 80 8d 58 3e 8a 20 9d bd 64 93 75 3e ee 37 c9 3d
       0.21147728 -0.07672222 0.23982006 0.09825121
0001c0 9a ff b1 3e af b2 69 3e 2f b9 6b be 8b cc cb bc
       0.3476532 0.22822069 -0.2301986 -0.024877807
0001d0 43 0d a1 3d a8 c8 8f 3e 66 5b 7d be 01 b4 49 3e
       0.078638576 0.28082776 -0.24741897 0.19697572
0001e0 db b0 87 be ed 69 22 3e 50 de 9e 3d b8 23 6f 3e
       -0.26502118 0.1586072 0.077572465 0.2335347
0001f0 ed 54 b8 bc 70 f0 e9 3b 06 93 48 3e 60 0e ab be
       -0.022501433 0.007139258 0.19587335 -0.33409405
000200 6a 20 84 3e 2d 7d 3a 3e 77 43 37 be c5 ae 8b 3d
       0.2580598 0.18211813 -0.1789683 0.06820444
000210 98 d8 cf bd c4 d8 49 be 64 85 d3 bd a6 cd 96 3e
       -0.10148734 -0.19711596 -0.103281766 0.29453772
000220 42 6d db 3c c3 df f9 3d b3 42 77 3d 31 5f 8b 3d
       0.026785497 0.12200882 0.060366344 0.06805266
000230 90 6b 1f 3c 58 80 57 3d e5 54 d8 bd a1 a9 4d 3c
       0.009730235 0.052612633 -0.10563067 0.01255265
000240 d6 d6 58 be e5 5f 2e be fb 85 9f be 20 cb 8c be
       -0.21175703 -0.17028768 -0.31156906 -0.27498722
000250 5d aa 57 3c 9f 60 36 3e 67 e9 b1 be ef 82 8d bd
       0.013163176 0.17810296 -0.34748384 -0.06909739
000260 df 30 70 be 5d 4b 7b 3e cb 8a 99 bd 13 18 8c 3d
       -0.23456143 0.24540468 -0.07497176 0.06840529
000270 ec e2 cc 3e 1d 1e e9 3b d1 0a 9d 3d 41 c1 6d 3d
       0.40016878 0.0071141855 0.07668079 0.05804563
000280 cf 77 3c 3e 83 3a 36 3e 22 ac c2 bd f5 fa 10 3e
       0.18405078 0.17795758 -0.09505488 0.14158233
000290 04 69 2f be 60 c6 1c bc c2 a4 c8 bd d0 c7 74 be
       -0.17129904 -0.009568781 -0.0979705 -0.23904347
0002a0 be e6 17 be c9 ce 1a bd 26 9a 7c bd 1e 61 50 be
       -0.14834115 -0.037794862 -0.061670445 -0.20349547
0002b0 da 56 7c be a7 43 31 3e c8 1d 51 be 28 de 5d 3d
       -0.24642506 0.17310964 -0.20421517 0.054166943
0002c0 8c 13 74 be cc 8a 38 bd 4c 5a bb 3d 71 09 09 3d
       -0.23835582 -0.045054242 0.09148082 0.03345627
0002d0 ac c0 ee 3c 8d 44 1c be 18 25 11 bd ba 9d 26 be
       0.029144607 -0.15260525 -0.035435766 -0.16271105
0002e0 20 40 9d bd d2 fe d9 bd 84 03 e1 3d be 21 23 3e
       -0.076782465 -0.10644306 0.10986999 0.1593084
0002f0 6e ec 05 3e 80 aa 0d bc 60 3e f6 bc e8 75 44 3e
       0.13078472 -0.008646607 -0.03005904 0.19185603
000300 9c 69 1d 3e fa 0c 3b be f0 62 a0 bc 92 4a 14 be
       0.15372318 -0.18266669 -0.019578427 -0.14481571
000310 d4 a4 45 3e ac bd 70 be ad 13 9b be 49 1a d4 3d
       0.19301158 -0.23509854 -0.3028845 0.10356576
000320 05 fa 3f be 69 20 87 3e c4 9b 48 be 3a 3d a3 3d
       -0.18747719 0.26391914 -0.1959067 0.079706624
000330 22 0c 5d bd 3d 18 2c 3e 53 8d 4f 3e fe 79 59 be
       -0.05396665 0.16806121 0.20268755 -0.21237943
000340 0e c8 4b be 3c 20 c3 bb 97 30 44 be 51 7b 47 3e
       -0.19900534 -0.0059547704 -0.1915916 0.19480635
000350 02 96 f6 3d 1b 5d 0b be 22 9b 3f 3e e7 43 41 be
       0.120403305 -0.13609736 0.18711522 -0.18873559
000360 0d 1a 91 3d f5 62 0b 3d f9 ce 98 3d 85 6d a0 3e
       0.07085047 0.03402992 0.07461352 0.31333557
000370 1c 18 12 be 41 8c 85 3d 59 a7 86 bc fa ed 0e be
       -0.1426701 0.06520892 -0.01643722 -0.13957968
000380 a0 27 85 be 54 de 43 3e ac 52 fe 3d 58 29 22 3d
       -0.26006794 0.1912778 0.12418112 0.03959021
000390 e0 8c 2d be ff 65 05 be 06 2e 54 3e c9 ea 77 be
       -0.16948271 -0.1302719 0.20720682 -0.24210657
0003a0 50 53 83 be 26 2b a0 bd a3 ef 51 be ec 97 52 be
       -0.256495 -0.0782073 -0.2050157 -0.20565766
0003b0 98 81 99 bd 68 3c 26 3e ff 66 64 be 62 ad 40 3d
       -0.07495421 0.1623398 -0.22304915 0.04704035
0003c0 d7 e9 fb bc b8 72 78 be 4e a5 7e bd 16 af 3e be
       -0.030751152 -0.24262512 -0.062169366 -0.18621477
0003d0 55 1d e7 bc d8 3c 34 be 4d 6e e0 bd 0b d4 b3 bd
       -0.028212229 -0.17601335 -0.10958538 -0.08780678
0003e0 be d3 11 3e ad 21 b9 be 13 f7 3c be c8 8e 96 be
       0.1424093 -0.36158505 -0.18453626 -0.29405808
0003f0 c6 69 8f 3e 7a 61 86 bd 36 dc 10 3c 02 14 7b bc
       0.28010386 -0.06561561 0.008841565 -0.015324594

linear1.bias f4 [256]
000000 42 e2 1d be 2e e4 ac bd c0 39 ad be dc ec 2a 3f
       -0.15418342 -0.08441959 -0.33833122 0.6676767
000010 85 9c 4c 3a fb 25 bc 3d 4d 8a 17 3e 54 50 01 be
       0.00078053056 0.09186932 0.14798851 -0.12628299
000020 b3 85 96 be 83 fb 89 be 3b 97 bc 3d c9 cc 0d 3d
       -0.2939888 -0.269497 0.092085324 0.034619126
000030 b2 48 82 be e1 fe a3 be c8 ec 01 3e 8e 23 05 be
       -0.25446087 -0.32030395 0.12687981 -0.13001844
000040 50 c8 a6 be ea 4b 5d 3f b9 4a c2 bd 0c 9c 95 be
       -0.325747 0.8644396 -0.094869085 -0.29220617
000050 7d 1a 3a 3e 90 d3 11 3d 88 55 51 be e9 70 c7 bd
       0.18174167 0.035602152 -0.20442784 -0.09738333
000060 b4 27 51 be a7 58 a4 3d 8c 60 5b 3e 53 18 64 3f
       -0.20425302 0.080247216 0.21423548 0.89099616
000070 50 c0 98 bc 3c 45 d7 ba a7 f5 96 be 77 9a d9 be
       -0.01864639 -0.0016423832 -0.29484293 -0.4250066
000080 db 44 63 be 9b 3b 14 bc 18 07 eb bc fb 1a 0e be
       -0.22194235 -0.009047414 -0.028689906 -0.1387748
000090 93 fb 81 bd 45 ec 52 3d 32 b2 23 be 82 a6 8f 3d
       -0.06346812 0.051494855 -0.15985945 0.07014181
0000a0 2e 9b 00 3f 5c 75 15 be f1 e6 cb bd 0c 68 4c be
       0.50236785 -0.1459555 -0.09956158 -0.19961566
0000b0 28 14 08 3d 40 b4 ce 3d 14 ea eb be 72 3f b1 3c
       0.033222347 0.10092974 -0.46077025 0.021636698
0000c0 78 80 6e 3f 41 8c 3d 3e b4 ae cf 3d c7 91 c6 bd
       0.9316478 0.18510534 0.10140744 -0.096957736
0000d0 4c df 71 be 9f 53 3b 3e e5 a5 14 bd 0d e9 fe bc
       -0.23620337 0.18293618 -0.03629102 -0.031116987
0000e0 fd f2 ae bc 7e 24 c5 3d fb 27 a9 bd 75 e5 63 be
       -0.0213561 0.09626101 -0.08259579 -0.222555
0000f0 1a 42 84 be 90 bf 20 be 20 f0 b6 3e b3 cf 29 be
       -0.2583168 -0.15698075 0.35730076 -0.16583137
000100 43 0a ec 3e 48 af 99 3f 1a 12 fb 3d c3 02 f5 bd
       0.4610158 1.2006617 0.12259312 -0.119634174
000110 aa e6 1c 3e c6 18 eb 3d 51 af 06 bd cd 4c 6c bd
       0.15322366 0.114793345 -0.03288204 -0.05769043
000120 86 7c 9a be e8 a1 92 bd 2f 68 ce 3d 6a 84 3d be
       -0.3017313 -0.071597874 0.10078465 -0.18507543
000130 af 26 c2 be e5 9d 8a bd 80 f7 eb be b9 29 77 3b
       -0.37920138 -0.06768397 -0.46087265 0.0037714078
000140 e3 20 8c 3e a3 b4 ca 3d a9 a3 a0 3c 22 1a df bd
       0.2736884 0.09897735 0.01960929 -0.10893656
000150 9f e9 2e be e4 a8 d0 bc fe c4 3c 3e 87 dd 81 be
       -0.17081307 -0.025471158 0.18434522 -0.25364324
000160 68 21 cd bd 8c 4e 18 bd 63 8d 83 be a3 9f 4e 3f
       -0.10016137 -0.037184283 -0.25693807 0.80712336
000170 ec c3 b7 bd 69 50 0e be c5 02 35 3e b9 72 c5 bd
       -0.08972916 -0.13897862 0.17676838 -0.09641022
000180 e8 db 81 bc 4f 7f a9 bc e2 33 cd 3d f9 d1 99 be
       -0.01585193 -0.020690588 0.100196615 -0.3004301
000190 c0 a4 95 3e 1e a1 1e bf 37 40 38 3f 56 84 2f 3e
       0.29227257 -0.61964595 0.71972984 0.17140326
0001a0 7d 66 bc be 2b 0a 77 3c 70 b6 09 be e8 c2 dc 3d
       -0.36796942 0.015078108 -0.134485 0.10779363
0001b0 6f 50 b3 be 02 cd 4a be 42 8c c3 3c 0d df e1 bc
       -0.35022303 -0.19804767 0.023870591 -0.02757218
0001c0 9d b9 76 be 91 46 ca bd 82 87 a6 3d af c9 56 be
       -0.24094243 -0.09876741 0.08131315 -0.20975374
0001d0 ff 5b 2c be c3 41 94 be 98 ef 0d 3e 3a 9b ce bd
       -0.16831969 -0.28956422 0.13860929 -0.10088201
0001e0 00 52 00 3e 68 e9 94 bd 64 ba be be ed ed 3e be
       0.1253128 -0.07271081 -0.3725158 -0.18645449
0001f0 33 a5 1a 3d 0e 85 b7 3d aa 0d 95 be a0 9a 1b bf
       0.037755203 0.08960925 -0.29111987 -0.60782814
000200 b1 a2 99 be 72 ae 6e 3d 45 a4 38 be b6 69 ba be
       -0.30006936 0.058271833 -0.18031414 -0.36408776
000210 84 62 1c be 4f d3 b6 bd cd 03 89 be b1 17 dd bd
       -0.15271956 -0.08927023 -0.26760712 -0.107955344
000220 96 d9 ec bd ca af a7 3e 08 2f 2b be ea c8 73 bd
       -0.11564939 0.32751304 -0.1671716 -0.05951778
000230 6b a1 1b be 42 a8 e6 be 22 7c 5d be b7 bd 18 3f
       -0.15198295 -0.45050246 -0.21629384 0.5966448
000240 5a 5e a9 be 43 04 82 bc ce 28 bf ba 1d fa f3 be
       -0.33079797 -0.015871173 -0.0014584304 -0.4765176
000250 eb 67 50 be 91 65 07 bf ba c5 70 bc 3e 8e 2f bd
       -0.20352142 -0.52889353 -0.014695579 -0.042860262
000260 2e 32 8f be d4 5d 05 3e 36 4a ed 3d 6c 7d 8e bd
       -0.27967972 0.13024074 0.1158642 -0.06957516
000270 34 1c 91 bd 66 d5 a1 bb 58 e9 7f be 54 3d 2c bd
       -0.070854574 -0.004938769 -0.24991357 -0.042050675
000280 01 99 1d be 7c 9b 27 3f e8 b8 cb 3e df b7 f4 bc
       -0.15390398 0.65471625 0.3978951 -0.029872833
000290 77 0e d3 be 8b 43 64 3f db 04 91 bc 32 2d 57 be
       -0.41221973 0.8916556 -0.01770251 -0.21013334
0002a0 0b 98 81 be 61 54 03 be 9b 43 d9 3d a4 6c 78 be
       -0.25311312 -0.12825157 0.10608598 -0.24260193
0002b0 43 48 4e 3d 4c e8 12 3e 45 21 79 be 8e fb 26 3e
       0.050361883 0.14346427 -0.24329098 0.16306898
0002c0 dc b0 f8 3d 07 a0 fd 3d 74 d2 c0 be af 3b b2 3d
       0.12143108 0.123840384 -0.37660563 0.0870279
0002d0 e4 e7 f5 3e 17 b6 07 bf 1c 45 f1 bc 23 59 1d be
       0.4802848 -0.5301222 -0.0294519 -0.15366034
0002e0 87 f8 c0 bd b6 ab 96 bd a6 00 79 be 05 f7 66 be
       -0.09422403 -0.0735697 -0.24316654 -0.22555168
0002f0 69 99 44 3c 59 93 b0 3e fc 83 bc 3f 7c c6 63 3f
       0.011999466 0.34487417 1.4727778 0.8897474
000300 51 16 99 be d9 0d 79 be 38 1d bc be 8e bb 81 be
       -0.2989984 -0.24321689 -0.36741042 -0.25338405
000310 34 e4 8b be dd 55 65 3d fa 2c 80 bd 03 7a 74 be
       -0.27322543 0.05599009 -0.062585786 -0.23874669
000320 54 83 1d 3e 8d 95 24 be 07 78 79 3e 67 7b f3 3d
       0.15382129 -0.16072674 0.24362193 0.118887715
000330 ec 08 da 3e fe 9b ce be ca 87 ce be b5 d6 94 bd
       0.42584932 -0.40353388 -0.40337974 -0.072675146
000340 1d 1e bd bd 3a d7 87 be 46 bb a9 be 6e 34 b4 bc
       -0.09234259 -0.26531392 -0.3315069 -0.021997657
000350 93 7d e7 bd 67 58 6a 3f 94 6a 87 bd f6 c7 b3 bd
       -0.11303248 0.9154114 -0.06612125 -0.08778374
000360 a2 27 44 3e 4d d4 39 bd 7d 63 af be b3 14 e8 bd
       0.19155744 -0.04536848 -0.3425559 -0.11332073
000370 cd c3 c5 bd ae 81 00 3d 87 68 9a 3d c1 05 bd be
       -0.09656487 0.031373672 0.07539468 -0.36918452
000380 72 d5 2d bd 95 1e 16 3f 05 21 86 3c e5 a4 18 be
       -0.042439885 0.58640414 0.016373167 -0.14906652
000390 00 df 3c be cb 0a 84 3e 3c c3 6e 3e 0d 54 70 3d
       -0.18444443 0.25789484 0.23316664 0.058673907
0003a0 81 fd fc 3c 7a c7 be 3e 3d 95 ef bd f0 cf fb be
       0.030882599 0.37261564 -0.11698387 -0.4918208
0003b0 16 9d 9f 3e 58 dd 12 3d 1d 04 93 be 3e d7 47 3e
       0.31174535 0.03585562 -0.28714076 0.19515702
0003c0 34 31 ec bd 54 91 26 bd 30 12 d5 3d 96 bb b6 be
       -0.11532822 -0.04066594 0.104038596 -0.35689992
0003d0 e3 71 bb be aa 90 e1 3e 1b 53 0f 3d 9e 3c 6f be
       -0.36610326 0.44055682 0.034991365 -0.23362967
0003e0 fc ea 8e be 56 9f 85 be f3 1e 5e be 0e b7 96 3e
       -0.27913654 -0.26098126 -0.21691494 0.29436535
0003f0 a7 08 cf bd 34 df 0f bd de d6 9c 3b 1b 0a ac 3c
       -0.10109072 -0.035124972 0.0047863564 0.021000912

linear2.weight f4 [3, 256]
000000 2c 2d 68 be df 85 28 be dc 72 b1 3a 80 3c ba 3e
       -0.22673482 -0.16457318 0.0013538259 0.36374283
000010 ab 9c 72 3a 71 23 81 bc 2a 85 6d 3e 16 68 dd 3e
       0.0009254913 -0.01576397 0.2319533 0.43243474
000020 b8 5f d2 bc db 37 88 bd c4 45 0b 3d 15 e7 13 3d
       -0.025680408 -0.066512786 0.03400208 0.03610905
000030 6d 3b 38 bd c8 86 22 3d 3c a6 98 3e 7d d9 8b 3e
       -0.044978548 0.03967932 0.29814327 0.27314368
000040 6a f8 b2 bd 61 85 42 3e 22 ec 11 be 2f 04 bf be
       -0.087387875 0.18996193 -0.14250234 -0.3730788
000050 c7 5f 67 3e 7c e1 4f 3a 40 5f 62 be 11 fd 24 be
       0.2259513 0.0007930023 -0.22106647 -0.16112162
000060 e2 6a 54 bd db 20 02 3e 5a 9b a4 3e d8 42 ba 3e
       -0.051859744 0.12707846 0.32149774 0.36379123
000070 75 f0 b0 bd 46 b0 9f 3e f0 b0 c6 3e a3 b1 6c bd
       -0.086396135 0.31189173 0.38806868 -0.057786595
000080 0a 45 46 3d 41 d5 d4 3c 13 6b 09 3f 74 7c bc be
       0.048405685 0.025980594 0.5367901 -0.368137
000090 73 87 c0 be e6 88 82 3e c3 d7 81 be 11 73 05 bf
       -0.3760334 0.2549507 -0.25359926 -0.521287
0000a0 be fe 74 3e 2a ba ec bd 9d 45 fc be b0 a1 04 be
       0.23925301 -0.115589455 -0.4927186 -0.12952304
0000b0 2e 21 e2 3d 70 a1 69 3e f1 84 c1 bd 81 6a f6 be
       0.11041485 0.2281549 -0.09449185 -0.4812813
0000c0 48 ff b8 3e 85 9c 00 3e 96 2f 6e 3e 6a 3d 76 3d
       0.36132264 0.12559707 0.2326034 0.060117163
0000d0 75 d7 8e be b8 f3 bf 3e 5f 0d bd 3e 98 2e 80 3d
       -0.27898756 0.3749063 0.36924264 0.06258887
0000e0 f2 a0 20 3e 55 b8 05 be e5 46 3d 3e 20 bc a7 bd
       0.15686396 -0.13058598 0.18484075 -0.08190179
0000f0 47 82 d2 be f3 2a 16 bf aa f2 dc 3e 46 2c 80 be
       -0.4111502 -0.58659285 0.43153888 -0.25033778
000100 f7 01 b8 3d 20 b1 db 3e 3d 36 e1 bd 61 b3 38 3a
       0.0898475 0.42908573 -0.10996673 0.00070457725
000110 3a 32 0b be 1e d3 66 3e 79 8c c7 be 03 5f a5 be
       -0.13593379 0.22541472 -0.3897436 -0.3229905
000120 12 37 c7 bd c2 67 64 3e 3b 09 0a be 1b 29 bd bd
       -0.09727301 0.22305205 -0.13480084 -0.09236356
000130 1d 40 71 be 92 09 cd be 80 7f 00 be 00 a1 0d 3f
       -0.23559614 -0.40046364 -0.12548637 0.5532379
000140 d9 ca 44 3d 92 08 2a 3e c3 68 ff 3d 45 74 b5 be
       0.048045013 0.16604832 0.124711536 -0.3544027
000150 68 56 03 3d 0e 09 e8 3e 08 75 34 3e 2d b6 85 bd
       0.032064825 0.45319408 0.17622769 -0.06528888
000160 e8 89 17 3e fd 11 30 3e fc 2c 99 3d fd 47 34 3e
       0.14798701 0.17194362 0.07479283 0.17605586
000170 85 90 ac 3e f1 85 49 be 99 27 a2 3e 01 b2 0a 3e
       0.3370401 -0.19680001 0.31670836 0.13544466
000180 83 df 9f 3e c8 ce fb bd d1 92 04 bf 4c 6b ec bd
       0.31225213 -0.122953 -0.51786524 -0.11543903
000190 ea 90 62 3e 0c 1d 27 be 4c 1d c5 3e c2 32 99 3d
       0.22125593 -0.16319674 0.38498914 0.074803844
0001a0 60 00 b3 3b c0 90 b9 3e 28 55 b0 be c0 f6 1c bf
       0.005462691 0.36243248 -0.3443997 -0.6131401
0001b0 0f 51 3d bb f7 1d 86 bd 63 55 fe be 31 26 14 bd
       -0.0028887426 -0.06548684 -0.4967452 -0.036169235
0001c0 b2 cd 51 be f7 97 01 bf fd 8e ea be 3a a0 0b 3d
       -0.20488623 -0.50622505 -0.45812216 0.03408835
0001d0 0b 2a 90 3d 86 64 7e bd 39 c8 15 3e c8 75 1d bf
       0.07039269 -0.062107585 0.1462716 -0.61507845
0001e0 8d 3a d9 3e da fe 9d 3e 90 87 9c bd aa 68 11 bf
       0.42427483 0.308585 -0.07643044 -0.5680033
0001f0 5d 95 6f bc d8 71 5c bc e6 bf ae be 7a 50 10 be
       -0.014623013 -0.013454877 -0.34130782 -0.140932
000200 50 d4 6f be b8 eb 9f 3d 76 49 22 3d 0d 6f a8 3c
       -0.23420835 0.07808632 0.03962084 0.020560766
000210 25 98 06 bd f1 26 1f 3d 8b 47 00 be ba 02 c5 bc
       -0.03285994 0.038855497 -0.12527291 -0.024049152
000220 ca d8 eb ba 08 ce f9 3d 1d 67 fc bd 0b 5c 52 bf
       -0.0017993685 0.121975005 -0.12324355 -0.82171696
000230 4a 54 f3 bc 19 2c 51 be bc 0b bd 3d 48 e9 86 3e
       -0.029703278 -0.20426978 0.09230754 0.26349854
000240 2f 7f b7 bd a5 3c 03 3e b4 8a 12 bd 25 50 2c be
       -0.08959805 0.12816103 -0.03577681 -0.16827448
000250 ed 56 a0 bc 38 0c f6 bd 73 a2 27 3f a1 35 8c bc
       -0.0195727 -0.12014049 0.6548225 -0.017115416
000260 ca 66 65 3d a9 9e 76 3e e4 64 cc 3d 74 dd a4 3d
       0.05600623 0.24083962 0.09980181 0.08050051
000270 b2 b7 55 3e 08 dd 2e 3e 45 80 02 3d b7 bf 97 3e
       0.20870855 0.17076504 0.03186061 0.29638454
000280 35 21 bd 3c 03 70 eb 3e 5f a7 27 3e eb 46 e4 3e
       0.023087123 0.45983896 0.16372441 0.44585356
000290 64 25 12 3c 3d e3 c5 3e 51 ad 24 be 7b 52 bd bd
       0.008920047 0.38649932 -0.1608174 -0.092442475
0002a0 1d dc 63 be 95 5a 39 bf 38 10 82 be 72 ee ab be
       -0.22251935 -0.7240384 -0.25403 -0.33580357
0002b0 8d 5b 15 3e b1 52 0c bf d1 8a e0 bb 5e da fd 3d
       0.14585705 -0.5481368 -0.0068524857 0.12395166
0002c0 5b 22 70 bd a7 64 b8 3c fc 03 64 be f0 a9 58 3d
       -0.058626514 0.022508932 -0.22267145 0.05289644
0002d0 a1 46 9e 3d 33 27 16 be ac 07 a2 3d cb e4 b3 bb
       0.07728315 -0.14663391 0.079116195 -0.0054899207
0002e0 14 62 44 3e 39 7e b9 3e 68 7b bd be b9 83 61 be
       0.19178039 0.36229113 -0.37008214 -0.22022904
0002f0 39 b4 4c 3e 65 cc d5 3e 6b d1 aa 3e 27 f8 87 3e
       0.19990624 0.41757503 0.33362898 0.26556513
000300 c5 16 82 bb 21 5a ed bc ae b2 47 be 18 9c c1 3c
       -0.0039699995 -0.02897364 -0.19501755 0.023634002
000310 f0 cf 25 3c b4 5b 75 be 66 8d 1b bf 77 07 f2 bc
       0.010120377 -0.23960763 -0.6076263 -0.029544575
000320 7c 29 04 3d d1 99 59 3e dc 86 20 3d 65 48 81 3d
       0.032266125 0.21250083 0.039191112 0.06312636
000330 d2 ef 13 3e 6c d3 f6 bd 2c 4c 2e be 23 7e 94 be
       0.14446953 -0.12052044 -0.17021245 -0.29002485
000340 a3 f5 a0 3b 2c 0e 8b bd 18 ee 4f 39 3c ff 1e bf
       0.0049120947 -0.067898124 0.00019829755 -0.62108207
000350 8d 52 21 be 3c c4 77 3e 7c 42 14 bf d9 40 e1 be
       -0.15754147 0.24195951 -0.5791395 -0.43994787
000360 ae c5 8a 3e 78 81 61 bc bc ed 1a 3e 46 bc 5a be
       0.27103943 -0.013763778 0.15129751 -0.21360883
000370 14 8b a2 3e 88 3c 13 3d ae d5 18 bf d6 9b 3c be
       0.31746733 0.0359464 -0.5970105 -0.18418822
000380 0b b8 94 3d 38 78 4c 3e ce 31 f3 3e b8 43 d7 3d
       0.07261666 0.19967735 0.47498935 0.10510963
000390 31 78 0b bf c8 44 b7 3e 61 59 88 3e ec 4f f9 3d
       -0.5448027 0.35794663 0.2663069 0.12173447
0003a0 4b 81 a3 3e be 64 a4 3e 7b b8 42 be e9 df 09 be
       0.3193458 0.3210811 -0.19015686 -0.13464321
0003b0 16 9a 89 3e 6f e0 39 3d 5f 14 c8 3d 5d 4d 2d bc
       0.2687537 0.045380052 0.097695105 -0.010577527
0003c0 3b cd 1e bf 23 95 45 3e a3 f5 7f 3d ae 2a 04 be
       -0.62031907 0.19295172 0.062490117 -0.12906906
0003d0 44 6c 07 bc 90 6a f8 3e 1a 97 b8 3e 5f f9 81 bd
       -0.008265559 0.485188 0.3605278 -0.06346392
0003e0 40 ac 35 3d 79 de 83 3d aa c8 17 3e f3 7e 8f 3e
       0.044353724 0.06438918 0.14822641 0.28026542
0003f0 b1 1e c0 3d ea a6 fa 3c bf ee 03 bd f8 86 9c 3e
       0.09380854 0.030597169 -0.032210108 0.30571723

linear2.bias f4 [3]
000000 0a 2b b3 3e 0c 1a f3 3d b3 55 18 3e
       0.34993774 0.118702024 0.14876442
