model/checkpoint_20251029_194650_score61.pth (torch, 21291 bytes, 4 tensors)

linear1.weight f4 [256, 14]
00000000: 868a 853e 0892 5d3e 8794 043d c24b 44be
00000010: 5d73 b63d 82e4 a93c 96cb 4f3e 89cf 773e
00000020: 3e1f 26bd ce74 223e 4161 243e 0f4f 613e
00000030: 16b4 81be a218 653e 3acf 33bb 91c4 cdbd
00000040: 8ff9 7e3e 6636 903e fa2f 1fbe 4334 06bd
00000050: 83e8 033d d7de a03e 6b61 8abe 848a 3abe
00000060: 1b77 e33b e98f 9d3e 19d8 033e 79ac 823e
00000070: 57ea 1a3e 9a34 863d 48ae 073d 7f85 443e
00000080: 0c1f 26bd ee7b 723e 8556 643e 93a5 2dbe
00000090: d30d dabc 7091 863d abce 653d c346 243d
000000a0: d214 b9bd ed09 d33c 7a0f 94bd 74eb 7b3e
000000b0: 9d5a c33d a50f 73be 35c5 cdbc 24a6 e3bd
000000c0: b595 fcbd becf 10bd 592b bbbc 83b0 073e
000000d0: ccef 82be 9a30 93be 7f4d 13be 4123 f4bd
000000e0: f7fa 8abe adf4 533e 306d 5cbe a146 49be
000000f0: f970 a6bd 842d 58be d989 49be 74b7 4c3d
00000100: 799c 64be c95a 793d e8ae 3dbe dbd5 233b
00000110: cd5d 83bd e2ac 6b3e 848f af3c 300a bc3b
00000120: 290d 813c 2acb cd3b 982e fbbb dc90 99bd
00000130: a16f 4cbe 8b76 2d3e ec0d 18be 7247 703e
00000140: cf56 ef3d 64af 1cbd 5517 183e 32bd 503d
00000150: 967f 353e 0c44 c9bd 1ba2 373e f525 113e
00000160: f2e2 303e 38a6 d13d 0efc b4bc 28a2 ce3d
00000170: bf46 8fbe 29f2 89be c209 9d3d 34d1 94be
00000180: e945 d2bd 890f 05bd f8b2 46be e595 3fbe
00000190: 12b2 aa3d 6239 ce3d ab59 89bd 5abc 863e
000001a0: 1a0d e6bd f450 e53d 25e5 06be c7d5 093c
000001b0: 8642 7e3e 87ca bbbd 91fc 4d3e ee64 af3d
000001c0: 3f90 8a3e 4884 ab3d 1cfd 2ebe 539b 49bb
000001d0: fd76 a63d 0b3d 533e 9da7 55be 4dc5 3e3e
000001e0: d59d 69be 5a7d ba3d e99b d93d 7a24 5f3e
000001f0: 8800 49bd a195 83bc 212a 493e 76b2 6fbe
00000200: b6fc 433e 5893 263e 6b22 15be d68f 2b3d
00000210: 3a6a bdbd 2f6c 18be 4c88 cfbd 5b83 8d3e
00000220: a121 b33c 087d ee3d 5d09 9d3d 1063 c93d
00000230: 9477 0a3e c9ef e43d af70 0fbe a642 2ebd
00000240: e675 3abe a5d7 3ebe a134 85be 36e2 5fbe
00000250: 439c 413c 26f0 343e 0e31 81be a71d 81bd
00000260: a112 77be 1420 7f3e 9955 19bd 6b4c 233e
00000270: 1fca 8a3e 2994 57bd dfec b23d bbab eb3d
00000280: 4881 f73d 1cf9 563e 9bf4 50be c2ac 2f3e
00000290: 7c17 72be 3580 dbbb 7943 9cbd a819 5dbe
000002a0: bee6 17be 38cf 42bd 1066 5fbd 1e61 50be
000002b0: da56 7cbe 3e8a 2c3e c81d 51be 26f8 4a3d
000002c0: 8c13 74be cc8a 38bd 5de7 b13d b146 ec3c
000002d0: e007 e73c 1828 1dbe 1825 11bd ba9d 26be
000002e0: 2040 9dbd d2fe d9bd 8403 e13d be21 233e
000002f0: 6eec 053e 80aa 0dbc 603e f6bc e875 443e
00000300: 9c69 1d3e fa0c 3bbe f062 a0bc 924a 14be
00000310: c730 753e 20ac 6bbe 7e57 9cbe 6b13 2e3e
00000320: 5e20 35be b925 723e 67d1 55be ce36 6c3d
00000330: df69 a3bd 75f5 3e3e 4766 513e 71dc 44be
00000340: 215c 40be f156 cabb 385a 3abe b5a2 f23d
00000350: 801a 4a3e 511f 35be 56f1 293e 95de 2fbe
00000360: 94d8 273e 2501 8f3d 86aa 863d eb62 8e3e
00000370: 56c6 a6bd afcf 8c3d a922 01bd b4dc 20be
00000380: a027 85be 54de 433e ac52 fe3d 5829 223d
00000390: e08c 2dbe ff65 05be 062e 543e c9ea 77be
000003a0: 5053 83be 262b a0bd a3ef 51be ec97 52be
000003b0: 9881 99bd 683c 263e 5a49 5cbe 0bc2 c93d
000003c0: 1a7e bf3c 4aa4 42be 9458 10bd b508 2abe
000003d0: 168f f73c 5132 10be ed1a 86bd 6b84 10bd
000003e0: 1034 193e f48e 8bbe e2cf dabd fb65 74be
000003f0: 58ef 613e 3b79 1abe 0cc1 7ebc b6c5 e73c
0.26082247 0.21637738 0.03236821 -0.19169524 0.089087225 0.020738844 0.20292506 0.24200262
-0.04055714 0.1586487 0.16052724 0.22002815 -0.25332707 0.22372678 -0.002743675 -0.10047258
0.24899887 0.28166503 -0.15545645 -0.032764684 0.032204162 0.31420013 -0.2702745 -0.18216902
0.0069416887 0.30773857 0.12875403 0.2552221 0.15128456 0.06553002 0.033125192 0.1919155
-0.040556952 0.23680088 0.2229863 -0.16957693 -0.02661792 0.06570709 0.056105297 0.040106546
-0.09037174 0.025761569 -0.072295144 0.24601537 0.095387675 -0.23736437 -0.02511845 -0.11115673
-0.12333242 -0.03535437 -0.022847818 0.13250928 -0.25573575 -0.28748018 -0.14385031 -0.11920787
-0.27144596 0.20698805 -0.21526027 -0.19655849 -0.081270166 -0.21111113 -0.19681491 0.049979642
-0.22325315 0.060877595 -0.18523753 0.0024999294 -0.064143755 0.23015168 0.021430738 0.005738519
0.015753346 0.0062803226 -0.0076654665 -0.07498333 -0.19964458 0.16939752 -0.14849061 0.23464754
0.11686479 -0.038253203 0.1485265 0.05096168 0.17724451 -0.09827432 0.17932932 0.14174636
0.17274073 0.10236782 -0.022092845 0.100895226 -0.27983662 -0.26942566 0.07667877 -0.2906586
-0.102672406 -0.03248552 -0.19404209 -0.18709524 0.083347455 0.10069539 -0.06706556 0.26315576
-0.11232968 0.11197081 -0.13173349 0.008412785 0.24830064 -0.091694884 0.20115878 0.08564173
0.27063176 0.0837484 -0.17088741 -0.0030762746 0.08128164 0.20628755 -0.2086472 0.18629952
-0.22814114 0.0910594 0.106254406 0.21791258 -0.049072772 -0.01606256 0.19644977 -0.23407921
0.1913937 0.16267145 -0.1456391 0.04188522 -0.09248777 -0.14885019 -0.101334184 0.2763928
0.021866621 0.116449416 0.076678015 0.09833348 0.13522178 0.11178548 -0.14007829 -0.04254403
-0.18209037 -0.1863695 -0.26016715 -0.21863636 0.011817041 0.17669734 -0.25232738 -0.06304484
-0.241282 0.2491458 -0.037435148 0.1594712 0.2710733 -0.05263153 0.08736586 0.11507364
0.12085205 0.20993465 -0.2040581 0.17155746 -0.23641771 -0.006698633 -0.07630057 -0.21591818
-0.14834115 -0.0475609 -0.054540694 -0.20349547 -0.24642506 0.1684961 -0.20421517 0.04955306
-0.23835582 -0.045054242 0.08686707 0.028842302 0.028201997 -0.15347326 -0.035435766 -0.16271105
-0.076782465 -0.10644306 0.10986999 0.1593084 0.13078472 -0.008646607 -0.03005904 0.19185603
0.15372318 -0.18266669 -0.019578427 -0.14481571 0.23944388 -0.23014879 -0.305355 0.16999595
-0.17688128 0.23647203 -0.20880662 0.057669453 -0.07979178 0.18648322 0.20449172 -0.19224717
-0.18785144 -0.006174915 -0.18198478 0.1184744 0.19736671 -0.17687728 0.16595969 -0.17174752
0.16391212 0.0698264 0.065754935 0.27809843 -0.08143298 0.0687555 -0.031527195 -0.15709192
-0.26006794 0.1912778 0.12418112 0.03959021 -0.16948271 -0.1302719 0.20720682 -0.24210657
-0.256495 -0.0782073 -0.2050157 -0.20565766 -0.07495421 0.1623398 -0.21512356 0.09851464
0.02337556 -0.19007984 -0.035240725 -0.16604884 0.030219596 -0.14081694 -0.065481044 -0.035282534
0.14961267 -0.27257502 -0.10684182 -0.23867027 0.22063959 -0.15085308 -0.015548956 0.028292518

linear1.bias f4 [256]
00000000: 745a 02be af3b 36be ea31 acbe c1e7 453f
00000010: a45e 22bd 1727 803d b1d8 2d3e 52a5 10be
00000020: 4f85 9ebe 3cd4 8cbe 81fc c83d 768e 193d
00000030: 59a5 84be e1fe a3be 558a 163e e381 01be
00000040: 50c8 a6be 5515 743f 5d2c 2abe 0c9c 95be
00000050: 1dc9 573e a7f3 783d cff8 3fbe 4154 c4bd
00000060: 56be 5abe 8d5b eb3d b184 603e d03f 763f
00000070: 0686 23bd 8dfd 153c 0dfd 7fbe 7488 d9be
00000080: fb82 30be 5f0f 1ebd b4a7 37bd f128 41be
00000090: cfd5 83bd 8b6e 593d d664 36be ce98 7e3d
000000a0: 10c2 083f edd6 46be 1393 a5bd 5801 6fbe
000000b0: 43bb 1fbc 2650 4e3d d8c8 f2be c9e5 573c
000000c0: 6350 833f ea10 313e f380 7e3d 4aa1 d9bd
000000d0: c943 86be 1c5c 8a3e 24a1 8bbd 92a6 86bd
000000e0: f912 933a 9124 02bc bd7b 5ebd 65e7 95be
000000f0: 5277 83be ca1f 6ebe 8d6b b53e 636d 2abe
00000100: 1353 083f bcab a53f e188 dd3d f82c aebd
00000110: 4b7e 073e 4ac5 153e 3f03 8abd 6db1 e4bd
00000120: 92d9 b1be 192b 84bd 39ba 6a3d 37b9 2cbe
00000130: a824 cfbe ca72 d2bd 80f7 ebbe 625b 2d3d
00000140: c59c b23e 3cc8 e63d f5d4 3b3d 30d5 98bd
00000150: 6737 35be 26bd 38bd d85c 293e 3fdf 96be
00000160: 107e d3bd 05d9 7f3c acff 78be 3291 633f
00000170: d562 aabd d5e9 56be fe48 683e 12cf 0fbe
00000180: a327 2abc 7091 b4bc d244 ca3d 4b1a a6be
00000190: c4aa b43e 1ea1 1ebf 82cb 563f b30b 703e
000001a0: 748c c4be 5fa7 b8bc e594 f7bd 1108 823d
000001b0: 6f50 b3be f0e5 93be 801c 933d b57c 8abc
000001c0: bf52 76be 4cb4 e4bd c633 cd3d c204 22be
000001d0: c249 42be c341 94be c76e 963d eb97 cebd
000001e0: 3f32 0c3e db3b bebd b32d bcbe 55ee 62be
000001f0: cead 933c 0e37 df3a d670 86be a09a 1bbf
00000200: d36b adbe 4f02 c93c 2746 6ebe 59c1 97be
00000210: e52d 67be 3bb7 ddbd 6a93 adbe fe93 05be
00000220: fd0e 1fbe 3deb c53e 4f05 4abe 946a 94bc
00000230: cda9 49be 42a8 e6be d0c4 5bbe d703 303f
00000240: 8f8e a6be cbd7 31bd 42bf 4dbd 1dfa f3be
00000250: 0829 3bbe 9165 07bf 1f21 51bd 6e23 b5bd
00000260: aa1a 9bbe a3ab 213e 254b b23d d02e afbd
00000270: 5cc8 19bd bfbe 48bc 58e9 7fbe e616 333d
00000280: 913c 74be aca2 3c3f e837 dd3e f208 84bc
00000290: 770e d3be b25e 6f3f ae33 9c3c 4b2d 51be
000002a0: 0b98 81be 9db8 0bbe 0f23 f53d 7dcf 84be
000002b0: c2fa c23d 0589 193e 5b6c 94be dcfb b43d
000002c0: 6046 023e 6f5f e73d 8707 c5be e270 f43d
000002d0: 6075 f83e 17b6 07bf d232 8ebd 2359 1dbe
000002e0: 1ad8 43bd 53c4 84bd a600 79be a8fe c5be
000002f0: d83f 0f3d acfa bb3e 7f35 c83f 46ad 793f
00000300: 975b 97be 9735 9cbe e901 b4be 8ebb 81be
00000310: 9254 95be 2639 bb3d 1596 41bd cd01 83be
00000320: e449 543e ba3b 79be 36e7 a43e 2a9c a43d
00000330: 0eaa f43e fe9b cebe ca87 cebe 78c9 60bc
00000340: 1946 78bd 3d30 87be a45c a2be e035 11bd
00000350: f28a 2bbe 79c8 7f3f 772b 8abd 56c3 a3bd
00000360: 4906 063e e8b2 f7bd 6760 b1be efb5 3fbe
00000370: 223f a1bd c905 673d b16f 883d 4a2c c5be
00000380: cd64 9dbd b6a5 203f dc5f d6bc 8f77 11be
00000390: 74c9 1cbe aa13 ab3e 384c 6c3e 7e4c 0d3c
000003a0: 2879 0b3d 9088 c73e 04b5 11be c247 07bf
000003b0: f31c b23e 4513 793d 1f50 8abe 328c 7b3e
000003c0: 17cc 23be 1c92 023d 94de f43d 87d0 dbbe
000003d0: fa42 b0be 234e f43e c5a3 7a3d 1d89 52be
000003e0: ed8e 8dbe 16b0 79be 7d7a 4abe d74d 9e3e
000003f0: 1dff e2bd 014a 8bbd 3d6b 763d 7631 273b
-0.12729818 -0.17796205 -0.3363183 0.77306753 -0.039641038 0.06257456 0.16977192 -0.14125565
-0.3096108 -0.27505672 0.09813786 0.037489377 -0.259074 -0.32030395 0.14701207 -0.12647204
-0.325747 0.9534505 -0.16618486 -0.29220617 0.21072812 0.06077924 -0.18747257 -0.09586383
-0.2136167 0.11492071 0.21925618 0.9619112 -0.039922737 0.0091546895 -0.24998875 -0.42486918
-0.17237465 -0.038588878 -0.04483767 -0.18863274 -0.06437265 0.053083938 -0.17811903 0.062157445
0.53421116 -0.19417925 -0.08084693 -0.23340356 -0.0097492365 0.050369404 -0.47418857 0.013177344
1.0258907 0.17291608 0.062134694 -0.106264666 -0.2622359 0.270234 -0.068178445 -0.065747395
0.0011220864 -0.007943288 -0.054317225 -0.29278103 -0.25676972 -0.23254314 0.35433617 -0.1664329
0.5325176 1.2943034 0.10817123 -0.08504671 0.1323177 0.14626041 -0.067389004 -0.11166654
-0.34736305 -0.06453533 0.057306502 -0.16867529 -0.40457654 -0.102758005 -0.46087265 0.042323478
0.3488523 0.112686604 0.04585739 -0.07462537 -0.17696916 -0.04510226 0.16539323 -0.29467198
-0.10326779 0.015615706 -0.24316281 0.88893425 -0.08319632 -0.20987637 0.22684094 -0.14043835
-0.010385427 -0.022042006 0.09876408 -0.32441935 0.35286534 -0.61964595 0.8390428 0.23441963
-0.38388407 -0.022540746 -0.12088946 0.06349195 -0.35022303 -0.28886366 0.0718317 -0.016905168
-0.24055003 -0.111672014 0.100196406 -0.15822127 -0.18973449 -0.28956422 0.07345348 -0.1008757
0.13691042 -0.0928876 -0.36753616 -0.22161229 0.018027212 0.0017029957 -0.26257962 -0.60782814
-0.33871326 0.024537234 -0.23268948 -0.296397 -0.22576101 -0.10825964 -0.3390153 -0.13044736
-0.15533061 0.38656035 -0.19728588 -0.018117227 -0.1969368 -0.45050246 -0.21461797 0.6875586
-0.3253064 -0.043418687 -0.050231226 -0.4765176 -0.18277371 -0.52889353 -0.051056977 -0.08844648
-0.3029378 0.1578813 0.08705739 -0.08553851 -0.037544593 -0.012252509 -0.24991357 0.04372301
-0.23851229 0.7368572 0.43206716 -0.016117547 -0.41221973 0.9350387 0.019067612 -0.20427434
-0.25311312 -0.13644643 0.119695775 -0.2593955 0.095204845 0.14993675 -0.2898892 0.08837101
0.12722158 0.112974994 -0.38482305 0.11935593 0.4852705 -0.5301222 -0.06943287 -0.15366034
-0.047813512 -0.064827584 -0.24316654 -0.3867085 0.034972996 0.36714685 1.5641326 0.9753002
-0.29562065 -0.30509636 -0.35157707 -0.25338405 -0.29166085 0.091417596 -0.04726227 -0.2558731
0.20731312 -0.2433919 0.3220765 0.080375984 0.4778599 -0.40353388 -0.40337974 -0.013719909
-0.060613725 -0.2640399 -0.31711304 -0.03545177 -0.16752222 0.9991527 -0.067465715 -0.07996242
0.13088335 -0.120946705 -0.34643862 -0.18721746 -0.0787337 0.056402 0.066619284 -0.38510352
-0.07685242 0.62752855 -0.026168756 -0.14205764 -0.15311223 0.3341344 0.2307595 0.008624194
0.03405109 0.38971376 -0.14229208 -0.5284387 0.34787712 0.060809392 -0.27014253 0.24565199
-0.15995823 0.031877622 0.11956516 -0.4293253 -0.344261 0.47715864 0.06119134 -0.20560117
-0.27648106 -0.24383578 -0.19773288 0.30918762 -0.11083815 -0.068012245 0.060160864 0.0025511659

linear2.weight f4 [3, 256]
00000000: f959 58be 8df1 30be cca0 ccbc 286e bf3e
00000010: 98f0 5cbd 0171 60bc 82c0 6f3e d5f9 d63e
00000020: bda6 b9bc a907 37bd 0043 643d 9de2 8c3d
00000030: 1f1f 37bd c886 223d 583d a53e 19a4 943e
00000040: 6af8 b2bd 647e 453e a362 0dbe 2f04 bfbe
00000050: f6ce 213e f1cc 9dbc 2d51 79be 108d 0dbe
00000060: 6000 f2bc 002d da3d b33a 963e 7c3d bf3e
00000070: e352 d3bd ddbc 963e d8ea c93e a3b1 6cbd
00000080: 1a89 8b3d c145 673d 9c9d 0c3f 7bfe b9be
00000090: 8d01 cbbe 84d6 7d3e 8104 80be 6b3a fdbe
000000a0: 40cf 7d3e a43f ddbd e359 f9be a683 3abe
000000b0: c660 ec3d cbe4 593e b659 debd 5975 edbe
000000c0: 2e19 bf3e b718 123e c5ef 7d3e 2489 e13c
000000d0: 7255 82be 7239 cd3e 221c b03e 00fb b13d
000000e0: caa9 383e 0cdb cfbd 3574 443e 64bf 08be
000000f0: a97e c1be 4b6f 0abf 1f69 d53e b6f3 80be
00000100: 0399 153e 2ccc e13e 12dd 84bd fa39 c13c
00000110: 2ee1 edbd b79e 823e 268d 64be bd04 96be
00000120: 42d8 c3bd 5fd5 553e f9a8 18be abfe 0ebe
00000130: 6f78 11be 7017 c9be 807f 00be d8ba 0a3f
00000140: 62fe 6a3d cb1c 373e 875b 193e 3c52 a6be
00000150: c51c a83d 2812 003f 4de2 3e3e 5544 9cbd
00000160: a77d 1e3e c388 513e fc2c 993d ccfc 5a3e
00000170: 3b65 b73e 32c9 4cbe d3d3 a63e 93de f03d
00000180: 19d6 a13e ad08 08be 3d16 08bf 42a5 bfbd
00000190: 0899 753e 0c1d 27be 6806 cd3e 11f1 cd3d
000001a0: 16b9 933c a713 d23e bb65 b0be 8d66 20bf
000001b0: 0f51 3dbb 053e 82bd 8d1e febe d2b1 16bd
000001c0: 2a34 52be 3d14 0bbf a245 f2be 32ea 213d
000001d0: 36e2 813d 8664 7ebd c865 e03d ed75 1dbf
000001e0: 0240 db3e be0f b83e 9087 9cbd 26c2 11bf
000001f0: 4ab9 8b3c c8b3 66bd 6230 91be 7a50 10be
00000200: 7680 75be fa38 8c3d 5ca5 2cbc 6aad ee3c
00000210: a207 443b 28fc 233d bfa1 01be 012c 1d3d
00000220: d33d a03c a4ee 043e fb9b 01be c0fe 51bf
00000230: 308b 95bc 192c 51be ed2c b13d fd3b 903e
00000240: a872 54bd 9f58 063e 627c 6abd 2550 2cbe
00000250: f435 97bc 380c f6bd 23b0 293f 197e e9bc
00000260: 3a06 933d 6666 843e 470d e03d 0168 863d
00000270: b523 763e 14fb 2b3e 4580 023d 6f3b bd3e
00000280: 79a1 a33d 5d55 f53e 7f71 1e3e c77e eb3e
00000290: 6425 123c f4ac cd3e c7c3 0cbe a97e 11bd
000002a0: 1ddc 63be 39f9 34bf c534 96be 6891 a5be
000002b0: 20f5 123e a4d9 08bf e9fa 93bc 81c2 023e
000002c0: b181 11bd a4a4 763d 1452 d4bd be14 843d
000002d0: 8583 c23d 3327 16be dd63 d43d cbe4 b3bb
000002e0: c406 483e 25cd bd3e 687b bdbe c48c f5bd
000002f0: c64d 6c3e bb3f bd3e 153f b63e bae1 933e
00000300: 7336 44bc 1853 98ba 8875 48be 189c c13c
00000310: 0c10 5cbc c467 7cbe 0fb3 1abf 06b9 07bd
00000320: f67d e73c c338 063e ce7e 813d 4547 1e3e
00000330: 4382 213e 6cd3 f6bd 2c4c 2ebe 29c3 9cbe
00000340: bf58 78bc bf07 62bd 0ca3 c23b 00da 16bf
00000350: b5ed 3fbe 90f5 883e 3fc0 11bf cfc5 cabe
00000360: 4bc3 9e3e 03f5 c73c 8202 ec3d cf5c 46bd
00000370: e250 a73e ca3f 6f3d 09c1 07bf 8cb2 3fbe
00000380: 2baf 8a3d 286d 5a3e 49e4 f73e 0f0d d43d
00000390: 8304 08bf 4b03 be3e 21ef 963e 3203 be3d
000003a0: 23da a13e c59d ac3e bcf2 07be 23c2 08be
000003b0: 9087 8e3e 1812 643d b33f c83d 1aa9 c13b
000003c0: 26ad 15bf 3312 533e bc09 973d 2ab9 eabd
000003d0: 849c 833c a223 003f 4e83 c63e 26d5 56bd
000003e0: 1d4d 543d 4cb0 853d 3e8d 583e 8264 953e
000003f0: 0744 c03d 14c2 da3c 9038 ecbb 3a10 943e
-0.21128072 -0.17279644 -0.024979018 0.3738873 -0.053940386 -0.013698817 0.2341328 0.41987482
-0.022662515 -0.04468504 0.05572796 0.068791606 -0.044707414 0.03967932 0.32273364 0.29031447
-0.087387875 0.19286495 -0.13807158 -0.3730788 0.15801606 -0.019262763 -0.24347372 -0.13823342
-0.029541194 0.10653114 0.2934166 0.37351596 -0.10318544 0.29440966 0.39436984 -0.057786595
0.068132594 0.056463007 0.5492799 -0.36326966 -0.3964962 0.24788862 -0.25003436 -0.49458632
0.24786091 -0.10803154 -0.4870139 -0.18214282 0.115418956 0.21278684 -0.10856955 -0.46378592
0.37323898 0.1426724 0.24798496 0.027531214 -0.25455815 0.4008289 0.34396464 0.086904526
0.1803352 -0.10149202 0.19184954 -0.1335426 -0.37791947 -0.5407607 0.41681764 -0.25185937
0.1460915 0.44101083 -0.06487478 0.023587216 -0.11615215 0.25511715 -0.22319469 -0.2930049
-0.09562732 0.20882176 -0.14908208 -0.13964336 -0.14206098 -0.39275694 -0.12548637 0.5419135
0.057371505 0.17882077 0.14976321 -0.32484615 0.08208612 0.50027704 0.18641014 -0.07630221
0.1547762 0.20462327 0.07479283 0.21385497 0.3581942 -0.19998625 0.32583484 0.11761203
0.31608656 -0.1328456 -0.5315893 -0.09357692 0.23984158 -0.16319674 0.4004395 0.100557454
0.018032592 0.4103062 -0.34452614 -0.6265648 -0.0028887426 -0.063594855 -0.49632683 -0.036790676
-0.20527712 -0.54327756 -0.4731875 0.039529987 0.063419744 -0.062107585 0.10956913 -0.61508065
0.42822272 0.3594951 -0.07643044 -0.5693687 0.017056126 -0.056323797 -0.28357226 -0.140932
-0.23974785 0.06846805 -0.010537472 0.029135425 0.0029911776 0.040035397 -0.12659357 0.038372044
0.01956073 0.12981659 -0.12657158 -0.8202934 -0.018254846 -0.20426978 0.08651147 0.28170767
-0.051867157 0.13119744 -0.057247527 -0.16827448 -0.018458344 -0.12014049 0.6628439 -0.02850251
0.07178922 0.25859374 0.109400325 0.06562806 0.24037059 0.16794997 0.03186061 0.36959407
0.07989783 0.4791669 0.15472983 0.4599516 0.008920047 0.40171015 -0.13746558 -0.035521183
-0.22251935 -0.70692784 -0.29337135 -0.323375 0.1435132 -0.53457093 -0.01806398 0.1276951
-0.035524074 0.060215607 -0.10367218 0.06449269 0.094977416 -0.14663391 0.1037061 -0.0054899207
0.19533831 0.37070575 -0.37008214 -0.119897395 0.23076543 0.36962685 0.35595003 0.28883153
-0.011975872 -0.0011621444 -0.19576085 0.023634002 -0.01343156 -0.24648958 -0.6042947 -0.033135436
0.028258305 0.1310759 0.06323014 0.15456875 0.15772347 -0.12052044 -0.17021245 -0.30617645
-0.0151578775 -0.05518317 0.005939847 -0.5892639 -0.18743022 0.2674985 -0.5693397 -0.3960404
0.31008372 0.024408823 0.11523916 -0.048428353 0.32678896 0.058410443 -0.53028923 -0.18720454
0.06771692 0.21330702 0.48416355 0.10354053 -0.53131884 0.37111887 0.29479316 0.09277953
0.31611738 0.3371412 -0.1327619 -0.13355307 0.278378 0.055681318 0.09777775 0.005910051
-0.5846733 0.20612411 0.073749036 -0.114610985 0.016065843 0.5005437 0.38772053 -0.052449368
0.051831353 0.065277666 0.2114763 0.29178244 0.09387975 0.026703872 -0.007208891 0.2891863

linear2.bias f4 [3]
00000000: 0803 bc3e ae48 383e 00b5 433e
0.36721063 0.17996475 0.19112015
