model/model.pth (torch, 20681 bytes, 4 tensors)

linear1.weight f4 [256, 14]
000000 5f 39 bc 3e 4c 36 37 3e b2 5b d3 bd 0a 73 7b be
       0.3676252 0.17891806 -0.10320224 -0.24555603
000010 2c 2c 88 3d 23 45 84 3c a5 8c 69 3e 0b 63 85 3e
       0.0664905 0.016146248 0.22807558 0.26052126
000020 af 88 13 bd e4 78 09 3e 13 01 2e 3e f5 b6 41 3e
       -0.036019024 0.13425022 0.16992597 0.18917449
000030 5d 37 97 be 3c 68 38 3e fa 89 6e bb da 54 19 3d
       -0.29534426 0.18008512 -0.0036398158 0.037434436
000040 a9 18 c2 3e 76 57 97 3e 15 7d cc bd 7b 41 00 3d
       0.3790944 0.29558915 -0.09984795 0.031312447
000050 2d cd ad 3d 27 9e a4 3e c8 1b 36 be 70 81 25 be
       0.084864 0.3215191 -0.17784035 -0.16162658
000060 82 03 bd 3c 02 83 d2 3e a6 14 4f 3e e1 3b 72 3e
       0.023072962 0.41115576 0.2022272 0.23655654
000070 41 63 cd 3d 72 06 74 bc d6 ca 10 3e 3f 60 e0 3d
       0.10028697 -0.014894115 0.14139876 0.109558575
000080 26 e0 e7 bd 47 ec a0 3e 13 79 05 3e 25 3e 64 be
       -0.1132205 0.31430265 0.13034467 -0.22289331
000090 1d 86 c3 3c 23 23 4c bc ac 1a b9 3d e6 ef 0d 3d
       0.023867661 -0.012459549 0.090382904 0.034652613
0000a0 98 de 4d be 4a 02 e2 3b 08 55 a6 bd ef c2 45 3e
       -0.20104444 0.0068972455 -0.08121687 0.19312643
0000b0 19 cb e2 3c ec 42 8d be 5d b2 71 bd 28 bf 5a be
       0.027684735 -0.2759012 -0.05900799 -0.21361983
0000c0 8d 5b 35 be 60 9b c2 bd 2e a0 d7 bd ee 76 70 3d
       -0.17710705 -0.09502292 -0.10528599 0.05870717
0000d0 23 ae 87 be 0e ef d7 be 73 bc 6b be 1d f2 54 be
       -0.26500043 -0.42174572 -0.23021106 -0.20795484
0000e0 04 20 50 be eb 81 b5 3e ae 31 90 be 97 14 a4 be
       -0.20324713 0.35450682 -0.28162903 -0.3204696
0000f0 52 f9 06 bc 4b c6 0f bc b7 32 a7 be 04 12 c1 3d
       -0.0082381535 -0.008775304 -0.3265588 0.09427264
000100 95 47 69 be 98 54 71 3d 73 1f b9 bd c5 8f 26 3d
       -0.22781213 0.058918566 -0.090392016 0.040664453
000110 80 9e 98 bd dd 06 74 3e 7d 5a c1 3d 1a 55 45 3e
       -0.074521065 0.23830743 0.094410874 0.19270745
000120 9e af e8 bd ed 91 00 ba 43 da 7a 3c 6f 95 c7 bc
       -0.11361621 -0.0004904557 0.015310827 -0.024363248
000130 d9 7d 82 be 2d 91 25 3e cc f9 00 be 53 eb 4c 3e
       -0.2548664 0.16168661 -0.1259529 0.20011644
000140 44 c0 04 3e 69 d8 26 bc 26 55 19 3e 82 c0 70 3d
       0.12963969 -0.010183432 0.14973888 0.05877734
000150 a4 8d 13 3e b3 59 2b bd 76 6a 0b 3e 72 84 4c 3e
       0.144095 -0.04183359 0.1361483 0.19972399
000160 16 6f da 3d d5 65 1b 3e 2c ae 0d bd 71 af f2 3d
       0.10665719 0.15175565 -0.03458993 0.11849869
000170 bf 46 8f be 29 f2 89 be 20 8e 44 3d d9 a1 98 be
       -0.27983662 -0.26942566 0.047987103 -0.2981098
000180 cf be ec bd 70 c7 95 bc 4b 68 6d be 57 07 4e be
       -0.11559831 -0.018283576 -0.23184316 -0.20119987
000190 6c 0c 1e 3e 10 c6 f8 3d 56 a8 e5 bd 0c cd 8e 3e
       0.15434426 0.121471524 -0.11213748 0.27890813
0001a0 35 1b 35 be e3 93 0d 3e 70 80 33 be 09 83 10 3d
       -0.1768616 0.13825946 -0.17529464 0.035281215
0001b0 da 4e 03 3e 36 15 da bd 3d e1 72 3e 20 ac 97 3d
       0.12823048 -0.10648577 0.23718734 0.07405877
0001c0 e3 ae d6 3e 7c 65 9a 3e 9f b1 90 be 60 00 8e bd
       0.41930303 0.3015555 -0.28260514 -0.06933665
0001d0 a4 2d a6 3d e3 69 99 3e 6f f9 2a be 2f 71 60 3e
       0.08114174 0.29963598 -0.16696714 0.21918176
0001e0 9f bf 82 be f3 3a e7 3d 3e 3e 01 3e 04 58 7c 3e
       -0.2553682 0.112905405 0.126214 0.2464295
0001f0 d6 4a 25 bd 3d 42 09 3d 5a 6e db 3d 28 e8 a7 be
       -0.040354572 0.033510435 0.10714407 -0.3279431
000200 a9 d4 a6 3e f2 ee 33 3e e7 bd 3d be e8 ce fd 3d
       0.32584122 0.17571619 -0.18529473 0.1239298
000210 06 2e df bd 3c bd 4e be a5 10 a4 bd 9d ed 9c 3e
       -0.1089745 -0.20189375 -0.08010987 0.30650035
000220 c7 2f 90 3d 5c 74 18 3e 55 7b 30 3d 65 e7 88 3d
       0.07040363 0.14888138 0.04308637 0.0668476
000230 04 b8 21 bd 0e e2 8a 3d f8 4b a6 bd c4 1c 0a 3d
       -0.03948213 0.06781398 -0.08119959 0.03371884
000240 36 45 55 be 9e b2 ff bd 43 1d ab be db de 60 be
       -0.20827183 -0.124852404 -0.33420762 -0.21960013
000250 17 0f 63 bc f2 42 63 3e cc 17 d4 be 0c 4c 44 bd
       -0.013858578 0.22193506 -0.41424406 -0.047924086
000260 39 50 52 be 4e 77 84 3e e1 5e ff bd 40 22 18 3d
       -0.20538415 0.25872272 -0.124692686 0.03714204
000270 f3 b3 da 3e bf f4 83 3d b8 d6 0a 3d c7 19 58 3d
       0.42715415 0.06443166 0.033896178 0.05275896
000280 7f f0 4f 3e ef f3 3a 3e 9c 50 cd bd 8b 55 38 3e
       0.20306586 0.18257116 -0.10025141 0.18001382
000290 a5 ba 44 be 4f a5 3c ba 65 cd 81 bd bb 71 6c be
       -0.19211824 -0.0007196264 -0.06338004 -0.2309026
0002a0 be e6 17 be bb 1b 19 bd e1 be 98 bd 1e 61 50 be
       -0.14834115 -0.03737996 -0.07458282 -0.20349547
0002b0 da 56 7c be 1e 43 15 3e c8 1d 51 be 94 b8 db 3c
       -0.24642506 0.14576384 -0.20421517 0.026821412
0002c0 8c 13 74 be cc 8a 38 bd 6c 59 83 3d 9f 3c c8 3b
       -0.23835582 -0.045054242 0.0641354 0.006110742
0002d0 4f 00 bb 3a 4c 79 36 be 18 25 11 bd ba 9d 26 be
       0.001426706 -0.17819709 -0.035435766 -0.16271105
0002e0 20 40 9d bd d2 fe d9 bd 84 03 e1 3d be 21 23 3e
       -0.076782465 -0.10644306 0.10986999 0.1593084
0002f0 6e ec 05 3e 80 aa 0d bc 60 3e f6 bc e8 75 44 3e
       0.13078472 -0.008646607 -0.03005904 0.19185603
000300 9c 69 1d 3e fa 0c 3b be f0 62 a0 bc 92 4a 14 be
       0.15372318 -0.18266669 -0.019578427 -0.14481571
000310 b1 e1 40 3e 51 ba 81 be a7 42 9b be 02 52 d3 3d
       0.18836094 -0.2533746 -0.3032429 0.10318376
000320 50 40 1f be 99 e7 83 3e 3c 4e 6c be 1f 9d 9a 3d
       -0.15551877 0.25762632 -0.23076719 0.075495
000330 b4 c0 5d bd ad 2a 6f 3e 25 57 1d 3e 9c c8 5f be
       -0.054138854 0.23356123 0.15365274 -0.2185387
000340 8d 44 48 be 7b 9b 86 3c c4 d8 35 be be 53 94 3e
       -0.195574 0.01643156 -0.17758471 0.2897014
000350 da c4 2b 3e b0 77 5b be fc 4e 70 3e c9 11 1d be
       0.16774312 -0.21432376 0.2346763 -0.15338816
000360 b5 30 fb 3c ce 91 71 bb ce 62 02 3e 6a aa 87 3e
       0.030662874 -0.0036860588 0.12733003 0.26497203
000370 2b 72 de bd 97 df 97 3d d4 d7 f2 bc f4 e6 04 be
       -0.108616196 0.07415693 -0.02964393 -0.12978727
000380 a0 27 85 be 54 de 43 3e ac 52 fe 3d 58 29 22 3d
       -0.26006794 0.1912778 0.12418112 0.03959021
000390 e0 8c 2d be ff 65 05 be 06 2e 54 3e c9 ea 77 be
       -0.16948271 -0.1302719 0.20720682 -0.24210657
0003a0 50 53 83 be 26 2b a0 bd a3 ef 51 be ec 97 52 be
       -0.256495 -0.0782073 -0.2050157 -0.20565766
0003b0 98 81 99 bd 68 3c 26 3e 90 f2 6b be 1e a9 7f 3c
       -0.07495421 0.1623398 -0.23041749 0.0156042855
0003c0 74 53 3c bd 47 0b 8f be 70 7b ad bd dd 22 60 be
       -0.045978025 -0.2793829 -0.084708095 -0.218883
0003d0 2b 5b b6 38 8b e3 40 be f7 8c 09 be 2e b7 c9 bd
       8.695418e-05 -0.18836801 -0.1343268 -0.09849392
0003e0 49 c4 e9 3d f4 63 cb be 3a cd 71 be bb 9f 9a be
       0.114143915 -0.39724696 -0.23613444 -0.3019999
0003f0 8c 08 78 3e 3a 85 c1 3b 7c ef 41 bc 2d 38 af bd
       0.2422201 0.0059057744 -0.011836883 -0.085556366

linear1.bias f4 [256]
000000 93 f2 21 be 07 ab 98 bd bf fc ae be 96 88 23 3f
       -0.15815191 -0.07454496 -0.34177205 0.6388029
000010 2d 8a c1 ba c9 a3 b9 3d 59 37 26 3e 9a ca 1f be
       -0.0014765911 0.09064443 0.16232051 -0.1560463
000020 8f eb 8f be 8b 72 78 be 03 f4 e7 3d c3 0b 32 3d
       -0.28109404 -0.24262445 0.113258384 0.043468248
000030 ed 48 90 be e1 fe a3 be 54 3c f7 3d df f3 f7 bd
       -0.28180638 -0.32030395 0.120720536 -0.121070616
000040 50 c8 a6 be c9 2a 54 3f 2c 1f 16 be 0c 9c 95 be
       -0.325747 0.82877785 -0.14660329 -0.29220617
000050 36 d5 39 3e cf 21 0c 3d 88 55 51 be cb 88 a6 bd
       0.1814774 0.03421193 -0.20442784 -0.0813156
000060 d3 02 2a be 62 d6 aa 3d e1 3b 6d 3e 06 e4 59 3f
       -0.1660264 0.083416715 0.23167373 0.8511356
000070 62 0a 6e 39 19 89 76 3c 3a bc a5 be 08 8d e6 be
       0.00022701317 0.015047335 -0.32370168 -0.45029473
000080 46 53 65 be 1a 73 c4 bc 54 f7 7d bc 48 95 f5 bd
       -0.22395048 -0.023980666 -0.015500862 -0.11991364
000090 c8 c4 86 bd be 34 32 3d b5 ee 16 be 45 2d 41 3d
       -0.06580502 0.04350733 -0.14739497 0.047162313
0000a0 4d 49 db 3e c2 ad ff bd b9 b2 83 bd 1c 30 4d be
       0.42829362 -0.124843135 -0.06430573 -0.20037884
0000b0 6e d7 13 3d 8f be d8 3d ae f8 f1 be e5 97 3c 3d
       0.03609412 0.10583221 -0.4726004 0.046043295
0000c0 69 ed 73 3f e4 15 3e 3e e8 e3 b9 3d 29 f4 8b bd
       0.95284134 0.18563038 0.09076673 -0.06833679
0000d0 af 48 56 be 2d 74 19 3e c3 5d 2e 3c 26 b2 23 bd
       -0.20926164 0.14985724 0.010642472 -0.039964817
0000e0 aa 13 e7 bc f2 6a d9 3d fb 27 a9 bd f6 63 20 be
       -0.028207619 0.10616101 -0.08259579 -0.15663132
0000f0 13 ce 7e be 68 b5 0d be e4 80 a7 3e 38 a5 51 be
       -0.24883299 -0.13838732 0.32715523 -0.20473182
000100 41 4d fe 3e d1 d6 97 3f 9e ad 0a 3e 54 af 99 bd
       0.49668315 1.1862432 0.13542792 -0.07504144
000110 86 97 1d 3e ed f7 ce 3d a6 cf db bc 4c 68 8a bd
       0.15389833 0.10105882 -0.026832413 -0.06758174
000120 dd 8e 93 be 37 88 5e bd f2 23 d1 3d d0 59 36 be
       -0.28819934 -0.054329123 0.10211934 -0.17807698
000130 94 9b ad be c7 08 3d bd 80 f7 eb be e3 94 0c bb
       -0.3390776 -0.04615095 -0.46087265 -0.0021451048
000140 4b af 95 3e 1b 59 63 3d 1c ad 30 3d bc 07 94 bd
       0.292353 0.0555049 0.04313384 -0.07228038
000150 c3 ea 36 be 92 b6 9c bc ad eb 38 3e 0f 83 7f be
       -0.17862992 -0.019130025 0.18058653 -0.24952339
000160 e3 c1 ad bd 76 5c 85 bd 63 8d 83 be b7 11 43 3f
       -0.084842466 -0.06511776 -0.25693807 0.76198906
000170 ae 2c b4 bd 39 f6 0d be 2e a4 25 3e 53 2e b8 bd
       -0.087975845 -0.13863458 0.16175911 -0.08993211
000180 ea f6 77 3c 05 b6 0e bb 2c 92 ef 3d ab 8d a1 be
       0.0151345525 -0.0021775973 0.11697802 -0.31553397
000190 2e 9b 87 3e 1e a1 1e bf 1a c8 33 3f 1d 38 1f 3e
       0.2648558 -0.61964595 0.70227206 0.1554875
0001a0 62 ec cc be c3 13 40 3d bc b2 09 be 69 29 21 3e
       -0.40024096 0.046893846 -0.13447088 0.15738453
0001b0 6f 50 b3 be 1d 3b 46 be 76 b6 01 3d 66 e2 e1 bc
       -0.35022303 -0.19358487 0.03166815 -0.027573776
0001c0 ca 5f 8b be 8c ae a7 bd 16 af c5 3d df 87 77 be
       -0.2722152 -0.08187589 0.096525356 -0.24172924
0001d0 66 68 1f be ed 36 aa be 6d 9a 07 3e 3a 9b ce bd
       -0.15567169 -0.3324503 0.13242503 -0.10088201
0001e0 3d bd cd 3d 7c f6 ae bd 4c 47 cb be 53 97 28 be
       0.1004586 -0.08543107 -0.39702833 -0.16463976
0001f0 25 4d e8 3c 2e 7a cf 3d a3 03 9b be a0 9a 1b bf
       0.028357098 0.10130726 -0.30276212 -0.60782814
000200 27 2f 94 be 01 b5 80 3d ea 32 33 be 68 e7 c0 be
       -0.28942224 0.06284524 -0.17499891 -0.3767655
000210 b2 c3 2b be f1 66 9b bd a9 23 88 be a3 7b b0 bd
       -0.1677387 -0.07587994 -0.26589707 -0.08617332
000220 02 9b e6 bd 09 44 97 3e 72 f4 16 be c9 6f 9d bd
       -0.11260034 0.29544094 -0.14741686 -0.07687337
000230 d5 b7 24 be 42 a8 e6 be 4a 67 5a be 51 fe 18 3f
       -0.16085751 -0.45050246 -0.21328464 0.59763056
000240 c1 ad b1 be a1 94 0d 3d 86 e0 22 bc 1d fa f3 be
       -0.34702876 0.03456557 -0.009941226 -0.4765176
000250 eb 67 50 be 91 65 07 bf c4 7c 3d bd ae 9d 7a bd
       -0.20352142 -0.52889353 -0.046261564 -0.06118553
000260 d8 4b 94 be 0d c2 fa 3d 5d 76 dc 3d 9d ec 63 bd
       -0.28964114 0.122440435 0.107647635 -0.055645574
000270 4d 97 ba bd e3 bd 20 bc 58 e9 7f be a9 cd ae bd
       -0.091108896 -0.0098108975 -0.24991357 -0.0853532
000280 03 86 d5 bd 37 b6 1f 3f 7f 77 cd 3e 11 fe 1c bd
       -0.10425951 0.6238741 0.4013023 -0.038328234
000290 77 0e d3 be 92 d7 5d 3f 54 45 77 bc 0f 81 25 be
       -0.41221973 0.8665706 -0.015092213 -0.16162513
0002a0 0b 98 81 be c3 4f ea bd 4e 9b 11 3e a0 c2 70 be
       -0.25311312 -0.114409946 0.142194 -0.23511744
0002b0 ce 27 3c 3d f1 0b 2b 3e 41 0d 71 be 27 59 27 3e
       0.0459364 0.16703774 -0.23540212 0.16342603
0002c0 c4 94 0f 3e a1 25 28 3e 7f ae 91 be 8c 80 8c 3d
       0.14021593 0.16420604 -0.28453442 0.06860456
0002d0 53 bf f7 3e 17 b6 07 bf 6b 43 f8 bc 23 59 1d be
       0.48388156 -0.5301222 -0.030305585 -0.15366034
0002e0 3f 84 db bd a3 7c 7a bd a6 00 79 be 5c 6b 79 be
       -0.10718583 -0.06115402 -0.24316654 -0.2435736
0002f0 3c 6f 26 3c fd b8 ac 3e b7 2f b9 3f 0b 2b 68 3f
       0.010158356 0.33734885 1.4467686 0.9069068
000300 eb d0 9e be 4e 81 83 be 30 83 b0 be 8e bb 81 be
       -0.31018767 -0.2568459 -0.34475088 -0.25338405
000310 fd 11 99 be 9a a1 e1 3c 4e 6a 7f bd d8 97 7c be
       -0.29896536 0.027542878 -0.06235724 -0.24667299
000320 cc 80 23 3e 41 81 39 be ee 32 6d 3e ff d8 d3 3d
       0.15967101 -0.18115713 0.2316396 0.10344123
000330 95 cb e5 3e fe 9b ce be ca 87 ce be e0 af b5 bc
       0.44881883 -0.40353388 -0.40337974 -0.02217859
000340 e2 e8 49 bd 84 65 84 be dc e9 a5 be d6 f6 bf bc
       -0.04929436 -0.258587 -0.32404983 -0.02343313
000350 cd d9 ba bd d8 aa 66 3f f6 e4 4b bd db 52 93 bd
       -0.091235735 0.90104437 -0.0497789 -0.07193538
000360 1e 09 46 3e d4 b3 5c bd f2 83 a8 be 88 6c ac bd
       0.19339415 -0.053882435 -0.32913166 -0.08419138
000370 ae d4 e3 bd cc f3 54 3c 1e 8a ce 3d f3 5c b6 be
       -0.1112455 0.012997579 0.100849375 -0.3561779
000380 03 bc db bc cd e2 13 3f 17 be e2 bb 47 ce 0c be
       -0.02682305 0.57767946 -0.006919633 -0.13750564
000390 d3 d3 54 be 15 92 64 3e 37 d5 65 3e f0 ff 6f 3d
       -0.2078393 0.22321351 0.22444616 0.05859369
0003a0 3e 08 a8 3c f6 3c d3 3e c4 76 e6 bd 0b fe ed be
       0.020511743 0.41257447 -0.112531215 -0.46482882
0003b0 c4 1c a8 3e 70 51 88 3d ea c6 99 be 3a ed 5f 3e
       0.32834446 0.06656158 -0.30034572 0.21867839
0003c0 0e 0c d6 bd b9 21 08 bd 30 12 d5 3d d8 d5 a7 be
       -0.10451518 -0.033235285 0.104038596 -0.32780337
0003d0 66 0a ba be d0 a6 e5 3e 9a ef 19 3d 2a 68 70 be
       -0.36336058 0.4485383 0.037582017 -0.23477235
0003e0 f8 05 95 be 77 f3 84 be ca 3d 69 be 11 34 92 3e
       -0.29106116 -0.25967 -0.22777477 0.2855535
0003f0 81 01 04 be 4a e2 21 bd 86 9c ce 3c 29 72 9b 3c
       -0.12891199 -0.039522447 0.02522112 0.018975334

linear2.weight f4 [3, 256]
000000 1e a2 72 be 03 51 31 be 29 2d 24 bd 76 5f b6 3e
       -0.23694655 -0.1731606 -0.04008213 0.35619706
000010 fc ff 35 bd 20 ee 71 bd ed e0 58 3e 77 30 dc 3e
       -0.04443358 -0.059064984 0.21179552 0.43005726
000020 2e be be bd d0 f5 54 bd a8 37 e0 3c 61 ad 09 3c
       -0.09313618 -0.051992238 0.027370289 0.008403153
000030 4f ea 38 bd c8 86 22 3d 5e 4c 8a 3e b7 76 89 3e
       -0.04514533 0.03967932 0.2701139 0.26848385
000040 6a f8 b2 bd 7c ed 59 3e 0b c9 24 be 2f 04 bf be
       -0.087387875 0.21282 -0.16092317 -0.3730788
000050 74 dc 79 3e 7e 46 5e 3a 40 5f 62 be d5 48 35 be
       0.24400502 0.0008479132 -0.22106647 -0.17703564
000060 17 6f 7c bd ff 03 ff 3d d8 fa ad 3e 89 97 b0 3e
       -0.06162938 0.12451934 0.3398044 0.34490612
000070 29 5b 19 be e1 8e be 3e 55 91 c4 3e 7c d4 db bc
       -0.14976181 0.37218383 0.3839213 -0.026834719
000080 c9 37 2d 3d 3b 23 3a 3b 02 9e 15 3f de 71 c4 be
       0.04228953 0.0028402347 0.58444226 -0.38368124
000090 85 ed ba be 5e 80 8b 3e 9a f1 82 be a5 42 02 bf
       -0.36509338 0.27246374 -0.25574952 -0.5088294
0000a0 9d 41 54 3e 73 36 f5 bd 52 76 0e bf 8b 88 9e bd
       0.20728154 -0.11973276 -0.5564929 -0.07740887
0000b0 e5 a2 9b 3d 52 6c 6f 3e a6 32 bb bd 83 45 12 bf
       0.07599429 0.23381165 -0.0914052 -0.57137316
0000c0 bc b1 b1 3e 1a c9 c6 3d aa 3a 47 3e e2 24 a5 3d
       0.34705913 0.09706326 0.19455972 0.080636755
0000d0 81 03 a3 be 94 32 bb 3e 01 b6 d3 3e bd 51 2d 3d
       -0.3183861 0.36562026 0.41349795 0.04231428
0000e0 f2 a0 20 3e 5b c4 19 be e5 46 3d 3e fe 32 00 be
       0.15686396 -0.1501631 0.18484075 -0.12519452
0000f0 15 79 d9 be dc 96 1e bf a4 c6 dc 3e 79 51 6b be
       -0.4247519 -0.61948943 0.431203 -0.22980298
000100 ed 7e 46 3d 0c 03 d5 3e 89 7c 23 be 96 d8 eb 3c
       0.04846089 0.41603887 -0.15965475 0.0287898
000110 41 2c 3e be fb a4 42 3e 28 19 02 bf dd 8f b2 be
       -0.18571569 0.19008248 -0.50819635 -0.34875384
000120 62 98 14 be 93 60 86 3e f5 6c f3 bd 5f 4f 7d bd
       -0.14511254 0.26245555 -0.11886016 -0.061843272
000130 a1 1e 8f be 06 7a ce be 80 7f 00 be 14 18 0e 3f
       -0.27953056 -0.40327471 -0.12548637 0.5550549
000140 90 ed 58 3d 3e ad 28 3e 1c 91 fc 3d 35 8c c9 be
       0.052960932 0.16472337 0.12332365 -0.39364782
000150 79 96 e4 3c 54 71 e3 3e 2c 44 28 3e 82 ee b3 bd
       0.027903782 0.444224 0.16432256 -0.08785726
000160 cb dc d8 3d 2f f7 25 3e fc 2c 99 3d 31 39 21 3e
       0.10588988 0.16207574 0.07479283 0.15744473
000170 b9 98 ae 3e 6c 02 5a be bf 5a 9e 3e 2a a8 08 3e
       0.34100893 -0.21289986 0.3092861 0.133454
000180 a0 60 a8 3e 19 29 0a be 57 42 04 bf 7a e8 0b be
       0.3288622 -0.1349224 -0.51663727 -0.13662902
000190 7d 29 62 3e 0c 1d 27 be b2 fc c6 3e ce 47 74 3d
       0.22086139 -0.16319674 0.38864666 0.05963879
0001a0 92 6e 34 3d d3 b5 88 3e 6b ed ce be 26 1e 28 bf
       0.04405076 0.2670122 -0.4041551 -0.65671
0001b0 0f 51 3d bb d6 75 a1 bd c2 4a fb be 64 2a 13 bd
       -0.0028887426 -0.078838035 -0.49080473 -0.0359291
0001c0 f3 c8 31 be f8 85 f5 be bf ab fa be 12 35 52 3d
       -0.17361812 -0.47953773 -0.48959157 0.051320143
0001d0 e8 15 a8 3d 86 64 7e bd 73 71 f7 3d c8 75 1d bf
       0.08207303 -0.062107585 0.120821856 -0.61507845
0001e0 c1 db d7 3e 63 99 93 3e 90 87 9c bd 09 21 15 bf
       0.42159846 0.28827962 -0.07643044 -0.5825353
0001f0 38 f7 a9 bd 18 b6 da bd e8 db a3 be 7a 50 10 be
       -0.08299106 -0.10679263 -0.32003713 -0.140932
000200 e4 21 83 be 8b 94 c1 3d 5b 65 a7 3d b0 da b8 3b
       -0.25611794 0.094521604 0.08173629 0.005641304
000210 48 cd 21 bd 8c a5 5c 3d 12 6e 06 be b6 cf 9d bd
       -0.039502412 0.053868815 -0.13127926 -0.07705633
000220 90 37 80 3b a5 9c ea 3d dd c5 05 be a5 ed 51 bf
       0.0039128736 0.11455659 -0.1306376 -0.8200324
000230 78 46 c2 bd 19 2c 51 be ea 0c 17 3e 79 98 7e 3e
       -0.09486097 -0.20426978 0.1475102 0.24862851
000240 97 3a f0 bd 95 53 df 3d de cf c6 bc 25 50 2c be
       -0.11729925 0.10904614 -0.02426904 -0.16827448
000250 ed 56 a0 bc 38 0c f6 bd 71 e3 20 3f 7e 3c 8f 3b
       -0.0195727 -0.12014049 0.6284705 0.004371225
000260 04 da 95 3c ba 43 76 3e 23 a1 fb 3d db 94 92 3d
       0.018292435 0.24049273 0.12286594 0.07157298
000270 55 b9 55 3e 57 e6 2c 3e 45 80 02 3d 59 6b 83 3e
       0.2087148 0.16884743 0.03186061 0.25667837
000280 d9 26 cc 3d 89 0d e4 3e 10 92 37 3e 1a 31 d0 3e
       0.09968347 0.44541577 0.17926812 0.40662462
000290 64 25 12 3c 88 51 b6 3e 6b 5b 37 be 34 f5 40 be
       0.008920047 0.35609078 -0.17905967 -0.18843538
0002a0 1d dc 63 be e4 56 3a bf 76 b1 90 be 1d 02 bd be
       -0.22251935 -0.72788835 -0.28260392 -0.36915675
0002b0 7d 0c 19 3e 45 ec 17 bf 2b 79 5c 3b e1 c9 d0 3d
       0.1494617 -0.59344894 0.0033641558 0.10194755
0002c0 28 51 cd bd 05 8b 13 3c 69 d5 d2 be 05 ae 06 3d
       -0.10025245 0.009005313 -0.41178444 0.0328808
0002d0 8a 04 76 3d 33 27 16 be 7f ae 62 3d cb e4 b3 bb
       0.060062923 -0.14663391 0.055342194 -0.0054899207
0002e0 a2 26 43 3e 02 65 cd 3e 68 7b bd be aa f5 7d be
       0.19057706 0.40116125 -0.37008214 -0.24800745
0002f0 7b ea 3f 3e 76 43 f1 3e fe 60 9e 3e a3 e6 80 3e
       0.18741791 0.4712178 0.30933374 0.25175962
000300 8d 59 8a ba 61 b9 37 bd 80 c3 26 be 18 9c c1 3c
       -0.0010555253 -0.044854525 -0.16285515 0.023634002
000310 61 1b d1 3c a4 ec 78 be 0e 2c 22 bf 2d 38 55 bd
       0.02552575 -0.24309021 -0.6334847 -0.052055527
000320 b7 55 cb 3c 9b 8b 7c 3e 6e 7a 44 3d c0 dd b5 3c
       0.024821145 0.2466263 0.04796832 0.022200465
000330 32 34 fa 3d 6c d3 f6 bd 2c 4c 2e be d9 a1 9b be
       0.12216987 -0.12052044 -0.17021245 -0.30396917
000340 9a 16 48 3d f9 02 ed bd 12 89 1c bc 4d 3c 25 bf
       0.04884968 -0.115728326 -0.0095541645 -0.64545137
000350 80 bd 11 be 1a e6 56 3e f0 e5 10 bf 26 22 0e bf
       -0.14232445 0.20986214 -0.56600857 -0.55520856
000360 98 ce 8a 3e 91 e7 a8 bd d4 7c 46 3e f1 10 aa be
       0.27110744 -0.08247293 0.19383556 -0.3321605
000370 a7 39 9f 3e d8 45 e0 3c f6 6e 38 bf ff ff 2e be
       0.31098673 0.027377054 -0.7204431 -0.17089842
000380 44 7f 01 3c fb 7b 2f 3e b3 f4 e3 3e 6e 5b f6 3d
       0.007903878 0.17137139 0.44522628 0.120291576
000390 f3 c0 06 bf ff 20 c7 3e d1 23 79 3e e8 1d f4 3d
       -0.5263817 0.38892362 0.24330069 0.11919767
0003a0 b9 57 b0 3e f9 b7 97 3e 62 4b 97 be 96 7b fa bd
       0.34441927 0.29632547 -0.295497 -0.122306034
0003b0 c7 ab 87 3e 60 d7 37 3d 5f 14 c8 3d d4 9e cc bc
       0.26498243 0.044883132 0.097695105 -0.024978079
0003c0 5d d4 2e bf 30 26 4a 3e a3 f5 7f 3d 9d e3 15 be
       -0.6829279 0.1974113 0.062490117 -0.14637609
0003d0 28 2e 32 3c d3 d2 02 3f 3b da b4 3e 37 c4 81 bd
       0.010875262 0.5110294 0.35322747 -0.06336253
0003e0 26 ea 01 3d cb 45 83 3d 59 a5 cf 3d fd 4e 8b 3e
       0.031717442 0.06409796 0.101389594 0.272087
0003f0 90 92 8e 3d 41 b3 3a 3d 0c 66 bc bc f0 3d a5 3e
       0.06961548 0.045581106 -0.022997878 0.32273817

linear2.bias f4 [3]
000000 29 4e a8 3e 8f 66 e8 3d 00 1d 17 3e
       0.3287213 0.113476865 0.14757156
