model_hybrid/checkpoint_20251029_200756_score18.pth (torch, 21291 bytes, 4 tensors)

linear1.weight f4 [256, 14]
0	0xbd300baa	-0.042979874
1	0xbea11313	-0.31459865
2	0x3f05b7d2	0.5223361
3	0x3d4df5d3	0.050283264
4	0xbd2832df	-0.04106414
5	0x3e9db3d4	0.3080126
6	0xbecd9319	-0.4015129
7	0xbe475383	-0.19465451
8	0x3eb76080	0.3581581
9	0x3cceb1c4	0.02523125
10	0xbd7b6a30	-0.061380565
11	0x3df63908	0.120225966
12	0x3dec6cdc	0.11544201
13	0xbc806acc	-0.015675925
14	0x3e49c9cd	0.19705887
15	0x3f17879e	0.5919131
16	0xbee54689	-0.44780377
17	0xbd3e5075	-0.04646345
18	0xbca6310e	-0.020287063
19	0xbe1ed9f7	-0.15512834
20	0xbda92aac	-0.08260092
21	0xbca1d52e	-0.019754972
22	0x3e15d467	0.14631806
23	0x3d348385	0.04407074
24	0xbe1c2668	-0.15249026
25	0xbd6c9142	-0.057755716
26	0x3d57d35f	0.052691814
27	0xbda03dc9	-0.078242846
28	0xbd481c97	-0.04885539
29	0x3eba8eef	0.36437175
30	0xbe9cbf25	-0.30614582
31	0x3edf1e62	0.43577868
32	0xbe8caa9c	-0.27473915
33	0xbe65c6f8	-0.22439182
34	0x3ec3377c	0.3812827
35	0xbe12f6bd	-0.14351936
36	0x3e021406	0.12702951
37	0xbefb18e9	-0.49042442
38	0x3e920e35	0.28526464
39	0x3e2c7748	0.16842377
40	0x3c21e65f	0.009881585
41	0xbdf04b97	-0.117331676
42	0x3d5d4820	0.054023862
43	0x3eca62f7	0.3952863
44	0xbd2b8e63	-0.041883837
45	0xbeb4b71f	-0.3529596
46	0x3ecd550a	0.40103942
47	0xbe803cde	-0.25046438
48	0xbe3c1471	-0.18367173
49	0x3d79d643	0.06099535
50	0x3eb1312e	0.34607834
51	0xbe09b7d9	-0.13449039
52	0xbec4b9eb	-0.38423094
53	0xbe2735e4	-0.16329151
54	0x3ca08f97	0.019599719
55	0x3d593566	0.05302944
56	0x3e894b9a	0.26815492
57	0x3ed9606e	0.42456383
58	0xbe768d9a	-0.24077454
59	0x3d52ef64	0.051497832
60	0xbe589b3d	-0.21152969
61	0xbdbdd679	-0.09269423
62	0x3e1e3b86	0.15452394
63	0xbe5df6f2	-0.21676233
64	0x3d038ab4	0.0321147
65	0xbd020e22	-0.03175176
66	0x3d9b6fda	0.07589693
67	0xbd716be5	-0.058940787
68	0x3d588ce9	0.052868757
69	0xbeb46bdd	-0.35238543
70	0xbe91b04a	-0.2845481
71	0x3e082cbc	0.13298315
72	0x3de414dc	0.11136791
73	0xbdfc7590	-0.12327111
74	0xbe21458a	-0.15749183
75	0xbe8f7d41	-0.2802525
76	0xbc657ffd	-0.014007566
77	0xbe92bcf7	-0.28659794
78	0x3d1a0292	0.037600107
79	0xbe1aff9f	-0.15136574
80	0xbc73ec1d	-0.014887837
81	0x3d537b65	0.05163135
82	0x3d768d4d	0.06019335
83	0xbed432f6	-0.4144513
84	0x3d298c28	0.04139343
85	0xbdda23b0	-0.10651338
86	0xbe2137a0	-0.15743876
87	0xbdf44d83	-0.11928847
88	0x3ed4b430	0.41543722
89	0xbe3ca6c5	-0.18422993
90	0x3ef9baf6	0.48775452
91	0xbedf89a5	-0.43659702
92	0x3d4af832	0.049553104
93	0xbf11996e	-0.5687474
94	0x3e1ea4d5	0.15492566
95	0x3e9f8a63	0.31160268
96	0xbed14453	-0.4087244
97	0x3e23c8cd	0.15994568
98	0x3ecbed89	0.39829662
99	0xbeeefa32	-0.4667526
100	0x3d8472cc	0.06467208
101	0xbdeccd2e	-0.115625724
102	0x3cb16f0e	0.0216594
103	0x3eaa76ee	0.3329386
104	0xbedc8c85	-0.43075958
105	0x3d41f1b6	0.047349654
106	0x3dd4812a	0.103761986
107	0xbd48e29c	-0.049044237
108	0x3eb9a6f6	0.36260194
109	0x3e0ed8f8	0.13949955
110	0xbe83db48	-0.25753236
111	0xbd8b57b4	-0.068038374
112	0x3d64306a	0.055710234
113	0xbea79115	-0.32727876
114	0x3e8ce54e	0.27518696
115	0xbeda29c9	-0.42610005
116	0x3eb12b6c	0.3460344
117	0x3ea09369	0.31362465
118	0xbdacc0c0	-0.08435202
119	0x3ef54275	0.47902265
120	0xbec6d853	-0.38836917
121	0xbe9fa0b5	-0.31177297
122	0x3e9c9f40	0.30590248
123	0xbe599fb5	-0.2125233
124	0x3e317e59	0.17333354
125	0xbd2cdd1b	-0.04220305
126	0xbe07d3cd	-0.1326439
127	0xbe5750f8	-0.21026981
128	0x3f31ed1a	0.69502413
129	0x3ec4c7b4	0.3843361
130	0xbc44853e	-0.011994658
131	0x3ec5b985	0.38618103
132	0xbed47235	-0.41493383
133	0xbe4ea3ff	-0.20179747
134	0x3ec0985b	0.37616238
135	0xbc7ec0f9	-0.015548938
136	0xbeb94dce	-0.36192173
137	0xbd8cd140	-0.06875849
138	0x3d9535a7	0.07285624
139	0x3e6890fa	0.22711554
140	0x3e38e92f	0.18057702
141	0xbddd1733	-0.107954405
142	0xbdb40c4a	-0.087914065
143	0x3c90522c	0.017617308
144	0xbced9fbb	-0.02900683
145	0x3ee05465	0.43814388
146	0xbf0a9e61	-0.5414792
147	0xbe0757dd	-0.13217111
148	0xbd97b701	-0.07407952
149	0xbec20732	-0.37896115
150	0x3efdcd4b	0.4957069
151	0xbd79c301	-0.060976986
152	0xbdd8e4b9	-0.105905004
153	0xbdcb3588	-0.0992232
154	0x3ee2cdc2	0.44297606
155	0x3e3b37af	0.1828296
156	0x3da1b0a6	0.07895021
157	0x3cbc4f78	0.022987112
158	0xbd774634	-0.060369685
159	0xbdd5eec0	-0.104459286
160	0xbd45dddf	-0.048307296
161	0x3d7ff2d6	0.062487446
162	0x3e2853e7	0.16438256
163	0x3e9159d8	0.28388858
164	0x3eb67d6f	0.35642573
165	0xbd9cb81d	-0.07652304
166	0x3dcf53b4	0.10123387
167	0xbdd143a1	-0.10217977
168	0x3e94c63b	0.29057488
169	0x3ebf1657	0.3732173
170	0x3e30cdf6	0.17266068
171	0xbe7f0746	-0.24905118
172	0xbcc18702	-0.023623947
173	0xbcf6536f	-0.030069081
174	0x3cb9f15f	0.022698103
175	0x3e249915	0.16074021
176	0xbde44e9c	-0.11147806
177	0xbd64f3cc	-0.055896565
178	0x3e3ccd9b	0.18437807
179	0xbd15f562	-0.03661097
180	0x3d33421a	0.04376421
181	0xbe8b021d	-0.2715005
182	0xbe89c675	-0.26909223
183	0xbea92b41	-0.33040813
184	0x3f2de7e1	0.67931944
185	0xbd399566	-0.045308493
186	0x3d83d1bb	0.06436487
187	0x3e8643ba	0.26223546
188	0x3e0a4fcc	0.13507003
189	0x3e3230d3	0.17401437
190	0x3e4f1c98	0.20225751
191	0xbd19a323	-0.037509095
192	0x3e6cdcf7	0.23131166
193	0xbe665244	-0.2249232
194	0x3dd8d43b	0.10587355
195	0x3dc60081	0.09668065
196	0x3efc02b8	0.49220824
197	0xbd256a72	-0.040384717
198	0x3e33fb6d	0.1757638
199	0xbe5e69a1	-0.21719982
200	0x3f055d10	0.5209513
201	0xbe1cf9f5	-0.15329726
202	0xbcd06972	-0.025440905
203	0x3e7c9b5c	0.2466864
204	0xbedea9c3	-0.43488893
205	0x3db54d38	0.08852619
206	0x3d3a0693	0.045416426
207	0x3e0397b9	0.12850846
208	0x3d474985	0.048654098
209	0x3df72c80	0.120690346
210	0xbf042661	-0.5162106
211	0x3f331fca	0.6997038
212	0x3e7ec985	0.24881561
213	0xbc4bdbd5	-0.012442549
214	0x3cb8f0b3	0.022575712
215	0xbacad162	-0.0015473778
216	0xbd378828	-0.044807583
217	0xbcbe8933	-0.023258781
218	0x3d1d4da7	0.038404133
219	0x3e1e9d68	0.15489733
220	0xbe99c6bc	-0.30034435
221	0x3d0a4093	0.03375299
222	0xbe107102	-0.14105609
223	0xbdcf0168	-0.1010769
224	0xbe60eede	-0.2196612
225	0xbddc67c9	-0.10761983
226	0x3e46e97c	0.19425005
227	0xbe663f82	-0.22485164
228	0xbe8b365e	-0.27189916
229	0x3e79bb84	0.24387938
230	0x3eb005b8	0.34379363
231	0x3e6443cb	0.22291486
232	0x3e96f6ea	0.29485255
233	0xbeb54bce	-0.35409397
234	0xbea320e2	-0.31861025
235	0xbe1fd3a0	-0.15608072
236	0x3e2826fd	0.16421123
237	0x3de09666	0.10966186
238	0x3e4708a5	0.19436891
239	0x3f1786d6	0.5919012
240	0x3c9186fb	0.017764559
241	0xbe27344e	-0.16328546
242	0xbb726a33	-0.003698957
243	0xbc2bd830	-0.010488555
244	0xbdfdaad2	-0.12386097
245	0x3e951b2a	0.29122287
246	0x3e4cd2a3	0.20002227
247	0x3e3cef2c	0.18450612
248	0x3eacf075	0.33777204
249	0xbe3e3187	-0.1857358
250	0x3d8753a3	0.06607749
251	0x3d79142e	0.06081026
252	0xbd4390a2	-0.047745354
253	0xbee7deff	-0.4528732
254	0x3f2e85af	0.68172735
255	0x3db0b6f5	0.08628646

linear1.bias f4 [256]
0	0xbe65b558	-0.22432458
1	0x3d0778ce	0.033074193
2	0xbce9a849	-0.028522627
3	0xbdf0bf7f	-0.11755275
4	0x3e1395d2	0.1441262
5	0xbc87dddd	-0.016585285
6	0x3eb048f3	0.34430656
7	0xbdc7a070	-0.09747398
8	0xbd0a3b2e	-0.033747844
9	0xbd87ae38	-0.066250265
10	0x3e38eae1	0.18058349
11	0xbe34050e	-0.17580053
12	0xbd809d7c	-0.06280038
13	0xbea3830b	-0.31935915
14	0xbe908186	-0.2822382
15	0xbd9bc52a	-0.076059654
16	0xbd756a11	-0.059915606
17	0xbdd88292	-0.10571779
18	0xbb1eb00f	-0.0024213826
19	0xbd8cf0e2	-0.06881882
20	0xbda46962	-0.08027913
21	0x3d9d4d62	0.07680775
22	0xbe9f8341	-0.31154826
23	0xbdaa4581	-0.08314038
24	0xbd666dd7	-0.056257095
25	0xbcfbe3da	-0.030748297
26	0xbccae380	-0.024766684
27	0xbd54c833	-0.051948737
28	0xbe391229	-0.18073334
29	0xbcc4f6d0	-0.02404347
30	0xbde2205a	-0.11041327
31	0xbdcba323	-0.09943225
32	0x3e190b92	0.1494582
33	0xbe35d7f2	-0.17758158
34	0xbd7a5af8	-0.06112191
35	0xbe108027	-0.14111386
36	0xbcd3253a	-0.025774587
37	0xbbe71616	-0.0070521934
38	0xbe9eb98b	-0.31000933
39	0x3dabf1c6	0.08395724
40	0xbe09bc11	-0.13450648
41	0x3d9af926	0.075670525
42	0x3e77400d	0.24145527
43	0xbd844833	-0.064590834
44	0xbe84310a	-0.25818664
45	0x3e22eb8b	0.15910165
46	0x3da0b23c	0.078464955
47	0x3eba0a0c	0.3633579
48	0xbe8edb3e	-0.27901644
49	0x3e941efc	0.2892989
50	0x3d1f05a6	0.038823746
51	0xbd3eab9e	-0.046550386
52	0xbe9559f8	-0.29170203
53	0xbe60df3f	-0.21960162
54	0x3e843c77	0.2582738
55	0xbd56fe14	-0.0524884
56	0x3ce87332	0.028375242
57	0xbe7861a1	-0.24255992
58	0x3e14d931	0.14535977
59	0x3dfdfcd0	0.12401736
60	0xbdd7d201	-0.10538102
61	0xbdbac928	-0.09120399
62	0xbe463b70	-0.19358611
63	0xbea7343a	-0.32657033
64	0xbe3c16d1	-0.18368079
65	0xbda75ee8	-0.08172399
66	0xbe15c873	-0.14627247
67	0xbd6f5291	-0.05842835
68	0xbdf5001c	-0.119629115
69	0x3f270c47	0.6525311
70	0xbd7c73d4	-0.0616339
71	0xbda6641c	-0.08124563
72	0xbe86e54f	-0.26346824
73	0xbd8ad5a2	-0.067790285
74	0xbe227d88	-0.15868199
75	0xbe588da4	-0.21147782
76	0x3e26c8ea	0.1628758
77	0x3dd921e6	0.10602169
78	0x3d8ebc01	0.06969453
79	0xbce176df	-0.027522502
80	0x3d6a5b02	0.057215698
81	0x3df60bd8	0.12013978
82	0x3cc668f5	0.02421997
83	0xbe4025d9	-0.18764438
84	0x3cd7eae0	0.026357114
85	0xbe4aec2c	-0.19816655
86	0xbe8248f7	-0.25446293
87	0x3dc78a11	0.09743131
88	0x3d9eab41	0.07747508
89	0xbde10239	-0.10986752
90	0xbca1459a	-0.019686509
91	0xbe2165ba	-0.15761462
92	0xbe8b1608	-0.27165246
93	0x3ecb4f9e	0.3970918
94	0xbc22197c	-0.009893771
95	0xbe194d82	-0.14970973
96	0xbd786850	-0.060646355
97	0x3b984b0d	0.0046476186
98	0xbe51bf1c	-0.20483059
99	0x3e40c3ff	0.18824767
100	0x3cfb103e	0.030647393
101	0x3db810fe	0.08987616
102	0x3d1e6287	0.03866818
103	0xbe3e6ed2	-0.18596962
104	0xbd6e999d	-0.058251966
105	0xbe0fceda	-0.14043751
106	0xbe542a22	-0.20719197
107	0x3e691ef8	0.2276572
108	0xbe642a94	-0.22281867
109	0xbeab1c87	-0.33420202
110	0xbe2a433a	-0.16627207
111	0x3e2e3037	0.1701058
112	0x3e4787e9	0.1948544
113	0x3e3fdbc0	0.18736172
114	0x3cf50189	0.029907959
115	0xbe3fe972	-0.18741396
116	0x3eab0214	0.33400023
117	0x3e73b148	0.23798096
118	0x3e35f5d2	0.17769554
119	0xbce94e91	-0.028479846
120	0xbdc2cf81	-0.095122345
121	0x3cffcc8d	0.031225467
122	0x3e17382a	0.14767519
123	0xbe4583da	-0.19288579
124	0xbe690878	-0.22757137
125	0xbe58edb6	-0.2118443
126	0x3dec6bcd	0.11543999
127	0xbe041b8d	-0.12901135
128	0x3c06a721	0.008218558
129	0x3e363217	0.17792545
130	0x3f0a33b4	0.5398514
131	0xbd969798	-0.07353133
132	0xbe59dfb7	-0.21276747
133	0x3d924438	0.07141918
134	0xbd23e71b	-0.04001532
135	0xbe37b45b	-0.17939894
136	0x3e08ed9f	0.13371895
137	0xbdd7230d	-0.10504732
138	0x3d4c6d31	0.04990882
139	0xbe5a745b	-0.21333449
140	0xbe54baba	-0.20774356
141	0xbe80d3a1	-0.2516146
142	0xbe772682	-0.24135783
143	0x3d3adcfd	0.045620907
144	0x3d8d7d77	0.06908696
145	0x3e82b171	0.25526002
146	0xbd995bfe	-0.07488249
147	0xbd1c3005	-0.038131732
148	0xbd7cb556	-0.061696373
149	0xbdb86b36	-0.09004824
150	0xbce75d7f	-0.028242825
151	0xbe02ff5f	-0.12792729
152	0x3cdaf0fa	0.026726235
153	0xbe07ef8b	-0.13274972
154	0x3def4911	0.11683858
155	0xbd3489eb	-0.04407684
156	0xbb36c461	-0.0027888047
157	0x3e78e750	0.24306989
158	0x3d469157	0.04847845
159	0x3d8df3eb	0.06931289
160	0x3d4fcded	0.050733496
161	0xbe072f08	-0.13201535
162	0xbd331b45	-0.043727178
163	0x3e64657a	0.22304335
164	0x3c4979a2	0.012297066
165	0xbd863260	-0.06552577
166	0x3dde82fc	0.10864827
167	0x3dcb08c0	0.09913778
168	0x3d41ccc2	0.047314413
169	0x3cd0c027	0.02548225
170	0x3e1ad7a6	0.15121326
171	0x3e0c03c1	0.13673307
172	0xbe215317	-0.15754353
173	0xbde94fdc	-0.11392185
174	0xbd036c7a	-0.032085873
175	0xbd4e1742	-0.05031515
176	0xbe1d094b	-0.15335576
177	0xbdefeb41	-0.11714793
178	0xbe7e3b95	-0.24827416
179	0xbeb2d628	-0.34929013
180	0x3d79baa3	0.060969006
181	0xbeacc62c	-0.33744943
182	0x3cef0741	0.029178264
183	0xbd2a8514	-0.04163082
184	0x3d0bd89b	0.034142118
185	0xbe535803	-0.20639043
186	0xbd0c2024	-0.03421034
187	0xbd5f44a7	-0.05450883
188	0x3e85f714	0.26165068
189	0x3e6c543f	0.23079012
190	0x3df26e14	0.11837402
191	0x3d920cbd	0.07131336
192	0xbe70a265	-0.23499449
193	0xbd9a7581	-0.07541943
194	0xbe27b28d	-0.16376705
195	0xbd4c21af	-0.04983681
196	0x3e91507a	0.2838171
197	0xbe6e0f31	-0.23247983
198	0xbc1783c6	-0.009247726
199	0xbd720ee1	-0.05909622
200	0x3e1d3159	0.15350856
201	0xbe0d8893	-0.1382163
202	0xbdf85a19	-0.1212656
203	0x3db24ded	0.087062694
204	0xbdcd52fe	-0.10025595
205	0x3e9277f1	0.28607133
206	0x3e2f8956	0.17142233
207	0xbd839655	-0.06425158
208	0xbe877f95	-0.26464525
209	0xbda801eb	-0.08203491
210	0xbd5fa573	-0.054601144
211	0xbe2a4efa	-0.1663169
212	0x3cb2e5bf	0.021838067
213	0xbe60bb84	-0.21946532
214	0x3e38793a	0.18014994
215	0xbe1d4f2b	-0.15362231
216	0x3e355ac0	0.177104
217	0x3f077812	0.5291759
218	0xbd172ae1	-0.036906127
219	0xbd3a892e	-0.04554098
220	0x3e0e7d9b	0.13915102
221	0x3cc6d24c	0.0242702
222	0xbceb959e	-0.028757866
223	0xbe088cc5	-0.1333495
224	0xbe248789	-0.16067328
225	0xbdf07684	-0.11741355
226	0xbe997f14	-0.29979765
227	0x3dea55d4	0.11442152
228	0x3e729878	0.23690975
229	0x3e022ea0	0.12713099
230	0x3e052b3b	0.13004772
231	0x3e0ad64f	0.13558315
232	0xbd41f665	-0.04735412
233	0xbd83c691	-0.06434358
234	0x3de34f40	0.110991
235	0xbc521d4d	-0.012824369
236	0xbe831032	-0.25598294
237	0x3e59c6ab	0.21267192
238	0x3ee1014e	0.43946308
239	0x3d9283c2	0.07154037
240	0x3df0a060	0.11749339
241	0x3e0f92fa	0.14020911
242	0xbe067341	-0.13129903
243	0xbb96c5c2	-0.0046012113
244	0xbd9613d4	-0.07328001
245	0x3ddbb75b	0.10728332
246	0xbe347532	-0.17622831
247	0x3d1076a9	0.035269413
248	0xbdc8850d	-0.097910024
249	0xbb9033b3	-0.0044006943
250	0xbd86d56a	-0.06583674
251	0xbd8713b7	-0.06595557
252	0xbe40c7ca	-0.18826213
253	0x3dc3e28e	0.09564696
254	0x3d93bcc9	0.07213742
255	0xbd973d7d	-0.07384775

linear2.weight f4 [3, 256]
0	0x3ddf2357	0.108954124
1	0xbc7b1de0	-0.015326947
2	0x3e834bd6	0.25643796
3	0x3e25f7dc	0.16207832
4	0xbdfcf874	-0.12352076
5	0xbd877072	-0.06613244
6	0x3ec12011	0.37719777
7	0xbe4ac915	-0.19803269
8	0xbeee2f06	-0.4652025
9	0x3e0e9c1c	0.13926739
10	0xbee6119f	-0.4493532
11	0xbe52b3e3	-0.20576434
12	0xbe11de78	-0.14245021
13	0xbda27659	-0.07932729
14	0xbf256b53	-0.6461689
15	0x3db6ab5e	0.089194044
16	0xbeda553f	-0.42643163
17	0xbe70b009	-0.23504652
18	0x3d4cea08	0.050027877
19	0x3e892256	0.2678401
20	0x3e63a5f2	0.22231272
21	0x3ea8edca	0.3299392
22	0x3dadfb38	0.08495182
23	0x3d0642a5	0.0327784
24	0xbdb0d5e3	-0.08634546
25	0x3e9775a7	0.2958195
26	0x3dc77628	0.097393334
27	0x3e9eee88	0.3104136
28	0xbef607cf	-0.48052832
29	0x3eab0547	0.33402464
30	0x3cf1932c	0.029489122
31	0x3eb6a5b8	0.35673308
32	0x3eeb4130	0.45948172
33	0xbd972e02	-0.07381822
34	0x3e157ce1	0.14598419
35	0xbe6720c8	-0.22571099
36	0x3cb1f8c5	0.021725068
37	0xbf074cc5	-0.52851516
38	0x3c2864c4	0.010277931
39	0xbeb017a6	-0.34393042
40	0xbe9f0c44	-0.31064045
41	0x3e86529b	0.26234898
42	0x3e11921e	0.14215896
43	0xbe764cf2	-0.2405279
44	0xbb835216	-0.004007588
45	0x3e5545df	0.20827435
46	0xbdea2501	-0.11432839
47	0x3e9e20b4	0.30884326
48	0xbc5df059	-0.013546073
49	0x3e99786a	0.2997468
50	0x3e15535f	0.14582585
51	0x3e80021b	0.25001606
52	0x3cfae08d	0.030624652
53	0x3dc19986	0.094531104
54	0x3e367806	0.17819223
55	0x3ec8d9c5	0.39228645
56	0xbd9ddfe7	-0.077087216
57	0xbcf129fd	-0.029438967
58	0x3de14f4f	0.11001455
59	0x3de23de1	0.11046959
60	0x3ebead7c	0.37241733
61	0xbb9994ba	-0.004686919
62	0x3d86d68e	0.06583892
63	0x3c793140	0.015209496
64	0x3d3b1297	0.045672026
65	0x3e33efe1	0.17571975
66	0xbbfe2ae9	-0.00775658
67	0x3d944173	0.07239046
68	0xbd158ead	-0.03651302
69	0x3e8af03f	0.27136418
70	0xbe52531c	-0.20539516
71	0xbc5b7048	-0.013393469
72	0x3dd6d7b1	0.104903586
73	0xbdebd487	-0.11515146
74	0xbd8c090d	-0.06837664
75	0x3d4b0826	0.049568318
76	0x3e65d6bc	0.22445196
77	0xbe0313cf	-0.12800525
78	0xbddaea3c	-0.10689208
79	0xbe0cb6db	-0.13741629
80	0x3f1f8293	0.62308615
81	0x3e445310	0.19172311
82	0x3cab51c3	0.02091301
83	0x3c94df8c	0.018173002
84	0xbe0f30dc	-0.13983482
85	0x3c5749b8	0.0131401345
86	0xbe9b915c	-0.30384338
87	0x3e9bd954	0.30439246
88	0xbe02eee4	-0.12786442
89	0xbe898ad2	-0.26863724
90	0x3e8da360	0.27663708
91	0xbd4ad826	-0.04952254
92	0x3d927ed6	0.07153098
93	0x3e513d0d	0.20433445
94	0xbd9e4fc9	-0.077300616
95	0xbe6b545b	-0.22981398
96	0x3e9edf26	0.31029624
97	0xbdb66272	-0.08905496
98	0xbe2439f2	-0.1603773
99	0x3e3ff8e1	0.18747284
100	0xbdbbc94f	-0.09169256
101	0xbf1b5987	-0.6068348
102	0x3b8e7869	0.00434785
103	0xbd620a35	-0.055185515
104	0xbe5e3c11	-0.21702601
105	0xbf028693	-0.50986594
106	0xbe93919e	-0.28822035
107	0xbb146282	-0.0022641723
108	0xbc991823	-0.018688267
109	0xbe97cee3	-0.2965003
110	0xbdd10036	-0.10205118
111	0x3eac1332	0.33608395
112	0xbd912c36	-0.07088511
113	0x3e9ab2ec	0.30214632
114	0x3db4031b	0.08789655
115	0xbd8affde	-0.06787084
116	0x3e94aa00	0.2903595
117	0x3e285cd3	0.1644166
118	0xbe046767	-0.1293007
119	0xbcf0a645	-0.029376158
120	0x3d7481ad	0.05969398
121	0xbe4acf6c	-0.19805688
122	0x3e2c4535	0.16823275
123	0xbe4e1409	-0.2012483
124	0x3c170da9	0.009219565
125	0xbec53270	-0.38515043
126	0x3e1a92e7	0.15095101
127	0xbdc06137	-0.09393542
128	0x3d154714	0.03644474
129	0x3d9f1e54	0.077694565
130	0x3e6967b8	0.22793472
131	0x3ecf91ff	0.40541074
132	0xbf2b5b37	-0.6693606
133	0xbe9d5913	-0.3073202
134	0x3e625fd2	0.22106865
135	0x3ecd44e6	0.40091628
136	0x3d4b50c3	0.049637567
137	0xbc68ec13	-0.014216441
138	0xbead4c6d	-0.3384737
139	0xbcf7055b	-0.03015392
140	0xbda57c69	-0.0808037
141	0xbe058c27	-0.13041745
142	0xbf11a5c9	-0.56893593
143	0x3e2c9807	0.16854869
144	0x3daa70db	0.08322307
145	0x3e8e65e2	0.27812105
146	0x3e3f0757	0.18655144
147	0xbea7d3f7	-0.32778904
148	0x3b5ad1e4	0.0033389265
149	0x3ea9d115	0.3316733
150	0xbceff52c	-0.029291712
151	0xbe69f9f8	-0.22849262
152	0x3e35fd42	0.17772391
153	0xbe6e9609	-0.23299421
154	0xbeac1630	-0.33610678
155	0xbde72ab3	-0.11287441
156	0xbe36cab9	-0.1785077
157	0x3e08dc9e	0.13365409
158	0x3e917cd2	0.28415543
159	0x3e890a7d	0.26765814
160	0xbf392327	-0.72319263
161	0xbb665860	-0.003514789
162	0xbea74dd5	-0.3267657
163	0x3d9c95e2	0.076457754
164	0x3e76d32e	0.24103996
165	0x3ea2d92d	0.31806317
166	0x3e1068d8	0.14102495
167	0x3d1233fc	0.035694107
168	0xbdfd1084	-0.12356666
169	0xbed39d7a	-0.41331083
170	0x3e908f22	0.28234202
171	0x3d44d06e	0.048050337
172	0x3c338dbd	0.010959086
173	0x3ed32fb6	0.41247338
174	0x3e29c9ad	0.1658084
175	0xbea6a614	-0.32548583
176	0xbd426daf	-0.047467884
177	0x3e8654b4	0.26236498
178	0xbd13bc20	-0.03606808
179	0xbd8416a4	-0.06449631
180	0xbe334bd7	-0.175094
181	0xbdd41b45	-0.10356764
182	0xbeed071a	-0.4629448
183	0xbe19f1a8	-0.15033591
184	0x3e9ab468	0.30215764
185	0xbed67827	-0.41888544
186	0x3d5b4f9a	0.05354271
187	0x3da041c1	0.078250416
188	0x3df3c396	0.119025394
189	0x3e2f4df1	0.17119576
190	0x3e099d47	0.13438903
191	0xbeb21d5a	-0.34788018
192	0xbce6983c	-0.028148763
193	0xbed3c21c	-0.4135903
194	0xbf355834	-0.7083771
195	0x3eb1dc0c	0.34738195
196	0x3e3d7d7a	0.18504897
197	0xbe01ffc0	-0.12695217
198	0x3cd51108	0.026009098
199	0xbe2bbf6e	-0.16772243
200	0xbd8fa2ad	-0.0701345
201	0xbe11fe56	-0.14257178
202	0xbe2457e4	-0.16049153
203	0x3e727f66	0.23681411
204	0xbee1418f	-0.4399533
205	0x3ea0073d	0.31255522
206	0xbe6bedea	-0.23039976
207	0xbe81b86d	-0.25336018
208	0xbc0a1703	-0.008428338
209	0xbe0dcbf5	-0.13847335
210	0x3c0ce779	0.008600109
211	0xbed1b173	-0.40955696
212	0xbe323ea2	-0.17406705
213	0xbcc93268	-0.024560168
214	0x3eeffea1	0.46873954
215	0x3c92c0ec	0.017914258
216	0x3daca91d	0.08430693
217	0x3e21f86c	0.15817422
218	0x3cd29771	0.025706979
219	0xbd099e1d	-0.033598054
220	0x3e8dbdd9	0.27683905
221	0x3ceb62f3	0.028733706
222	0xbe83b532	-0.2572418
223	0xbe439599	-0.19100036
224	0xbef35f94	-0.47533858
225	0x3e7d9e5e	0.24767444
226	0x3d8225ba	0.06354852
227	0xbe275154	-0.16339618
228	0x3e8a6277	0.27028248
229	0x3dc2537f	0.09488582
230	0x3e883cf4	0.26609004
231	0xbea53cb2	-0.3227287
232	0xbef49203	-0.47767648
233	0xbb9dfe84	-0.0048216004
234	0xbc8f01f0	-0.017456979
235	0xbd1d8843	-0.038460027
236	0xbd31aa18	-0.043375105
237	0xbe32b83a	-0.1745309
238	0x3dec5e52	0.11541428
239	0x3db097be	0.086226925
240	0x3e5c157c	0.2149257
241	0x3e82cc1a	0.25546342
242	0x3d52b23c	0.05143951
243	0x3ecb26fe	0.39678186
244	0xbe49d161	-0.19708778
245	0xbd8443f0	-0.064582705
246	0xbd8d7a62	-0.06908108
247	0xbda129e0	-0.07869315
248	0x3e690883	0.22757153
249	0xbe41f88a	-0.18942466
250	0x3eb7cb65	0.35897365
251	0xbf12c0ce	-0.57325447
252	0x3cca1614	0.02466873
253	0x3e985718	0.29753947
254	0xbe5ae5d7	-0.2137674
255	0x3ed72bd3	0.42025623

linear2.bias f4 [3]
0	0x3e514256	0.20435461
1	0x3dc1fe7d	0.09472368
2	0xbc115d4e	-0.008872343
