model_hybrid/checkpoint_20251029_195516_score1.pth (torch, 21281 bytes, 4 tensors)

linear1.weight f4 [256, 14]
000000 a5 16 0a 3e a3 ce eb bd b1 6d 05 3e 82 79 99 3d
       0.134852 -0.11514022 0.13030125 0.07493879
000010 ac 8a 22 be 98 0c 6f 3e 2e ea 64 be d6 ca 04 3e
       -0.15873212 0.23344648 -0.22354957 0.12968001
000020 fd f0 71 3e b5 61 75 3d 5d d8 88 3d 24 0e c8 3d
       0.23627086 0.059907634 0.06681893 0.09768322
000030 73 0b bc 3d ea fb 1a 3d 6c 0c 4a 3d b0 11 1f 3e
       0.09181871 0.0378379 0.049328253 0.15534091
000040 14 4d 83 be c2 1d c0 3d 49 4b 0b 3e 92 1d a6 bd
       -0.25644743 0.09380676 0.13602938 -0.08111109
000050 d3 55 2a be ec 06 36 bc dd 5d 09 3e 1f 12 e7 3c
       -0.16634302 -0.011110049 0.13414712 0.028206883
000060 bb 4d 62 be bd cb f7 3d 8e 6f 49 3e 0f 6a 3c 3e
       -0.22099964 0.12099407 0.19671461 0.18399833
000070 b0 4c 46 3d c0 85 b5 3b 29 11 8f bd e8 d5 32 3e
       0.04841298 0.005539626 -0.06985695 0.17464411
000080 5d 19 07 3d 89 02 77 be 2d 4a 8d 3e a6 1e a5 bd
       0.032983173 -0.24122061 0.27595654 -0.08062486
000090 de 90 25 be 6d 06 86 be 15 af 63 3e b9 90 ca 3d
       -0.16168544 -0.26176777 0.22234757 0.09890885
0000a0 04 9a 9d 3c c0 13 f4 bd c8 de 3a 3e cc e2 a5 3d
       0.01923848 -0.119178295 0.18249047 0.08099899
0000b0 c8 80 a0 3d 7c f2 57 bd d5 86 2b 3e b8 c7 d1 bc
       0.07837063 -0.052721485 0.16750653 -0.025607929
0000c0 2c 9c 72 bd 08 04 76 3d da f5 82 3e dd 5d c7 bc
       -0.05923097 0.06006244 0.25578195 -0.02433675
0000d0 9f 7a 93 be f4 0b 5b be 6e ad 1b bc 2e c0 21 3e
       -0.2880449 -0.21391279 -0.009501798 0.15795967
0000e0 fc d7 22 bc 92 d6 2a bc 75 ca 92 3c f0 41 85 bc
       -0.00993919 -0.010427134 0.017918805 -0.016266793
0000f0 52 2b 73 bd bd 11 16 be 0b f0 8c 3e 05 dd f9 bd
       -0.059367485 -0.14655204 0.27526888 -0.12200359
000100 81 fd 34 be 76 f4 e7 bc 0c ba 00 3e 79 09 4d 3d
       -0.17674829 -0.02831481 0.12570971 0.050057862
000110 76 e6 b4 3d 06 37 f9 bd 65 44 87 be 22 e2 f6 bd
       0.088330194 -0.12168698 -0.26419368 -0.1205485
000120 3a 69 37 3e 5b f6 bd 3d e4 06 94 3d 5b 55 61 be
       0.17911234 0.09275504 0.07227877 -0.22005217
000130 43 23 f0 bd fa 29 15 be cc 14 ac 3d 0e 56 08 be
       -0.11725476 -0.14566794 0.08402404 -0.13314077
000140 e5 7f 61 3d d6 2b 66 3e db 86 23 3e 65 20 04 be
       0.05505361 0.2247766 0.15969412 -0.12902983
000150 31 5b 63 3e fe e3 00 be e9 fb 7b bd 88 a0 63 3e
       0.22202756 -0.12586972 -0.061519537 0.22229207
000160 7b 0f 82 3e b8 cc 02 bd d0 d5 ff 3d 42 1e 83 be
       0.25402436 -0.031933516 0.124919534 -0.25609022
000170 41 b0 15 3e 0b 79 8a be 66 2f 0f 3e db ce 38 3e
       0.14618017 -0.27045473 0.13982925 0.18047659
000180 ce 9f a2 bd 53 fd 11 3e 70 ca da 3c 9f 97 3b be
       -0.079406366 0.14256792 0.026707858 -0.18319558
000190 0e ae 22 be bb 2b 26 be 86 75 41 bd f1 58 63 3e
       -0.15886709 -0.1622762 -0.04723122 0.22201897
0001a0 4f ef 28 be 29 8e 7f bd 70 95 13 3e 8b 52 0f 3e
       -0.16497539 -0.062391434 0.14412475 0.13996331
0001b0 c2 34 76 3e aa 2d 10 3e 65 f1 1d be 1b 82 e9 bd
       0.24043563 0.1407992 -0.15424116 -0.11401769
0001c0 58 16 83 be 5f 31 22 be c1 a7 18 3e 4e 1a 5d be
       -0.25602984 -0.15839146 0.14907743 -0.21592066
0001d0 d9 9b 6f 3e e0 af 52 3e 07 2d 16 bd a5 26 80 3e
       0.23399295 0.20574903 -0.036664035 0.25029483
0001e0 27 20 44 be ea 9d 68 be 05 10 51 3e e5 2c 25 be
       -0.1915289 -0.2271649 0.20416267 -0.16130407
0001f0 f0 1b 70 3e 0e 1c ff bc c6 95 a6 bd d4 50 a9 bd
       0.23448157 -0.031141307 -0.08134036 -0.0826737
000200 40 de 88 3e 64 ef 44 3e 74 e0 57 3d a5 d9 60 3e
       0.26732063 0.19231945 0.05270429 0.21958025
000210 e6 c0 b0 bd ba 6d be 3c b2 1c ac 3d ec b3 bb 3c
       -0.086305425 0.023245681 0.08403911 0.022912942
000220 11 00 41 be 7b ee 56 be 55 58 f1 3b 0f a6 89 3e
       -0.18847682 -0.2098941 0.0073652663 0.26884505
000230 d9 76 05 be af a9 4a be a8 50 5f be 1c b2 95 3d
       -0.13033618 -0.19791292 -0.21808112 0.07309362
000240 41 84 a1 bd fe c8 71 3e 09 19 1d be fb 43 71 bd
       -0.078865536 0.23611829 -0.15341581 -0.05890272
000250 0b 93 56 3d cc ef 13 be f8 10 7e 3e 1d a5 3f bd
       0.052386325 -0.14446944 0.2481116 -0.046788324
000260 7e 29 9d bd d6 1f 2d be 3a c1 50 3e 1b c1 95 3d
       -0.0767393 -0.16906676 0.2038621 0.073122226
000270 d2 c2 42 be 26 74 08 3e 63 16 bc 3d 62 70 08 bd
       -0.1901963 0.13325557 0.091839574 -0.0333103
000280 0e 5a 9d ba 2d 7b b8 bd 8d 82 a4 3d de ca 23 3e
       -0.0012004988 -0.09007869 0.08032713 0.15995356
000290 97 b8 80 3e c7 6f 49 3e 5e a7 65 3e 07 6d ca 3d
       0.2514083 0.19671546 0.22427127 0.098840766
0002a0 3b ba b9 3c aa 32 3f 3c 68 f9 91 bd 75 82 34 bc
       0.02267181 0.011669794 -0.071276486 -0.0110174315
0002b0 c9 8c 73 3d 10 f9 c2 bd a8 d8 f4 3a fb 24 30 3e
       0.059460435 -0.09520161 0.0018680291 0.17201607
0002c0 c7 c6 3a be cf ae 20 be c9 b6 02 3e 86 75 72 3e
       -0.1823989 -0.15691684 0.1276504 0.23677644
0002d0 80 94 c8 3d 14 3d 16 3e fd 71 52 be 25 92 20 3d
       0.09793949 0.14671737 -0.20551296 0.039201874
0002e0 49 dd 74 3e 61 d0 a6 bd aa 73 9a 3d eb 11 8e 3e
       0.23912539 -0.08145214 0.075415924 0.27748045
0002f0 3b bf 2a 3e e7 c8 44 3e 9e 29 1a 3e ea 78 aa 3d
       0.16674511 0.19217263 0.15054938 0.08323844
000300 bb 47 82 3e f5 7e 35 be 96 df 5f 3e 9e af 69 3e
       0.2544535 -0.17724212 0.21862635 0.22820899
000310 83 38 53 3e 00 3c 7a 3c 8a 0c 87 bb a6 e0 99 3d
       0.20627026 0.015273094 -0.004121368 0.075135514
000320 27 89 94 3e cb 33 0b be 01 dc c8 bd 89 a3 1b 3e
       0.2901089 -0.13593976 -0.098075874 0.15199102
000330 92 f6 38 be 08 93 3c bd 09 db f8 bd a2 b8 2b 3e
       -0.18062809 -0.046038657 -0.12151153 0.1676965
000340 13 81 1f be ea df f7 3d ba 9f 6e be 25 93 27 3e
       -0.15576582 0.12103255 -0.23303118 0.16364725
000350 8d 71 31 3e b0 c3 23 3e 7c b5 f4 bc 34 0f dd 3d
       0.17328472 0.15992618 -0.029871695 0.107939154
000360 fc 93 2d 3c 42 07 03 be 70 38 87 ba b2 f7 54 3e
       0.010594364 -0.12795737 -0.0010316502 0.20797613
000370 88 30 7a be d0 5f cc 3d 7e b6 42 bd fb 8e 44 3c
       -0.24432576 0.09979212 -0.04753732 0.01199698
000380 5d dc 69 be b0 ab 4a bd 64 92 3e 3e fc a6 d7 bd
       -0.22837968 -0.04948014 0.18610531 -0.105298966
000390 2e c0 82 be cc 07 65 3e 5c 4f 67 3e ac 12 23 be
       -0.25537246 0.22366256 0.22588867 -0.15925092
0003a0 f0 74 a5 bc 1c fc 13 be 08 fd 3e be 57 22 95 bd
       -0.020197362 -0.14451641 -0.18651211 -0.072819404
0003b0 d9 1e c4 3d f1 cf 1f 3e 58 df 8f bd dc 30 00 3e
       0.09576196 0.15606667 -0.07025021 0.12518638
0003c0 d7 ad e9 bd 41 f6 62 bc d4 03 f7 3d 72 75 c7 bd
       -0.114101104 -0.013852657 0.12061277 -0.09739198
0003d0 5c ba c5 bd 0d 15 73 3e 5a 58 3d 3d a4 db 40 bd
       -0.09654686 0.23738499 0.046226837 -0.047084466
0003e0 f2 9d 85 3e dd 35 87 3b c5 68 03 bb ab e4 83 3e
       0.26097065 0.004126294 -0.0020051461 0.25760397
0003f0 ae 92 a5 3d d6 19 47 be 2e b2 81 3e 9e e5 1b 3e
       0.080846176 -0.1944345 0.25331253 0.15224311

linear1.bias f4 [256]
000000 a6 ca 7c be 45 e8 58 3e f5 c7 c8 bd c8 35 2c be
       -0.24686679 0.21182354 -0.09803764 -0.16817391
000010 89 99 81 3e 0a 51 20 3e 11 4c 5a 3e a4 f6 c4 bd
       0.2531245 0.15655914 0.2131808 -0.096173555
000020 e7 22 8f 3c f5 5c 54 be 56 72 47 3e a9 8d c7 3d
       0.017472697 -0.20738585 0.1947721 0.097438164
000030 2e a4 57 3e 7a 19 8b be 01 e2 78 be bf 2b 24 bc
       0.21058723 -0.27167875 -0.24304964 -0.0100201955
000040 37 40 bf 3c 16 54 ac 3d c9 a7 34 3d cb 97 65 be
       0.02334605 0.084144756 0.044105325 -0.22421186
000050 a8 d5 1b be c0 b9 e5 3d 02 4d 6b be bd cd 97 3c
       -0.15218222 0.112170696 -0.22978595 0.01853072
000060 91 95 dd 3d 39 0f 30 be 8e 7d 9c bd b2 ea 0f be
       0.10819543 -0.17193307 -0.07641135 -0.14054373
000070 cd ee 3c be ef 7d ef bd 5a 20 e2 bd 35 19 61 be
       -0.1845047 -0.11693942 -0.11041327 -0.21982272
000080 f7 88 bc bd c6 62 76 bd 10 88 e2 bd d0 2d 16 be
       -0.092058115 -0.06015279 -0.11061108 -0.14665914
000090 b2 b0 5b 3d 73 16 cb 3c 8a cc 7e be 6b ca 37 3e
       0.053635307 0.024790978 -0.24882713 0.1794831
0000a0 fd c6 5f bd 12 e9 90 3d 59 92 83 3e 30 aa 1f 3e
       -0.05463313 0.07075705 0.25697592 0.15592265
0000b0 9d 54 70 be 31 37 86 3d 9a 23 40 3e 78 fd 7b 3e
       -0.23469777 0.06553496 0.18763581 0.2460841
0000c0 a6 6a 4b be 9f 8b 56 3e 7f 05 9e bd 37 3c 17 3d
       -0.19864902 0.20951699 -0.07715892 0.03692266
0000d0 c3 e3 85 be 5c 96 85 be ab 39 2e 3e 56 e7 6e bd
       -0.2615033 -0.26091278 0.17014186 -0.058326088
0000e0 cf c0 fc 3d 36 29 42 be a1 e9 b2 3d 58 db 61 3e
       0.12341463 -0.18961033 0.087359674 0.22056329
0000f0 47 15 80 be 85 3f 57 bb 57 f4 11 be e4 9b 7c be
       -0.25016233 -0.0032844257 -0.14253365 -0.24668843
000100 e8 47 ec bd 67 5e 8e bd d9 c1 aa bc 24 21 fe bc
       -0.115371525 -0.069515996 -0.020844387 -0.031021662
000110 d4 cd 92 bd 1d a1 51 3e d9 2a 42 3d 1c 64 a6 bd
       -0.07168165 0.20471616 0.047404144 -0.08124563
000120 4f 26 71 be 23 b3 fc 3d de 86 76 bd a4 8d 58 be
       -0.2354977 0.12338855 -0.060187213 -0.21147782
000130 87 8d 95 3d 94 aa 9a 3d 86 f9 4c 3e 59 ba 22 3e
       0.07302385 0.075520664 0.2001706 0.15891398
000140 c5 63 9d bd 2f d3 a9 3d 35 b2 69 bc fd f5 16 be
       -0.07685045 0.08292233 -0.014263679 -0.14742275
000150 e0 37 29 3e 48 f5 48 be dd 87 6c be ca d3 0f 3d
       0.16525221 -0.19624817 -0.23098703 0.035114087
000160 4b a7 7f 3e 53 21 08 be c8 08 12 bd ba 65 21 be
       0.24966161 -0.13293962 -0.035652906 -0.15761462
000170 93 df 6b be 3d 17 88 3e ce 73 1f 3e 60 7b 89 bd
       -0.23034506 0.2658023 0.1557152 -0.06712985
000180 cc 78 75 be 5c 95 44 3e 55 01 45 be 81 dc 0c 3e
       -0.23971862 0.19197601 -0.1923879 0.1375599
000190 98 c3 17 3e 0d d2 05 3d 42 31 83 3d b3 02 13 be
       0.14820707 0.032671023 0.064058796 -0.14356498
0001a0 66 d4 1a 3d e3 03 e3 bd 9a 51 f3 bd 6e 93 8a 3e
       0.037800215 -0.11084726 -0.11880799 0.27065605
0001b0 e5 4b 8e be e8 88 6c be 22 2c 96 bd 8a 21 8b bd
       -0.27792278 -0.230991 -0.073326364 -0.067935064
0001c0 78 d7 37 3e 70 73 7d 3d c9 c0 69 be 91 96 b7 bd
       0.17953289 0.061877668 -0.22827448 -0.08964265
0001d0 43 99 5d 3e b5 fc 4a 3e f9 f2 07 3e 26 ca 04 3e
       0.21640496 0.19822963 0.1327628 0.12967739
0001e0 0a 18 37 be a3 05 7a 3e 63 45 15 3e 31 5d 49 bd
       -0.17880264 0.24416213 0.1457725 -0.04916114
0001f0 58 9d 2b be 6c 35 b5 bd 9d e1 c6 bb c8 7a c8 bd
       -0.1675924 -0.0884808 -0.0060693757 -0.09789044
000200 aa 4e ea 3c 65 17 5e 3e 04 3d bb 3d a0 6d 41 bd
       0.028601963 0.21688612 0.09142497 -0.047223687
000210 d0 e9 60 be c7 f2 56 3e 4e 9b ef bd 24 9d 8a be
       -0.21964192 0.2099105 -0.11699544 -0.27073014
000220 10 3c 98 3c d8 60 fe bd cd 6d 14 3e 1c a3 cc bd
       0.018583328 -0.12420815 0.1449501 -0.09992048
000230 bf 2f 36 be f5 75 11 be 8b 1b 59 be af 53 11 3d
       -0.17791651 -0.14205153 -0.21201913 0.035480198
000240 66 9a 83 bc 7d f9 28 3e 96 9c 91 bd f4 6c e1 bd
       -0.016064834 0.16501422 -0.071099445 -0.11007109
000250 18 63 ca 3c a3 b9 77 bd 40 6d 7e 3c de 42 22 3c
       0.024705455 -0.06047977 0.015528977 0.009903638
000260 bf a4 e8 3c f1 40 21 3d ba 96 31 3e 9a c6 b3 3c
       0.02839887 0.039368574 0.17342654 0.021945287
000270 d0 e7 10 3e 80 32 36 3d ac 79 fd bd 98 fd 82 ba
       0.1415093 0.044481754 -0.12376723 -0.000999379
000280 3e ce 06 3e 08 2f 07 be 78 f0 1d 3d 9b 4a 6c 3e
       0.13164613 -0.13201535 0.038559407 0.23075335
000290 6e d8 69 bc 1a b9 4c be de 01 f2 3d e7 b1 07 3e
       -0.014272792 -0.19992486 0.118167624 0.13251458
0002a0 66 18 7d 3e ec 2d 77 3d 25 34 5d 3d 51 5a 8b 3e
       0.24716339 0.06034653 0.054004807 0.27217343
0002b0 9e 78 d9 bd 8c e8 5f be 09 78 1d be 1d 35 96 bd
       -0.10618709 -0.21866053 -0.15377821 -0.07334349
0002c0 a5 fd df bd 66 cc 43 be df 37 16 bc 7e c9 79 be
       -0.10937051 -0.1912094 -0.009168594 -0.2439327
0002d0 53 54 5a 3e 0c 99 fd bd 89 26 7f bd da 5a d9 3d
       0.2132123 -0.12382707 -0.06229261 0.10613032
0002e0 9f a5 0f be 9a d2 73 be 24 20 0c bd 0c e9 ca bd
       -0.14028023 -0.23810807 -0.03421034 -0.099077314
0002f0 83 a1 b1 3d e8 58 70 3e 3c 4d c6 3d ec f0 ae 3d
       0.08673384 0.23471415 0.096827 0.08542046
000300 65 a2 70 be 59 08 bb bc 6d 30 17 bd 2d 75 ec bd
       -0.23499449 -0.022831129 -0.036911417 -0.11545787
000310 77 f4 5a 3e 83 6a 5c be b6 4a 34 3e 30 3b 15 3e
       0.21382318 -0.21525006 0.17606625 0.1457336
000320 04 76 85 3e d0 ea 95 bd 6f 39 86 3d 00 7c 97 ba
       0.260666 -0.073201776 0.06553923 -0.0011557341
000330 ec e3 cd bd e7 4f 77 3e a6 b2 7d 3e ff 92 b5 3c
       -0.10053238 0.24151574 0.2477518 0.02216482
000340 ed 52 4b be 75 0d af 3d a1 df b5 3d e8 f8 64 bd
       -0.19855852 0.085474886 0.088805445 -0.055901438
000350 32 d7 83 3e 84 bb 60 be c4 05 af 3d 1e 27 85 be
       0.25750118 -0.21946532 0.085460216 -0.26006407
000360 74 b1 5f 3e 57 84 60 3e 5f cf 69 bd 42 50 2b 3e
       0.21845037 0.21925484 -0.05708253 0.16729835
000370 99 c7 f4 3d 90 d3 c1 bc d7 9a c6 3d ce 1b ed bc
       0.11952133 -0.023660451 0.09697502 -0.028943922
000380 02 82 23 be 2d e0 4f be f5 40 4e be 1d f1 85 3e
       -0.15967563 -0.2030036 -0.20141967 0.26160517
000390 23 48 1b bd aa 30 25 3e 6f e4 a5 bd f9 1d 08 3e
       -0.03791059 0.16131845 -0.08100211 0.13292684
0003a0 62 a2 83 bc 95 0b 37 3e 67 34 ee 3d ff 1a 60 3d
       -0.016068641 0.17875512 0.11631089 0.054713245
0003b0 32 10 83 be 98 ed 54 3e d7 a4 5c 3e 8c a7 01 3e
       -0.25598294 0.2079376 0.21547256 0.1266157
0003c0 93 28 68 3d b9 39 bb 3d 41 73 06 be d3 67 f0 bd
       0.05667932 0.09141869 -0.13129903 -0.11738553
0003d0 b5 94 a3 bd a8 5b 86 3e 1e 7d 1a be 1d 01 80 3e
       -0.07987348 0.26241803 -0.15086791 0.2500085
0003e0 21 80 1f be 60 75 8c bd 53 59 de bd d7 7c 16 bd
       -0.15576221 -0.06858325 -0.10856881 -0.03674015
0003f0 43 66 a3 bd e1 c5 be bd 48 ff 86 3e b1 fe 24 be
       -0.07978489 -0.09315086 0.2636664 -0.16112782

linear2.weight f4 [3, 256]
000000 18 dd 43 3d 75 40 62 bd 67 12 c3 3c 8b f9 44 bc
       0.047818273 -0.055237252 0.023812486 -0.012022386
000010 ec f2 72 bd fe 11 5b bd af f4 e8 3c c1 d2 77 3c
       -0.0593137 -0.053483956 0.028436987 0.015125931
000020 ae f8 7f bc d2 83 cf bc ed 32 6a 3c 5a 1d 7d bd
       -0.015623255 -0.025331412 0.014294368 -0.06179557
000030 19 6e 18 bd 4b 59 ee 3b 76 5b 83 bd ad 2d 6c 3c
       -0.037214372 0.007273828 -0.06413929 0.014415187
000040 01 72 fe bc 2b 6e 07 bd 1c 1d 42 3d 94 99 94 3c
       -0.03106022 -0.03306405 0.047391042 0.018139638
000050 f3 23 77 3d 4c 50 22 3d 85 30 38 3d e8 f2 56 bc
       0.06033702 0.03962736 0.044968147 -0.013119437
000060 cf 46 dc bc 08 14 01 3d 14 02 10 3d a7 7d b9 3c
       -0.026889233 0.031513244 0.03515823 0.022642924
000070 f2 da fc bc 8c 15 34 3d 2c 93 f1 3c a3 66 ba bb
       -0.03086612 0.04396586 0.029489122 -0.005688505
000080 1f 4b 3f 3d ee ba 65 bd 3a 6d 51 3d 26 61 2e bc
       0.0467025 -0.056086473 0.051129557 -0.010643279
000090 1f 79 d5 ba 1b f6 1e bd 0c d0 99 bc da 2f c8 bc
       -0.0016286707 -0.038808923 -0.018775962 -0.02443688
0000a0 75 cb 7b bd 15 75 49 3d c9 eb 36 bc 4a a4 24 bd
       -0.06147333 0.049183924 -0.011164614 -0.04019574
0000b0 2c 36 e1 bc 52 2c 4e 3d 4d bd 35 3d b8 a3 75 3d
       -0.027491651 0.050335236 0.044369984 0.059970587
0000c0 80 2a 4c 3c 42 ad fa 3c 64 43 6b 3d 7d 9d 64 bd
       0.012461305 0.030600194 0.057437316 -0.055814255
0000d0 e6 20 79 3d 10 15 c2 bc 7b ca 63 3d 5c fd 8e 3d
       0.06082239 -0.023691684 0.055613022 0.06981918
0000e0 df 82 32 bd fc 92 6e bd 35 c7 32 bd 9f 12 2f bd
       -0.04358184 -0.058245644 -0.04364701 -0.042742368
0000f0 1a 04 af 3c a9 3d 3e bd cc b9 68 3d 68 e4 0a 3d
       0.02136426 -0.046445522 0.056817815 0.03390923
000100 17 42 4f ba 94 ea 26 3d bf 08 2f 3c dc 68 32 bd
       -0.00079062715 0.040751055 0.010683238 -0.043557033
000110 8b ff d7 bc df 80 8b 3c f6 12 55 bd 48 70 5b bc
       -0.02636697 0.017029224 -0.052020036 -0.013393469
000120 4a 44 e6 bb 0f c6 84 bd 40 07 8f bd 26 08 4b 3d
       -0.0070271837 -0.06483089 -0.06983805 0.049568318
000130 2b 4b 1c 3c 28 81 14 3d c1 5a d8 bc 5b 00 96 39
       0.009539406 0.036255985 -0.026410462 0.00028610494
000140 af a3 5c 3d 10 ba d2 bc 4e 03 60 3c ef fd 80 3c
       0.05386704 -0.025723487 0.013672663 0.015746085
000150 72 9e e0 bc 88 c5 57 3d 50 53 5e 3c 99 82 4e 3d
       -0.027419303 0.052678615 0.013569668 0.050417516
000160 76 ad 31 bd c5 cd ec bc b3 17 a5 bc 26 d8 4a bd
       -0.043378316 -0.028906712 -0.020152902 -0.04952254
000170 1a 1f 6a bd da a8 9f 3c 3f 7c 6a bd 04 eb 91 3a
       -0.057158567 0.019489694 -0.057247397 0.0011132662
000180 ab 60 4b 3d 6c 77 2c 3b 5f 1c 0b bd 52 29 a8 3c
       0.049652737 0.0026316298 -0.033962604 0.020527516
000190 56 c8 d9 3c 85 7c fa 3b 5e 33 35 bc 29 2e b0 bc
       0.026584785 0.0076442384 -0.01105961 -0.021506386
0001a0 7c 1c 32 bd 88 d8 71 bd 3b dd 4f 3d 42 9c 2d bd
       -0.043484196 -0.05904439 0.05074809 -0.042385347
0001b0 00 8d 00 3b 02 59 8a 3c 6a 90 63 3d f6 8b a8 bb
       0.0019615293 0.016888145 0.055557646 -0.005143638
0001c0 a4 d7 03 bd 4e 42 52 bc 34 8f 08 bd 6d c0 2a bd
       -0.032188073 -0.012833191 -0.033339694 -0.041687418
0001d0 52 35 41 3d ce 47 d5 bc 50 0c 9b bc 60 03 44 3c
       0.04716999 -0.026035216 -0.01892677 0.011963695
0001e0 4e ea 17 bd 59 48 0e bd ac 50 40 3d 32 af ef 3c
       -0.037088685 -0.034736965 0.046951935 0.029258344
0001f0 1f e6 2e 3d 3d ab 4a bd f6 54 1b bd 18 04 6c bd
       0.04269993 -0.04947971 -0.037922822 -0.05762109
000200 a4 5a 22 b9 9a 13 a6 bb 51 96 b0 3c b8 21 2f 3d
       -0.0001548329 -0.0050682547 0.021556051 0.042756766
000210 2d 18 61 bb 34 dd 80 bd 5b 54 ab bc 78 f5 2c 3c
       -0.0034346685 -0.06292191 -0.020914247 0.010556571
000220 b2 b7 44 3d ee b0 2b 3b f5 c5 5d bc e7 9c 04 3c
       0.048026748 0.0026197988 -0.013535966 0.008094049
000230 5b 8b 7b 3d 32 bd 99 bc f6 aa 20 bc a2 2b bb 3c
       0.061412197 -0.018766973 -0.009806385 0.022847954
000240 75 7b 40 3d df 5e 7c bb af f9 e6 bc e8 ce 1a 3d
       0.046992738 -0.0038508696 -0.02819523 0.037794977
000250 50 a3 19 bc c3 23 52 3c 34 99 a2 3c 2b a9 a0 bc
       -0.009377316 0.012825909 0.019848444 -0.019611916
000260 99 ff 1b 3d 19 d0 ea 3b 89 68 19 3d 51 92 32 3d
       0.038085554 0.0071659205 0.037453208 0.04359657
000270 94 d0 c8 bb 28 26 ee ba ea 1b 2c 3d 83 dc 2a 3d
       -0.00612838 -0.001816933 0.04201881 0.041714203
000280 97 5a f8 bc 60 58 66 bb 90 4c 2c bc 5a ba fe 3b
       -0.030316634 -0.003514789 -0.010516301 0.0077736797
000290 e7 f6 d5 3c 98 d6 7c 3d d9 29 35 3d e7 f0 eb 3c
       0.026118709 0.06172809 0.044229362 0.028801395
0002a0 8d 86 2d bd a3 7d bd bb 23 ef 4b ba 7c 16 d1 bc
       -0.042364646 -0.0057827993 -0.00077794696 -0.025523417
0002b0 bc 7c ec 3c 64 a1 e0 3c 2c 36 82 3d a8 83 6c bd
       0.028868072 0.027420707 0.06357989 -0.057742745
0002c0 7f 41 f1 3b 84 d7 e6 ba 0f 17 4b 3d 8a c1 15 3d
       0.007362544 -0.0017611836 0.049582537 0.036561526
0002d0 0b 57 32 bd dd 04 7d 3c f9 a6 b9 bc b9 24 37 3d
       -0.043540042 0.015443054 -0.022662627 0.044712756
0002e0 1e b2 c2 bc 63 a3 12 3c 9a 4f 5b 3d ef 64 50 3d
       -0.023766574 0.008950087 0.05354271 0.050877508
0002f0 72 b9 f0 bb 0e 8b f8 bc c4 8e 03 bd 04 cd 11 3c
       -0.0073463256 -0.030339744 -0.032118574 0.008898977
000300 3c 98 e6 bc b0 c5 a7 bd a7 71 76 bc eb a0 fb 3c
       -0.028148763 -0.08192003 -0.015041745 0.03071638
000310 0d 5b 39 3d 74 46 7e bd eb df 46 3d aa bf 75 3b
       0.04525285 -0.062078908 0.04855339 0.0037498274
000320 c3 55 4e bc 6d 13 12 bd 98 4e 4d bc 9e de 13 3d
       -0.012593689 -0.035663057 -0.012530945 0.036100976
000330 b1 53 7c 3c 5c f8 fd 3b 37 c1 af bc 7d 86 ae bc
       0.015400813 0.007750554 -0.021454437 -0.021304363
000340 d2 da 0e bc f5 a4 ec 3c e0 9b e1 bc 01 1c 20 3d
       -0.008719163 0.028887251 -0.027540147 0.039089207
000350 b4 03 a2 bc 68 32 c9 bc 86 b2 ec bc 2d af da bc
       -0.019777156 -0.024560168 -0.02889372 -0.026694858
000360 f3 40 d3 3c 71 73 59 bd 0f ef 7a bd f5 66 17 3d
       0.025787806 -0.05308861 -0.06126314 0.03696342
000370 4f 26 df 3c bb 9e f2 3a f9 58 2b 3d 54 be 50 bd
       0.027239947 0.001851044 0.041832898 -0.05096276
000380 25 c2 50 bd e2 27 31 3d ba 15 3a 3d 88 c1 2c bc
       -0.0509664 0.043250926 0.045430876 -0.010544188
000390 80 63 52 3c e8 96 55 bd eb 75 26 bc e3 27 03 bd
       0.012841105 -0.05214587 -0.01015995 -0.03202046
0003a0 02 4d 3d bd 56 ba 0f bc 64 57 cc 3c 1f f4 61 3d
       -0.04621602 -0.008772453 0.024944015 0.055164453
0003b0 18 aa 31 bd 8d 31 f6 3b d5 ee 39 bd 2d d8 d3 3c
       -0.043375105 0.007513231 -0.045393784 0.025859917
0003c0 b1 86 2e bd 96 b5 d1 3c 3c b2 52 3d b4 ac eb 3a
       -0.04260892 0.025599282 0.05143951 0.0017980547
0003d0 95 f3 0d 3b 75 09 93 bc 1b 2e cb 3c a1 69 66 bd
       0.0021660079 -0.017948845 0.024802258 -0.05625308
0003e0 06 e2 09 bd 52 a2 19 3d dc 24 02 3d de 6a d3 bc
       -0.03366282 0.037508316 0.031773433 -0.025807794
0003f0 03 31 88 3d 2f e9 0e 3d 09 98 54 bd 49 7f 1c bd
       0.06649973 0.03489035 -0.051902805 -0.038207326

linear2.bias f4 [3]
000000 f1 9f ae bc e3 2b 18 3c a6 a6 84 bd
       -0.0213165 0.009287807 -0.06477098
