model_hybrid/checkpoint_20251029_195850_score11.pth (torch, 21291 bytes, 4 tensors)

linear1.weight f4 [256, 14]
000000 11 b4 b3 3d 5c 8e 73 be a2 b6 ad 3e ca 00 ca 3d
       0.08774579 -0.23784775 0.339284 0.09863432
000010 17 f0 1a bc 64 12 7b 3e fa b2 ce be da 5e 94 bd
       -0.009456656 0.24518734 -0.40370923 -0.07244654
000020 7a 52 b8 3e 7a 3c 00 3d 8a 3f 71 bb 1d d2 e6 3d
       0.36000425 0.031307675 -0.0036811554 0.11270545
000030 b8 79 1a 3e bf fe d8 3c 8b 34 4d 3e fb 54 dd 3e
       0.15085495 0.02648866 0.20039575 0.43228897
000040 d8 4c 92 be fd 7d 2b 3d 8d 41 0a 3e b2 19 ef bd
       -0.28574252 0.0418682 0.13501568 -0.11674823
000050 5d 2a aa bd e4 ee 3b 3d a7 d5 c3 3d 3f 29 be 3d
       -0.083088614 0.04588212 0.09562235 0.09285211
000060 3d dd 13 be 34 38 f8 3d 66 93 47 3e e9 62 e1 3d
       -0.14439864 0.12120095 0.19489822 0.11005194
000070 d5 82 bf bd 66 ea 83 3e 74 7e 61 be 2b 50 d7 3e
       -0.09351126 0.2576477 -0.22020894 0.4205335
000080 9c fa 84 be d1 8f 7a be a4 be ac 3e df bb 16 be
       -0.2597245 -0.24468924 0.33739197 -0.14720105
000090 79 63 c9 bc 70 dc c1 be a6 d2 68 3e d8 4c 15 3e
       -0.024583565 -0.37863493 0.22736606 0.14580095
0000a0 18 55 04 3e 8e 5b 0c be 55 9b 81 3c bd b0 a3 3e
       0.12923086 -0.137068 0.015821138 0.31970778
0000b0 15 3c 90 3c 4b dc 92 be 94 85 b5 3e a6 95 f9 bd
       0.017606774 -0.28683695 0.35453475 -0.12186746
0000c0 19 70 03 be e7 fd 96 3d ce 67 7c 3e b2 a8 80 bc
       -0.1283573 0.07372647 0.24648973 -0.01570544
0000d0 f5 cf 89 be 6c 86 21 be b2 fc 9f 3c 62 cd 37 3e
       -0.2691647 -0.15773934 0.019529674 0.17949441
0000e0 f2 e6 0f 3e 0b db 6e 3e 77 b8 93 bd 10 8d b6 3c
       0.14052942 0.23325746 -0.07212918 0.02228406
0000f0 48 b3 16 be d7 9e 3f be 82 38 9d 3e f9 93 8c be
       -0.14716828 -0.18712936 0.30707175 -0.27456644
000100 b8 04 da bd 10 a6 75 38 4c e6 b5 3d 17 c2 ff 3c
       -0.10645431 5.856721e-05 0.08881816 0.031220479
000110 9c 2e a7 3d bf 91 67 be eb ad 75 be 7f 4a 51 3d
       0.08163187 -0.22614191 -0.23992126 0.051096436
000120 03 3b 54 3e 25 41 2b bd 29 f8 f8 bd 48 c2 8f be
       0.20725636 -0.041810174 -0.12156708 -0.28077912
000130 9f ac 9d 3d f8 83 5e be 9f 7a d1 3c 99 49 fc bd
       0.076989405 -0.2173003 0.025571166 -0.12318725
000140 ff a8 ff 3c 70 f4 03 3e 57 27 11 3e 1a 59 a6 be
       0.031208513 0.12886214 0.14175163 -0.32489854
000150 ed 78 18 3e 30 18 12 3e 3b 3e b3 bd 12 5e b4 3d
       0.1488988 0.1426704 -0.08752104 0.08807005
000160 0c ee 79 3e a8 4c 01 be 7b 6c 18 3e d2 9e 76 be
       0.24407214 -0.12626898 0.14885132 -0.24084023
000170 36 84 66 3c 99 0a 92 be fb cb 01 3e a2 d3 aa 3d
       0.0140696075 -0.2852371 0.12675469 0.08341147
000180 31 c1 f6 bd 19 37 2e 3b a7 b9 52 3e a8 d4 af be
       -0.12048567 0.0026583134 0.20578633 -0.3434193
000190 98 ac 71 bd ec 65 cd bd bb fa 1d 3d 90 e1 80 3e
       -0.05900249 -0.10029206 0.038569193 0.2517209
0001a0 83 82 8f be 17 98 49 3d 17 93 3d 3e cb 66 a4 bc
       -0.2802926 0.04921731 0.18513142 -0.020068547
0001b0 12 96 90 3e 29 ca 28 3e db 82 75 be a5 92 d0 bd
       0.28239495 0.16483368 -0.23975699 -0.1018422
0001c0 c6 b5 c2 bd 92 02 8c be ae 14 37 3e e6 99 9d be
       -0.09507327 -0.2734571 0.17878982 -0.30781478
0001d0 79 41 98 3e fe bb 8f 3e ef dd f0 bd be 33 c2 3e
       0.29737452 0.28073114 -0.117610805 0.379301
0001e0 c3 4b 78 be 9a 88 a1 be c0 87 99 3e db 7e 20 be
       -0.24247651 -0.3154953 0.29986382 -0.15673392
0001f0 c3 6b 20 3e 46 b2 95 bc 82 8c 74 bc 4b 39 2c be
       0.15666108 -0.018273484 -0.014926078 -0.1681873
000200 0e 75 f2 3e ec 88 a0 3e 63 83 f7 bc 37 55 cc 3e
       0.4735493 0.31354463 -0.030214017 0.39908764
000210 68 3b db be 4c 88 05 be 30 2c a2 3e 95 71 f0 bc
       -0.4281876 -0.13040274 0.31674337 -0.029351035
000220 08 10 ad be 8d b6 02 be be 79 58 3d 59 8b 8f 3e
       -0.33801293 -0.1276495 0.052850477 0.28036
000230 06 f3 fc 3c 6b 18 7f be ca 2d ad be b4 f6 cc bc
       0.030877601 -0.24911658 -0.33823997 -0.025019981
000240 04 52 70 3c 5b 4b a2 3e a6 e4 b5 be f0 1e 60 bd
       0.014667992 0.31698117 -0.35526007 -0.054717004
000250 aa c0 ea bb b4 1c 8d be 62 42 a0 3e b1 54 8d bd
       -0.0071640806 -0.2756096 0.31300646 -0.06900919
000260 8f c7 fd bd 65 9f ee bd 37 0d a1 3e 5f 3f 8e 3d
       -0.123915784 -0.11651496 0.31455395 0.06945681
000270 a2 cd 01 3d 27 bd 0b 3e 09 02 cd 3c c4 6f 76 bd
       0.031690247 0.13646375 0.025025385 -0.06016518
000280 95 b9 0f 3d e6 70 21 3c 16 42 82 3d 82 c6 4f 3e
       0.035089094 0.009853577 0.06360261 0.20290568
000290 b1 1e ae 3e d8 48 03 3e 6e f9 37 3e dc 16 c9 bc
       0.3400779 0.12820756 0.17966244 -0.024547033
0002a0 d3 8b cd 3d 7a 66 4c 3e 5a d5 1c 3e 00 96 b2 bc
       0.10036435 0.19960967 0.15315762 -0.021800041
0002b0 67 05 c9 3c df b3 9b bd 05 57 11 3d b7 8d 75 3e
       0.024538709 -0.07602667 0.03548338 0.23979841
0002c0 8a b1 4b be ad d4 db bd eb f3 4f 3e fb 22 24 3e
       -0.19891945 -0.10733924 0.20307891 0.16028969
0002d0 bd 32 85 3d 6d 7f cd bd d3 f3 ab be 46 82 e9 bd
       0.06503818 -0.1003407 -0.3358446 -0.11401801
0002e0 fa cb fb 3e 43 a2 c2 bd f5 8f 98 bc b3 1d 90 3e
       0.4917906 -0.09503605 -0.018623332 0.2814766
0002f0 63 d4 49 3e e3 4d 12 3e e5 32 c7 3d d2 4e 6c 3d
       0.19709925 0.14287524 0.09726504 0.057692356
000300 2a 5b 7d 3e 07 6a 47 be 84 92 0d 3e 79 5b 3c 3e
       0.24741808 -0.1947404 0.13825423 0.18394269
000310 14 44 99 3e 53 0c ad bd 30 e0 3e 3d 1a 2a f4 bd
       0.29934752 -0.08449616 0.04660052 -0.11922093
000320 95 a0 be 3e 46 24 1c be 66 b8 ce 3b 1e a1 32 3e
       0.3723189 -0.15248212 0.006308603 0.17444274
000330 e1 a1 af be ab cf 08 bd b6 c4 3a 3d f4 f5 11 3e
       -0.3430319 -0.033401173 0.045597754 0.1425398
000340 cc 8a 15 bd 73 fe b3 3d 73 40 cb be bf bc 0d 3f
       -0.03650932 0.08788767 -0.39697608 0.5536613
000350 c1 b9 9b 3e 18 06 91 3d 5e 6f 83 3d 0c 97 1b 3d
       0.30415156 0.070812404 0.06417726 0.037985846
000360 f4 84 54 bc 50 08 82 bc 19 b4 41 bc 89 6d 0e 3e
       -0.012971152 -0.015873104 -0.011822724 0.13908972
000370 8d 78 1c be f5 c8 d5 3d ec 11 75 bd e1 5d 8f bd
       -0.15280361 0.1043872 -0.059831545 -0.07000328
000380 13 30 4a be d1 2c f6 bd 68 9d 80 3e d6 57 0c be
       -0.19744901 -0.12020267 0.2512009 -0.13705382
000390 16 bc 5b be 94 85 4e 3e 78 06 87 3e 9a d0 98 3d
       -0.21458468 0.20168144 0.26372123 0.074616626
0003a0 08 72 b5 3d b3 99 8c be 32 81 77 be b8 ad f2 bd
       0.0885964 -0.27461013 -0.24170378 -0.118495405
0003b0 cd 16 69 3d 9f 0c f0 3d 86 e8 6e 3c 6a 47 be 3e
       0.05690651 0.11721157 0.014581805 0.3716386
0003c0 7c 32 19 3d 82 2d 28 bd 25 a1 81 3d 56 5f c2 bd
       0.03740166 -0.041059025 0.06329564 -0.0949084
0003d0 4e d2 8a bd dd 0d 91 3e 63 8a 02 3c dd a7 c0 3c
       -0.06778394 0.2833089 0.007967564 0.023517543
0003e0 6f 7e 97 3e 7c 0b 87 bd 82 7e 01 bc f3 8e 1b 3d
       0.2958865 -0.06593987 -0.007903697 0.037978124
0003f0 51 db 27 3c 49 ee 96 be a1 8f ef 3e e5 c1 0c 3e
       0.01024516 -0.29478672 0.46789268 0.1374584

linear1.bias f4 [256]
000000 c0 68 6d be a6 1e 59 3e dc 7d 51 bd 6c 60 e5 bd
       -0.2318449 0.21203098 -0.05114542 -0.11200032
000010 f3 e8 6f 3e 4e 67 78 3d 04 ce ed 3d d8 bd 93 bd
       0.23428707 0.060645394 0.1161156 -0.07213944
000020 ad 93 b4 3c 0b 25 00 be 20 b1 30 3e 63 ff ec 3c
       0.022043074 -0.12514131 0.17255068 0.028930372
000030 91 51 09 3e d4 0e 94 be 7a 52 89 be 9e c8 b1 bb
       0.13410021 -0.28917563 -0.26820737 -0.0054255268
000040 55 ed b6 bc 56 a9 66 3c 89 b2 c4 3c 73 47 3a be
       -0.022329966 0.014078459 0.024010913 -0.18191318
000050 a4 45 d5 bd 9a 97 92 3d f8 eb 9b be ad fe 93 bd
       -0.104136735 0.07157822 -0.30453467 -0.0722631
000060 49 24 ca 3d 09 f1 24 be b3 41 8a bd 8e ff 8a bd
       0.09870202 -0.16107573 -0.067508124 -0.067870244
000070 e4 20 4b be bc 40 12 be 5a 20 e2 bd f5 cb 00 be
       -0.19836766 -0.14282507 -0.11041327 -0.12577803
000080 a7 84 0f bc e7 2a f8 bd 2b 8b 6c bd 7f 2d c4 bd
       -0.008759654 -0.12117558 -0.05774991 -0.0957899
000090 6c e1 ee 3a 68 0f 8e 3d 84 94 9e be ef 74 ee 3d
       0.001822514 0.06936532 -0.30972683 0.11643397
0000a0 f8 6f c8 bd b0 4d 46 3d 2c 0a 3d 3e 2e ae ac 3d
       -0.09786981 0.048413932 0.18460912 0.0843166
0000b0 9d 54 70 be a5 fc 34 3e 04 e2 2b 3e ae 6b 60 3e
       -0.23469777 0.17674501 0.16785437 0.21916077
0000c0 3e db 8e be 59 f5 5a 3e 94 6a d6 bb c8 e2 94 bd
       -0.27901644 0.21382655 -0.006543467 -0.072698176
0000d0 f8 59 95 be de 4f 51 be d6 c5 2f 3e 95 84 3f bd
       -0.29170203 -0.20440623 0.17165312 -0.0467573
0000e0 6c 03 09 3e a1 61 78 be 71 73 ce 3d 3c 5d 79 3e
       0.13380212 -0.24255992 0.100806125 0.24351972
0000f0 b1 bc 59 be 2a 90 37 3c 8a 9e 23 be f9 b2 98 be
       -0.21263386 0.011203805 -0.15978447 -0.29824045
000100 ec 84 5a bd 8e ee 3b bd 79 86 6f 3c 0c 23 a8 bd
       -0.05334942 -0.0458818 0.014619463 -0.0820981
000110 1c 00 f5 bd 90 7a 42 3e e7 f6 ba ba 1c 64 a6 bd
       -0.119629115 0.18992066 -0.0014264256 -0.08124563
000120 50 b5 88 be 15 ab 4e 3d e0 e9 a8 bd a4 8d 58 be
       -0.2670083 0.050456125 -0.08247733 -0.21147782
000130 33 3d 0f 3d 2f f7 c0 3d d2 5b 07 3e 04 d5 25 3d
       0.034970473 0.094221465 0.1321862 0.04048635
000140 49 a1 fa bd 90 ed c6 3d d7 2c 8c 3c d9 25 40 be
       -0.12237794 0.0971328 0.017111225 -0.18764438
000150 6d a3 49 3e 2c ec 4a be 10 5f 73 be 44 e1 e7 3c
       0.19691248 -0.19816655 -0.23766732 0.028305657
000160 46 68 97 3e d2 a7 10 bd ab 70 f8 bc ba 65 21 be
       0.29571742 -0.035316296 -0.030327162 -0.15761462
000170 24 6f 31 be 2f 29 a6 3e 37 ac 1b 3e 85 24 83 bd
       -0.17327553 0.32453296 0.15202413 -0.0640345
000180 07 8f 16 be 79 67 3c 3e b6 1f 3a be 72 97 19 3e
       -0.14702998 0.18398847 -0.1817616 0.14999178
000190 e0 ce 00 3e de cf ac 3d 87 62 1e 3d d2 6e 3e be
       0.12578917 0.08438085 0.03866818 -0.18596962
0001a0 69 17 8a bc bc 0b eb bd b3 24 3b be 8a 89 ae 3e
       -0.016856866 -0.114768475 -0.18275718 0.3408931
0001b0 50 db 56 be fc c0 93 be 06 db 4d bd b6 ce 8a bd
       -0.20982099 -0.28858173 -0.050257705 -0.06777708
0001c0 d6 73 7c 3e dd f5 01 3e af d7 60 bd a5 44 96 bc
       0.24653563 0.12691446 -0.054893192 -0.01834328
0001d0 48 cf 6c 3e 09 7d 41 3e 3a de 2c 3e 1a a8 ee 3d
       0.23125947 0.18895353 0.16881648 0.116531566
0001e0 fe 55 13 be ce 4b 22 3e af 04 0b 3e 14 d1 b8 bd
       -0.14388272 0.1584923 0.13576005 -0.090242535
0001f0 e8 df 58 be b5 6c 1b be 52 0d 9a 3d bb a8 3e bd
       -0.21179163 -0.15178187 0.07522072 -0.046547633
000200 8a f9 5c bb 83 6b 79 3e 3d 58 04 3d f5 7e 93 bd
       -0.0033718073 0.24357419 0.032310713 -0.072019495
000210 94 bc 36 be bc b0 0e 3e 42 83 db bd 5b 36 76 be
       -0.17845374 0.13934606 -0.10718395 -0.24044172
000220 5a c1 f2 3d be ce 02 be f4 02 ac 3d c3 07 27 be
       0.11853285 -0.12774178 0.08399001 -0.16311555
000230 5e bf 79 be 4f dc 63 be 27 8d 4a be 57 35 38 3d
       -0.24389407 -0.2225201 -0.19780408 0.044972744
000240 6f 37 31 3d dd c9 17 3e 4d 97 8f bd b1 d8 2a bd
       0.043265756 0.14823098 -0.0701128 -0.04171056
000250 56 af 42 bd 95 c9 d1 bd 58 b7 74 3b 8a bc d1 bd
       -0.047530495 -0.10243527 0.0037340727 -0.10241039
000260 0c 0c e1 3c a7 3c 31 3d 78 a0 0c 3e 87 4d 04 bd
       0.027471565 0.043270733 0.13733089 -0.0323005
000270 9e 95 81 3d c5 fd 6a 3d e9 0b 95 bd 74 bc 33 3b
       0.06327365 0.05737092 -0.07277662 0.002742556
000280 26 75 91 3d 08 2f 07 be 76 8c 00 3d 0c 2d 94 3e
       0.071024224 -0.13201535 0.031383954 0.28940618
000290 ec 9a b2 bb fd ac ca bd f2 46 03 3e 2e 2a de 3d
       -0.005450597 -0.09896276 0.12820032 0.10847889
0002a0 ee 8e 80 3e 77 03 0d 3d 35 b9 cd 3d c9 40 8e 3e
       0.25109047 0.034427132 0.10045091 0.27783802
0002b0 04 c4 d7 bd 7c 30 4c be 3b c2 f5 bd 01 df b5 bc
       -0.10535434 -0.1994037 -0.11999937 -0.022201063
0002c0 58 d7 0a bd e6 b9 14 be 26 87 a2 bd e0 c5 c6 be
       -0.033896774 -0.1452404 -0.07935934 -0.38822842
0002d0 4e 18 35 3e 13 40 4e be ce 69 21 bd b4 6b d5 3d
       0.17685053 -0.2014163 -0.039407544 0.10420933
0002e0 f0 f8 ad bd 09 c8 38 be 24 20 0c bd 38 93 8f bd
       -0.08494747 -0.18045057 -0.03421034 -0.070105016
0002f0 4f af 5f 3d 67 e9 3f 3e 5b f0 a0 3d 51 1e 77 3d
       0.054610547 0.1874138 0.07858344 0.060331646
000300 65 a2 70 be 92 c7 d5 bc 7b b2 0a be 6b 43 f2 bc
       -0.23499449 -0.02609614 -0.13544647 -0.029573163
000310 8c a3 82 3e 86 b2 29 bd fe 0b 02 3e 36 4f de 3d
       0.255154 -0.04143002 0.12699887 0.10854952
000320 50 a0 6c 3e c2 67 88 bd 16 4a 92 bd 91 a1 83 3d
       0.2310803 -0.06660415 -0.07143037 0.06427301
000330 f5 57 d1 bd ef 37 3d 3e 10 8e 14 3e 1a fc 0a bc
       -0.102218546 0.18478368 0.14507318 -0.008482957
000340 9e 2a 65 be 77 71 55 3d dd c6 05 bc 13 ff f3 bd
       -0.22379538 0.05211016 -0.0081650885 -0.11913886
000350 f5 5f 40 3e 84 bb 60 be 8c 9e 92 3b 7c e9 43 be
       0.18786605 -0.21946532 0.0044744667 -0.19132036
000360 d8 8c 51 3e c1 a1 3d 3e 6b ee 0f bd 63 ff f1 3d
       0.20463884 0.18518735 -0.035139482 0.11816289
000370 bc 72 e8 3d 18 3c d5 bb f0 94 a7 b9 f7 e0 2c be
       0.11350009 -0.006507408 -0.0003196369 -0.16882692
000380 22 f2 19 be f0 ba a6 bd b4 3e 8a be cf e1 52 3e
       -0.15033773 -0.08141124 -0.27000964 0.20593952
000390 9c 57 7b bd c4 1e 41 3e 3a e9 b4 bd 15 06 48 3e
       -0.061362848 0.18859392 -0.08833547 0.1953357
0003a0 b0 f1 6a bd 97 aa 8a 3d 5f 15 3d 3e fc 02 98 bb
       -0.057359397 0.06770819 0.18465184 -0.0046390276
0003b0 32 10 83 be 86 73 72 3e 88 a2 23 3e 9e 0d 31 3d
       -0.25598294 0.23676881 0.1597997 0.043225877
0003c0 f5 cb 0c 3d 42 c0 81 3d 41 73 06 be 7f 9a a1 bd
       0.034374196 0.063354984 -0.13129903 -0.07890796
0003d0 ec de 63 bd 0e 30 8e 3e 6c 1c c5 bd 32 b9 84 3e
       -0.055632517 0.27771038 -0.09624562 0.25922543
0003e0 09 7c f7 bd 03 94 33 bd 0b 72 27 be d1 c3 1f bd
       -0.12084205 -0.043842327 -0.16352098 -0.039005104
0003f0 3d 00 11 be 64 f6 ab bd 00 66 36 3e 79 5f 17 be
       -0.14160247 -0.08396605 0.17812347 -0.14782514

linear2.weight f4 [3, 256]
000000 83 00 6e 3d b3 f1 73 bd a5 7b eb 3d 78 be 92 3d
       0.058105957 -0.059556674 0.11498193 0.07165235
000010 6f 36 d9 bd 7c 2f 8e 3c 99 db b2 3c 7d c0 0e be
       -0.106060855 0.017356627 0.021833228 -0.13940616
000020 c0 6e 91 be de 13 62 3d 40 c7 8c be c9 4b dc bd
       -0.28404808 0.055194728 -0.27495766 -0.10756642
000030 f2 5d 90 bd b4 92 64 bc 5a dd 8a be 26 d2 b5 3c
       -0.07049169 -0.013950992 -0.27122003 0.022194933
000040 bf b9 2f be a8 89 a7 bd e0 f8 d4 bb 57 95 f4 3c
       -0.171607 -0.08180553 -0.006499395 0.029856367
000050 de 4e c3 3d 55 ce de 3d dc bc 24 3c ea c6 c1 bc
       0.09536527 0.108791985 0.010054793 -0.02365442
000060 0a 88 b3 bd 83 b6 82 3d 22 68 4e 3d ba d7 1b 3e
       -0.08766182 0.063824676 0.050392278 0.15219012
000070 87 9d 66 be 87 bb b0 3d 2c 93 f1 3c 2b b5 e3 3d
       -0.2252103 0.08629518 0.029489122 0.111185394
000080 57 9e 62 3e 75 dc a7 bd c6 59 9e 3d 39 ab 0d be
       0.22130714 -0.08196346 0.07731967 -0.13834848
000090 80 c7 3c bc b4 12 7a be ba 72 82 bc 64 89 2e be
       -0.011522174 -0.24421197 -0.015923847 -0.17044598
0000a0 f1 0a f9 bd 53 69 72 3d 73 a6 1a bd 3a 8e d5 bd
       -0.1216029 0.059182476 -0.037756395 -0.10427518
0000b0 2c 36 e1 bc 92 39 8c 3d 8a f7 d6 bc dd 69 54 3d
       -0.027491651 0.06846918 -0.026241083 0.05185877
0000c0 59 f0 5d bc ed 91 95 3d 6c 4b 62 3d 50 91 93 3c
       -0.013546073 0.07303224 0.05524771 0.018013626
0000d0 8d e0 fa 3c 65 1f 49 bc 26 7f 17 3d a7 47 2a 3e
       0.030624652 -0.012275551 0.036986493 0.16628896
0000e0 19 9d 92 bd fd 29 f1 bc 30 fc 5d bd f0 15 bb bd
       -0.0715887 -0.029438967 -0.054195583 -0.091350436
0000f0 9f 57 e1 3d 75 8b 78 bd ea 3f 9d 3d 40 31 79 3c
       0.110030405 -0.06067987 0.07678206 0.015209496
000100 00 22 96 bc a0 f3 8c 3d 31 92 47 bc e3 ac 47 bd
       -0.01832676 0.06882405 -0.012180851 -0.048748862
000110 ad 8e 15 bd 9e 8d 44 3d f9 a1 98 bd 48 70 5b bc
       -0.03651302 0.04798662 -0.07452769 -0.013393469
000120 79 5e 0c 3c c0 b3 a0 bd bd 4a f2 bd 26 08 4b 3d
       0.008567446 -0.078467846 -0.118306614 0.049568318
000130 27 c9 c1 3c a3 35 d4 bc 41 cf ff bd 10 c5 99 bd
       0.023655487 -0.025904482 -0.124907024 -0.0750829
000140 62 2a 2e 3e 31 a0 96 3c 64 dc 2c 3b 8c df 94 3c
       0.17008355 0.018386932 0.002637648 0.018173002
000150 9a 14 9d bd b8 49 57 3c ad f7 92 bd 23 41 d0 3d
       -0.07669945 0.0131401345 -0.07176147 0.10168674
000160 12 f4 7c bd b5 4e 03 be 56 5e aa 3d 26 d8 4a bd
       -0.0617562 -0.12822993 0.083187744 -0.04952254
000170 cb 4b 6c bd 39 4e 41 3d 41 f6 9a bd 25 67 06 be
       -0.05768947 0.04719374 -0.075665005 -0.13125284
000180 aa 4f f1 3d a6 9a e1 bc c8 f2 bf bd f2 f7 31 3d
       0.11782773 -0.027539562 -0.09372479 0.04344935
000190 e4 1b 85 bc 5d 26 9d be 69 78 8e 3b 35 0a 62 bd
       -0.01624865 -0.3069333 0.00434785 -0.055185515
0001a0 83 6c d3 bd 2c 12 65 be ae 4a 14 be 58 6b 83 bd
       -0.10323431 -0.22370213 -0.14481613 -0.064169586
0001b0 9e 04 9b bc 9c f6 c5 bd 6d ba 0c bd 92 f6 89 3d
       -0.0189231 -0.09666178 -0.034357477 0.06736483
0001c0 8e eb 96 bd 10 a9 a9 3d e7 42 ae 3c ec 25 85 bd
       -0.07369147 0.08284199 0.021272136 -0.06501374
0001d0 1f 93 c7 3d 1c b4 2a 3d c8 2f c1 bd ab d4 f2 bc
       0.09744858 0.041675672 -0.09432942 -0.029642424
0001e0 cc f5 31 3d e1 f1 d3 bd 1b 6f 49 3d f0 d1 9c bd
       0.0434473 -0.10348869 0.049178224 -0.0765723
0001f0 ed 6a a3 bc dc 0e 24 be a1 ac 81 3d d8 8d 82 bd
       -0.019948447 -0.16021293 0.063317545 -0.06374711
000200 a0 89 4a bd ff 59 7c 3c 43 78 12 3d 7e 33 3c 3e
       -0.049447656 0.015402316 0.03575922 0.18379018
000210 bb b3 9c be bf 0c 8a bd 2c 26 a2 b9 bf 97 2c 3e
       -0.30605873 -0.067407124 -0.00030927488 0.16854762
000220 80 bc 8a 3d 03 55 48 ba e6 d8 00 be 5b 05 f7 bc
       0.06774235 -0.0007642062 -0.1258274 -0.03015392
000230 3f 4d a9 bc d2 f5 bd bd bd d9 9a be b0 5e d9 3c
       -0.020666717 -0.09275402 -0.30244246 0.026534408
000240 a1 63 77 3d f0 65 a9 3d 1d ba d3 3d d9 96 e2 bd
       0.060397748 0.08271396 0.10338233 -0.11063928
000250 e7 fa 92 bd d9 64 9b 3d 36 b0 35 3b a3 72 25 be
       -0.07176762 0.075875945 0.0027723438 -0.16157012
000260 ef 0b 3b 3d a4 20 06 be da e2 dd bd 2c 97 7b bc
       0.045665678 -0.13098389 -0.10834284 -0.015355866
000270 2d 2e c6 bd 13 76 1e 3d 6c e9 a2 3d 3c 1f 46 3d
       -0.09676776 0.038686823 0.07954678 0.04836963
000280 c5 88 84 be 60 58 66 bb 09 cb 3e be d0 f0 9e 3b
       -0.25885597 -0.003514789 -0.1863214 0.0048504844
000290 e2 ab 4a 3d 80 f5 fb 3d 34 a0 23 3d 06 b9 8c bd
       0.049480326 0.12302685 0.039947703 -0.06871228
0002a0 92 a6 a1 bd 4c a9 3c be 0b a2 f3 3d 2d 63 6d bd
       -0.07893099 -0.18423957 0.118961416 -0.05795591
0002b0 0e 94 63 3d 08 5c 44 3e 99 62 eb 3d db 2a 25 be
       0.055561118 0.19175732 0.114934154 -0.1612963
0002c0 3e bc 99 bd 51 95 76 3d a5 46 40 bc f8 e8 ad bc
       -0.075066075 0.060200993 -0.011735593 -0.021229252
0002d0 e5 48 b9 bd 9d 55 7d bd a4 86 20 be 64 3a 8a bd
       -0.09047107 -0.061849225 -0.15676361 -0.067494184
0002e0 2f 9f 13 3e 4a 22 70 be 9a 4f 5b 3d 69 32 28 3d
       0.14416192 -0.2345058 0.05354271 0.0410637
0002f0 6b 6f 37 bd 53 53 0d bd 3e 79 eb 3c f5 2f 2b be
       -0.04478399 -0.034503292 0.028744336 -0.16717513
000300 3c 98 e6 bc 6e fb 8d be f0 f5 85 be 7e 0b 33 3e
       -0.028148763 -0.27730888 -0.26164198 0.17484853
000310 50 6e 92 3d fa 6a d0 bd 9e ea f0 bc ea b2 aa bd
       0.07149947 -0.10176654 -0.02940875 -0.083349064
000320 7f db 27 bd ef f1 de bd ad 3d 3d bd 1c 58 c9 3d
       -0.040980812 -0.10885989 -0.046201397 0.09831259
000330 74 68 12 be d1 33 7a 3d 9d 67 b8 bd c8 03 30 be
       -0.14297658 0.061084572 -0.09004138 -0.17188942
000340 6a d9 d3 3c 4a f7 83 bd 64 80 2c 3b 8c 99 cf bd
       0.025860507 -0.06443651 0.0026321644 -0.101367086
000350 89 ce 8d bd 68 32 c9 bc d2 62 6c 3d df 3c 18 bd
       -0.06924159 -0.024560168 0.05771143 -0.037167426
000360 28 d7 d3 3b ad 6b f1 bc bb bf 88 bd a7 f6 2c bd
       0.0064648576 -0.02947029 -0.06677195 -0.042227414
000370 bb 3f 51 3d e5 41 83 bd 2f a6 66 bd 19 3d be bb
       0.05108617 -0.06409053 -0.05631083 -0.0058056233
000380 a2 f2 81 be 5d c0 91 3d ce 10 23 3d 17 bf b5 bd
       -0.25380427 0.071167685 0.039810948 -0.08874338
000390 fd 6d 2e bd ed 4c ce bc 5d 61 3c 3c 1f 66 1e be
       -0.04258536 -0.025183165 0.011497823 -0.15468644
0003a0 28 28 23 be b9 52 6e bc 40 dd bc bc d5 f6 7c 3c
       -0.15933287 -0.01454609 -0.023054719 0.015439709
0003b0 18 aa 31 bd 57 a7 93 bd 7b 3e 57 bd be 94 00 bc
       -0.043375105 -0.07209652 -0.05254982 -0.007847963
0003c0 97 1c 31 3d ea ec 8f 3d 3c b2 52 3d 62 48 ef 3d
       0.043240156 0.0702761 0.05143951 0.11683728
0003d0 91 47 01 be 2c c0 35 bd ec 13 1d bb a4 d3 79 bd
       -0.12624957 -0.044372723 -0.0023968173 -0.06099285
0003e0 a7 c5 77 3d 0c 31 b7 bd ce da eb 3d 3f e3 97 be
       0.06049123 -0.08944902 0.11516343 -0.29665563
0003f0 9f 05 b5 3d 99 65 1c 3d ea f9 88 bd 6b 44 b9 3d
       0.08838963 0.03818283 -0.06688292 0.09046253

linear2.bias f4 [3]
000000 4d 52 01 bd 1a 6b 49 bd 16 06 f6 bd
       -0.03157263 -0.049174406 -0.120128796
