model_hybrid/checkpoint_20251029_200735_score11.pth (torch, 21291 bytes, 4 tensors)

linear1.weight f4 [256, 14]
0.009043094 -0.2934569 0.45057946 0.027732922 0.04618975 0.2250058 -0.35012007 -0.13677612
0.35702577 0.075174205 -0.0038458311 0.10318927 0.14294729 -0.008608901 0.22822484 0.5987483
-0.35836282 0.0048777154 0.017435038 -0.08847503 -0.095750526 0.031914897 0.18383564 0.033619136
-0.16763218 0.020117419 0.13554104 -0.0046752994 -0.01652487 0.36059457 -0.23682083 0.449164
-0.23318493 -0.25174686 0.3825051 -0.10336048 0.05303446 -0.46318144 0.2695807 0.17686845
0.055564594 -0.11394686 0.10822942 0.4500399 -0.058304377 -0.26457062 0.36334828 -0.16731313
-0.15152916 0.07933185 0.32417673 -0.08887151 -0.33613098 -0.15796283 0.044160787 0.12688269
0.19810836 0.38962418 -0.17684054 0.015295321 -0.16989163 -0.10406008 0.20651808 -0.26467985
0.028601483 -0.011614182 0.08059364 -0.031198343 0.05974151 -0.3189125 -0.28181285 0.11306874
0.08758762 -0.009125237 -0.14342019 -0.31744164 0.0048796516 -0.25717628 0.052062836 -0.12751897
0.028615361 0.11281663 0.13960496 -0.34853053 0.07787928 -0.06919456 -0.048048098 -0.19973657
0.3949892 -0.23552328 0.35551473 -0.43990272 -0.015595219 -0.44784126 0.11675305 0.14819117
-0.3379301 0.09920845 0.24179806 -0.48581564 0.025853008 -0.09953119 0.046828408 0.290504
-0.36172378 0.057913627 0.11559619 -0.0087051485 0.37214485 0.15567319 -0.23335013 -0.09044951
-0.023448931 -0.23693916 0.2210443 -0.40604788 0.370763 0.30934772 -0.09140381 0.4930022
-0.33937007 -0.27530998 0.2876658 -0.17307863 0.1603022 -0.040171526 -0.10157937 -0.20239753
0.5795423 0.33989078 0.04829996 0.31887022 -0.3873122 -0.1695001 0.34849635 0.03378659
-0.32213452 -0.10001431 0.072069936 0.25673926 0.061868228 -0.21450083 -0.18706761 0.024669943
-0.02341457 0.3932547 -0.52681255 -0.09730693 -0.06273112 -0.3270782 0.4512434 -0.0566959
-0.08585179 -0.09101215 0.33806205 0.14991668 0.05020654 0.09077774 -0.053884555 -0.104228936
-0.024563247 0.049158216 0.18634465 0.2966186 0.31060684 -0.019914625 0.14109291 -0.17295316
0.14393231 0.3307421 0.15064211 -0.17876822 0.0098267235 -0.088039696 0.020328468 0.20056452
-0.15339467 -0.009607366 0.12962908 0.00088568265 0.028443137 -0.2850666 -0.31668845 -0.24154882
0.61211985 -0.06398925 0.005114303 0.21286744 0.25205007 0.14484194 0.18525222 0.12759991
0.17339434 -0.20915736 0.14112803 0.10933659 0.38113368 0.023060989 0.12733413 -0.19679533
0.4879312 -0.12090416 0.011187393 0.25973013 -0.4399365 0.0931296 0.006760012 0.14368194
0.035817325 0.08521171 -0.4026785 0.69701964 0.2835421 0.08244674 0.05624085 0.029210411
-0.05224077 -0.002371759 0.07152219 0.18232585 -0.20763677 0.10466561 -0.08781457 -0.071490586
-0.21343623 -0.074945636 0.27463856 -0.19253388 -0.22062913 0.21185835 0.33274472 0.19793275
0.23648132 -0.21510276 -0.28782073 -0.124347456 0.12185616 0.10014644 0.10907454 0.5357669
0.021366507 -0.09005145 0.013317509 -0.012161311 -0.10183757 0.28515413 0.16715927 0.19071998
0.2789851 -0.112094484 0.08561364 -0.02761629 -0.08223667 -0.37338632 0.5935524 0.096060365
00000000: 7c29 143c fc3f 96be 5ab2 e63e 2730 e33c
00000010: 7731 3d3d ec67 663e f042 b3be 0a0f 0cbe
00000020: 15cc b63e eff4 993d 570a 7cbb e554 d33d
00000030: c660 123e 590c 0dbc c6b3 693e 9247 193f
00000040: 557b b7be 3ed5 9f3b edd3 8e3c 6632 b5bd
00000050: da18 c4bd 32b9 023d 693f 3c3e 38b4 093d
00000060: c5a7 2bbe 49cd a43c 45cb 0a3e 4133 99bb
00000070: 2a5f 87bc da9f b83e 2981 72be d3f8 e53e
00000080: 08c8 6ebe f7e4 80be b5d7 c33e a9ae d3bd
00000090: a93a 593d 1e26 edbe 7b06 8a3e 011d 353e
000000a0: b397 633d f95c e9bd 63a7 dd3d a16b e63e
000000b0: 92d0 6ebd cd75 87be c908 ba3e 2254 2bbe
000000c0: 762a 1bbe bd78 a23d 7efa a53e 4402 b6bd
000000d0: 5c19 acbe 02c1 21be f1e1 343d 89ed 013e
000000e0: ebdc 4a3e d27c c73e b015 35be 3a99 7a3c
000000f0: 12f8 2dbe 741d d5bd 7a79 533e 1e84 87be
00000100: a84d ea3c 6949 3ebc 470e a53d ab93 ffbc
00000110: 83b3 743d 8048 a3be c649 90be 9590 e73d
00000120: 2361 b33d 0582 15bc bedc 12be b687 a2be
00000130: 7ce5 9f3b 9cac 83be d73f 553d 5594 02be
00000140: c36a ea3c 680c e73d 9af4 0e3e 9872 b2be
00000150: 2c7f 9f3d e1b5 8dbd 15ce 44bd be87 4cbe
00000160: 063c ca3e 042d 71be 0706 b63e ee3a e1be
00000170: 1783 7fbc 734b e5be 391c ef3d 6dbf 173e
00000180: 2d05 adbe cd2d cb3d e999 773e d4bc f8be
00000190: b0c9 d33c 02d7 cbbd 25cf 3f3d f1bc 943e
000001a0: dc33 b9be d736 6d3d b2bd ec3d 0aa0 0ebc
000001b0: c589 be3e cb68 1f3e 56f3 6ebe 983d b9bd
000001c0: f917 c0bc 2ea0 72be 7059 623e 82e5 cfbe
000001d0: a6d4 bd3e d362 9e3e ec31 bbbd c96a fc3e
000001e0: eac1 adbe 6ef5 8cbe ef48 933e 863b 31be
000001f0: 4326 243e e68a 24bd d808 d0bd 4c41 4fbe
00000200: e25c 143f 2a06 ae3e 2ed6 453d f542 a33e
00000210: c94d c6be 6f91 2dbe 1d6e b23e cf63 0a3d
00000220: d1ee a4be 4dd4 ccbd 6799 933d 5473 833e
00000230: 8a69 7d3d 1ba6 5bbe a78e 3fbe 9f18 ca3c
00000240: eacf bfbc ae58 c93e 30dd 06bf db48 c7bd
00000250: 2c79 80bd cb76 a7be 6009 e73e f639 68bd
00000260: 10d3 afbd 9464 babd 7816 ad3e c283 193e
00000270: 5fa5 4d3d aee9 b93d 0db6 5cbd fb75 d5bd
00000280: dd38 c9bc 205a 493d 22d1 3e3e 65de 973e
00000290: dc07 9f3e ff23 a3bc a97a 103e a21a 31be
000002a0: fe62 133e 0757 a93e ed41 1a3e 040f 37be
000002b0: 4400 213c 284e b4bd e387 a63c c960 4d3e
000002c0: 7e13 1dbe 3768 1dbc 7cbd 043e 282d 683a
000002d0: 9501 e93c 40f4 91be fd24 a2be 9358 77be
000002e0: e3b3 1c3f cc0c 83bd e295 a73b ecf9 593e
000002f0: b50c 813e 7251 143e c2b2 3d3e 8da9 023e
00000300: 498e 313e 592d 56be de83 103e ddeb df3d
00000310: f423 c33e 66ea bc3c e163 023e b784 49be
00000320: 1ed2 f93e 9a9c f7bd 544b 373c 59fb 843e
00000330: 5b3f e1be bbba be3d 1783 dd3b 5c21 133e
00000340: 30b5 123d 7a83 ae3d e02b cebe e16f 323f
00000350: 6e2c 913e d6d9 a83d ce5c 663d ac4a ef3c
00000360: 6bfa 55bd 836f 1bbb 3a7a 923d a1b3 3a3e
00000370: bc9e 54be ec5a d63d 20d8 b3bd a869 92bd
00000380: 078f 5abe 197d 99bd 6d9d 8c3e 9a27 45be
00000390: 9aec 61be 65f1 583e 845d aa3e e2ae 4a3e
000003a0: 2928 723e e643 5cbe 3d5d 93be e1a9 febd
000003b0: b98f f93d 9419 cd3d 7962 df3d 0528 093f
000003c0: d008 af3c e56c b8bd ae31 5a3c 3c40 47bc
000003d0: 3790 d0bd b9ff 913e cd2b 2b3e 194c 433e
000003e0: 23d7 8e3e cb91 e5bd 3456 af3d 8f3b e2bc
000003f0: b36b a8bd 7e2c bfbe 0df3 173f 4cbb c43d

linear1.bias f4 [256]
-0.24136107 0.11094735 -0.020077938 -0.1122238 0.17186849 0.044599842 0.18089505 -0.081300646
0.0056977756 -0.09750608 0.18486401 -0.11919189 -0.02530372 -0.3035928 -0.26706585 -0.0051471177
-0.028182244 -0.032076146 0.06559811 -0.11619477 -0.10127895 0.108105674 -0.32421646 -0.08314038
-0.0014635611 -0.075449 -0.025896959 -0.07329053 -0.16990823 -0.0714533 -0.11041327 -0.11137689
0.067852445 -0.15311943 -0.029831171 -0.12607777 0.02353853 0.013914164 -0.26485947 0.08738901
-0.07189794 0.07754801 0.1982001 -0.0023772477 -0.25818664 0.15656492 0.13127357 0.3227909
-0.27901644 0.26047447 0.029447976 -0.07573236 -0.29170203 -0.21219479 0.1974529 -0.019849593
0.06455869 -0.24255992 0.0750961 0.08966681 -0.14978397 -0.04913003 -0.19358611 -0.32657033
-0.083055824 -0.06450705 -0.042832892 -0.14378774 -0.119629115 0.3210924 -0.05227924 -0.08124563
-0.21812494 -0.031632677 -0.12958883 -0.21147782 0.116890974 0.08777627 0.122578844 -0.019214302
0.0061646705 0.10299039 0.0293325 -0.18764438 0.0815694 -0.19816655 -0.2235693 0.09380889
0.22224396 -0.082561806 -0.03695165 -0.15761462 -0.21689522 0.3464976 0.055744868 -0.1141995
-0.09391276 0.08869545 -0.19297904 0.18730848 0.08426519 0.117587246 0.03866818 -0.18596962
-0.051204357 -0.1462285 -0.17018883 0.31700745 -0.24029197 -0.3135301 -0.06100567 0.023888601
0.23923275 0.17832135 -0.035915714 -0.07220584 0.27579808 0.21680918 0.17273422 0.085231856
-0.11759445 0.05940046 0.15719122 -0.1479063 -0.15813848 -0.17659189 0.1258325 -0.09643314
-0.029172713 0.22824708 0.15651366 -0.078878775 -0.18775058 0.09985281 -0.047320936 -0.17280576
0.12859963 -0.048515704 0.06521687 -0.1820567 -0.21224315 -0.22988011 -0.22761272 0.06490306
0.09942294 0.23800883 -0.053891152 -0.038778834 -0.03289264 -0.06150526 0.0035137737 -0.09217943
0.055334505 -0.021912977 0.1543973 -0.049994387 0.0052062883 0.10046109 -0.038849976 0.050042786
0.07051491 -0.13201535 -0.007608754 0.30525836 0.0003881604 -0.09065412 0.14371601 0.12165427
0.11095369 0.05784171 0.13069662 0.17800824 -0.13326016 -0.14770201 -0.053969737 -0.04032488
-0.075632304 -0.17060973 -0.13809866 -0.3314887 0.14889781 -0.22068459 0.025918046 0.04162372
-0.014857828 -0.1701156 -0.03421034 -0.055995964 0.11676873 0.1981295 0.07587028 0.056664847
-0.23499449 -0.04785726 -0.14455988 -0.03148405 0.27663586 -0.12123578 0.06230569 0.02443677
0.15698212 -0.09901991 -0.10419434 0.10396085 -0.07917389 0.23670913 0.19179009 -0.052534804
-0.26464525 -0.010171028 0.027916303 -0.13362077 0.03908328 -0.21946532 0.13276304 -0.18999496
0.18171303 0.23577884 -0.053109806 0.030614354 0.13851616 0.036075197 -0.0018971757 -0.1099553
-0.150711 -0.11116479 -0.2398392 0.15177256 0.08710616 0.14568435 -0.033060115 0.15067878
-0.063566394 -0.011782035 0.19892643 -0.00042463402 -0.25598294 0.23768371 0.18760699 0.0054973406
0.057651326 0.117247015 -0.13129903 -0.013844379 -0.06346953 0.18558614 -0.083467185 0.20682782
-0.09805214 0.011518987 -0.08372986 -0.06203644 -0.17172496 0.024659486 0.13539457 -0.080757685
00000000: 5b27 77be 5d38 e33d 7d7a a4bc 97d5 e5bd
00000010: 4bfe 2f3e 53ae 363d 8d3c 393e f480 a6bd
00000020: 68b4 ba3b 45b1 c7bd fe4c 3d3e e11a f4bd
00000030: bf49 cfbc 8470 9bbe dbbc 88be 27a9 a8bb
00000040: 73de e6bc 4762 03bd 4d58 863d 86f7 edbd
00000050: 576b cfbd 8266 dd3d b3ff a5be 8145 aabd
00000060: f6d4 bfba 0185 9abd dc25 d4bc 5819 96bd
00000070: 6cfc 2dbe 1c56 92bd 5a20 e2bd 9119 e4bd
00000080: 39f6 8a3d 57cb 1cbe 8060 f4bc 881a 01be
00000090: e0d3 c03c 3cf8 633c a99b 87be 02f9 b23d
000000a0: 3a3f 93bd 7ed1 9e3d f8f4 4a3e 99cb 1bbb
000000b0: 0a31 84be 8e52 203e 946c 063e d944 a53e
000000c0: 3edb 8ebe e95c 853e e23c f13c 9119 9bbd
000000d0: f859 95be 9749 59be 1831 4a3e 9d9b a2bc
000000e0: 5937 843d a161 78be fccb 993d 3ca3 b73d
000000f0: f860 19be 923c 49bd 703b 46be 3a34 a7be
00000100: 2c19 aabd 461c 84bd 8b71 2fbd 183d 13be
00000110: 1c00 f5bd 3966 a43e c222 56bd 1c64 a6bd
00000120: 255c 5fbe 4491 01bd efb2 04be a48d 58be
00000130: 8964 ef3d 0cc4 b33d 9e0a fb3d 5067 9dbc
00000140: 0101 ca3b a0ec d23d b64a f03c d925 40be
00000150: dc0d a73d 2cec 4abe 5aef 64be e01e c03d
00000160: ec93 633e 2a16 a9bd 9d5a 17bd ba65 21be
00000170: c819 5ebe 2268 b13e bb54 643d 6de1 e9bd
00000180: 5555 c0bd f6a5 b53d 4c9c 45be cbcd 3f3e
00000190: 3a93 ac3d 95d1 f03d 8762 1e3d d26e 3ebe
000001a0: a9bb 51bd edbc 15be fb45 2ebe cd4e a23e
000001b0: 190f 76be 0487 a0be 15e1 79bd 07b2 c33c
000001c0: 6ef9 743e df99 363e 5b1c 13bd a8e0 93bd
000001d0: 6835 8d3e 3a03 5e3e 3de1 303e 0a8e ae3d
000001e0: 5cd5 f0bd e64d 733d bcf6 203e c074 17be
000001f0: 0eef 21be 81d4 34be 3cda 003e bd7e c5bd
00000200: 9dfb eebc 9ab9 693e 1e45 203e 328b a1bd
00000210: b041 40be a17f cc3d 99d3 41bd fef3 30be
00000220: 9faf 033e 67b8 46bd 6c90 853d 126d 3abe
00000230: 4556 59be b165 6bbe 4f13 69be e5eb 843d
00000240: 419e cb3d 96b8 733e f8bc 5cbd 8ed6 1ebd
00000250: 6fba 06bd f1ec 7bbd 5747 663b 92c8 bcbd
00000260: 6fa6 623d d882 b3bc 531a 1e3e eac6 4cbd
00000270: 8399 aa3b 8bbe cd3d 2721 1fbd aaf9 4c3d
00000280: 1f6a 903d 082f 07be db52 f9bb d34a 9c3e
00000290: 0282 cb39 dea8 b9bd 4a2a 133e e025 f93d
000002a0: b03b e33d 6eeb 6c3d 56d5 053e cb47 363e
000002b0: 5a75 08be 323f 17be 5f0f 5dbd b42b 25bd
000002c0: 1ce5 9abd 51b4 2ebe bc69 0dbe e3b8 a9be
000002d0: ab78 183e 24fb 61be 1552 d43c a27d 2a3d
000002e0: 3f6e 73bc c932 2ebe 2420 0cbd 065c 65bd
000002f0: 7224 ef3d 76e2 4a3e e161 9b3d 6619 683d
00000300: 65a2 70be f905 44bd 8107 14be 6bf5 00bd
00000310: 37a3 8d3e 774a f8bd 4034 7f3d 9f2f c83c
00000320: ecbf 203e f3ca cabd d863 d5bd 6de9 d43d
00000330: ec25 a2bd e163 723e 9f64 443e bc2e 57bd
00000340: 957f 87be 62a4 26bc bbb0 e43c e2d3 08be
00000350: ca15 203d 84bb 60be 09f3 073e 0a8e 42be
00000360: fb12 3a3e 0270 713e ab89 59bd f4ca fa3c
00000370: 2ed7 0d3e 96c3 133d a7aa f8ba 3f30 e1bd
00000380: fc53 1abe 5eaa e3bd 6898 75be 446a 1b3e
00000390: b764 b23d 472e 153e 0b6a 07bd 8a4b 1a3e
000003a0: 192f 82bd 7009 41bc 5fb3 4b3e 6aa1 deb9
000003b0: 3210 83be 5c63 733e 0c1c 403e 0923 b43b
000003c0: cc23 6c3d 341f f03d 4173 06be 89d3 62bc
000003d0: 50fc 81bd 4b0a 3e3e d8f0 aabd acca 533e
000003e0: 8fcf c8bd 22ba 3c3c 907a abbd ec19 7ebd
000003f0: abd8 2fbe b102 ca3c e0a4 0a3e 4964 a5bd

linear2.weight f4 [3, 256]
0.08175156 -0.018355219 0.22332352 0.12797303 -0.073728755 -0.010972736 0.24150795 -0.20845196
-0.44609576 0.10122396 -0.4249395 -0.16088828 -0.07836277 -0.03922476 -0.5762417 0.045125104
-0.34759587 -0.17573172 0.016181836 0.19731705 0.18455637 0.29300687 0.07214933 0.0327784
-0.07924091 0.21116115 0.11520246 0.24931282 -0.41785255 0.2579918 0.029489122 0.23474738
0.39974356 -0.053300522 0.11390801 -0.21459351 -0.037688214 -0.4437706 0.049334336 -0.28526428
-0.3496291 0.15948579 0.07625163 -0.18516742 -0.004007588 0.15228532 -0.06963218 0.20940256
-0.013546073 0.23539197 0.089522526 0.12804398 0.030624652 0.028797194 0.10307838 0.2871369
-0.07458338 -0.029438967 0.036102623 0.009300778 0.29348215 0.0059466423 0.06583892 0.015209496
-0.014805487 0.14117059 0.000384495 0.00917784 -0.03651302 0.17938209 -0.18424827 -0.013393469
0.099737205 -0.120121025 -0.06517953 0.049568318 0.14686164 -0.07864771 -0.09338456 -0.049932223
0.46286005 0.11487594 0.028083434 0.018173002 -0.109466344 0.0131401345 -0.28417686 0.23806894
-0.077523544 -0.23279177 0.22204648 -0.04952254 0.03693574 0.11296813 -0.046092264 -0.22405505
0.25543693 -0.0081713265 -0.14404783 0.13367584 -0.033317804 -0.5131755 0.00434785 -0.055185515
-0.16264796 -0.39482844 -0.3410796 -0.042310067 -0.03755452 -0.25210202 -0.11066339 0.24098589
-0.046490077 0.21446852 0.054644436 -0.06368375 0.18067372 0.0889875 -0.12487797 -0.03275458
0.04871883 -0.15985978 0.12509447 -0.14969695 -0.013116123 -0.33260256 0.14920451 -0.122622155
-0.017998021 0.053058956 0.103720106 0.3079602 -0.5571034 -0.18664736 0.1271257 0.3174104
0.051693786 -0.010378861 -0.33555758 -0.03015392 -0.09715125 -0.13038412 -0.48445287 0.10667204
0.07605994 0.2252042 0.13245054 -0.29476577 -0.007956743 0.22706509 0.002466443 -0.28335175
0.11954145 -0.22848615 -0.25264058 -0.117746316 -0.12949553 0.108965054 0.21741498 0.19861792
-0.54533845 -0.003514789 -0.31137022 0.0387719 0.1485433 0.2321074 0.09834457 -0.0007662213
-0.09558002 -0.3344181 0.2260179 0.010282539 0.011693635 0.3390116 0.16342849 -0.35557318
-0.044584684 0.14701006 -0.00031212595 -0.028600149 -0.147277 -0.1197721 -0.32064447 -0.12294521
0.28854173 -0.3675775 0.05354271 0.060824648 0.053711623 0.07404944 0.09580338 -0.32134405
-0.028148763 -0.36393884 -0.5416012 0.25941274 0.15446633 -0.07551786 0.012426042 -0.14012119
-0.069591224 -0.16342176 -0.09046127 0.17628604 -0.33789074 0.2015218 -0.19971797 -0.2313536
-0.008428338 -0.12873252 0.026699346 -0.2861979 -0.07131172 -0.024560168 0.2707231 -0.021178741
0.07362606 0.07680931 -0.012658524 -0.03620272 0.18657666 -0.05531219 -0.18998398 -0.2637148
-0.40270963 0.16672087 0.08754489 -0.15490744 0.18136783 0.04662216 0.16055515 -0.2960493
-0.34999827 0.017492648 0.012475174 -0.029578738 -0.043375105 -0.15540929 0.057232607 0.07429976
0.16559218 0.19391094 0.05143951 0.28599957 -0.18018572 -0.05577858 -0.075210825 -0.06885251
0.17494312 -0.21100006 0.27550212 -0.48951507 0.024687046 0.19589846 -0.16397716 0.2827995
00000000: 5d6d a73d af5d 96bc ecae 643e 5d0b 033e
00000010: 1aff 96bd fec6 33bc dc4d 773e 6e74 55be
00000020: aa66 e4be 824e cf3d ac91 d9be e6bf 24be
00000030: a97c a0bd 24aa 20bd 9384 13bf 1ad5 383d
00000040: 16f8 b1be 04f3 33be c58f 843c 7b0d 4a3e
00000050: 58fc 3c3e ff04 963e 07c3 933d a542 063d
00000060: 0f49 a2bd a13a 583e 44ef eb3d dc4b 7f3e
00000070: c5f0 d5be 8017 843e 2c93 f13c 9e61 703e
00000080: 30ab cc3e a651 5abd 9a48 e93d 67be 5bbe
00000090: f55e 1abd e635 e3be cd12 4a3d 290e 92be
000000a0: 9602 b3be 3e50 233e d129 9c3d 879c 3dbe
000000b0: 1652 83bb aff0 1b3e 519b 8ebd a06d 563e
000000c0: 59f0 5dbc 980a 713e 9657 b73d f61d 033e
000000d0: 8de0 fa3c 18e8 eb3c c21a d33d 9c03 933e
000000e0: 2cbf 98bd fd29 f1bc 58e0 133d 4a62 183c
000000f0: 4b43 963e 0ddc c23b 8ed6 863d 4031 793c
00000100: b792 72bc 068f 103e 0c96 c939 a75e 163c
00000110: ad8e 15bd f0af 373e 94ab 3cbe 4870 5bbc
00000120: 0543 cc3d 0302 f6bd d87c 85bd 2608 4b3d
00000130: e662 163e 0d12 a1bd 6740 bfbd bb85 4cbd
00000140: fefb ec3e 1444 eb3d 3b0f e63c 8cdf 943c
00000150: e42f e0bd b849 573c a17f 91be 58c8 733e
00000160: aac4 9ebd f760 6ebe 2760 633e 26d8 4abd
00000170: ee49 173d d65b e73d 3ecb 3cbd b06e 65be
00000180: a1c8 823e 07e1 05bc 4681 13be 52e2 083e
00000190: 4078 08bd 785f 03bf 6978 8e3b 350a 62bd
000001a0: 308d 26be f426 cabe fca1 aebe 524d 2dbd
000001b0: c5d2 19bd 8413 81be 7da3 e2bd 01c5 763e
000001c0: 616c 3ebd a39d 5b3e d8d2 5f3d a06c 82bd
000001d0: 8802 393e 143f b63d 05c0 ffbd ab29 06bd
000001e0: 658d 473d 48b2 23be c418 003e 284a 19be
000001f0: 02e5 56bc e24a aabe 11c9 183e 5321 fbbd
00000200: 9670 93bc 5954 593d 356b d43d f6ac 9d3e
00000210: 549e 0ebf 7c20 3fbe 3d2d 023e 9e83 a23e
00000220: ddbc 533d 190c 2abc 34ce abbe 5b05 f7bc
00000230: 3cf7 c6bd 6a83 05be 350a f8be df76 da3d
00000240: 50c5 9b3d ee9b 663e 1da1 073e 8aeb 96be
00000250: 005d 02bc c083 683e 0ca4 213b 7b13 91be
00000260: 26d2 f43d 46f8 69be 1b5a 81be fb24 f1bd
00000270: 7a9a 04be 1229 df3d 08a2 5e3e 7f62 4b3e
00000280: 4d9b 0bbf 6058 66bb eb6b 9fbe 49cf 1e3d
00000290: bc1b 183e 90ad 6d3e e168 c93d 3edc 48ba
000002a0: 75bf c3bd d938 abbe 3d71 673e 1878 283c
000002b0: a996 3f3c ee92 ad3e cc59 273e b00d b6be
000002c0: 6e9e 36bd ce89 163e d6a4 a3b9 dc4a eabc
000002d0: c8cf 16be 134b f5bd 832b a4be b3ca fbbd
000002e0: bebb 933e 1e33 bcbe 9a4f 5b3d 4423 793d
000002f0: b800 5c3d 3ca7 973d 9034 c43d 3587 a4be
00000300: 3c98 e6bc 3156 babe 60a6 0abf bfd1 843e
00000310: 6c2c 1e3e 1ca9 9abd 9996 4b3c ee7b 0fbe
00000320: d885 8ebd 0958 27be c243 b9bd 5484 343e
00000330: 0400 adbe bb5b 4e3e de82 4cbe f5e7 6cbe
00000340: 0317 0abc 75d2 03be 96b8 da3c 8888 92be
00000350: e10b 92bd 6832 c9bc 389c 8a3e 0a7f adbc
00000360: 42c9 963d 334e 9d3d b365 4fbc 4e49 14bd
00000370: f40d 3f3e 098f 62bd 298b 42be a005 87be
00000380: f52f cebe e0b8 2a3e bc4a b33d 0ea0 1ebe
00000390: 7db8 393e e1f6 3e3d 9268 243e c693 97be
000003a0: f932 b3be be4c 8f3c ac64 4c3c 1c4f f2bc
000003b0: 18aa 31bd 9d23 1fbe bd6c 6a3d 792a 983d
000003c0: ff90 293e 9790 463e 3cb2 523d 896e 923e
000003d0: 9b82 38be 1578 64bd 2208 9abd 8b02 8dbd
000003e0: 4a24 333e 6610 58be 9d0e 8d3e b8a1 fabe
000003f0: 7d3c ca3c 9b99 483e a1e9 27be 19cb 903e

linear2.bias f4 [3]
0.11240064 -0.0010112241 -0.070175044
00000000: 4f32 e63d 0d8b 84ba efb7 8fbd
