model_hybrid/checkpoint_20251029_200726_score11.pth (torch, 21291 bytes, 4 tensors)

linear1.weight f4 [256, 14]
00000000: 64ac fe3c 95ec 9ebe 7b0d de3e 6cb3 7e3d
00000010: c6fc ce3c f388 783e afd2 c1be d6c7 e4bd
00000020: 575f b03e b769 6e3d a5e2 be3c 8be0 e23d
00000030: 7234 053e c9d3 08bc 3061 873e ed05 093f
00000040: 6261 a5be 79c8 163c 6b5e 963c aabb edbd
00000050: e666 4dbd 2c2f 773d 1a3c 1f3e 70ca 863d
00000060: ead6 47be 2446 1d3d d570 333e 00c3 0d3d
00000070: c697 e4bc e815 9b3e 8b45 69be de56 df3e
00000080: 19ce 84be a482 85be 2aa4 be3e a6e8 d9bd
00000090: 495c 04bd 2081 e8be 8f40 603e b513 103e
000000a0: 43ef b03d b309 ebbd aa68 1d3e fccf d13e
000000b0: 458e 603c 37c3 6cbe 4588 c13e 6a3e 24be
000000c0: f11c 0ebe 46c7 dc3d 5328 a73e ef11 7dbd
000000d0: 6f32 9fbe 13c1 0cbe 1d99 0e3d efce 203e
000000e0: 0322 543e 2567 b23e 59c5 10be e2fc 0d3d
000000f0: 067f 3bbe 666f 1fbe 79f9 963e c260 70be
00000100: 283b 9d3c 54c9 003d 2021 9f3d c142 d63b
00000110: 2afd b43d e192 7dbe f093 86be 1d18 133e
00000120: 3b0d 203e f9b1 cabc 0b4c 02be b687 a2be
00000130: 764f ec3c af72 55be 8fc2 513d b6a1 14be
00000140: 6f15 d63c 91f2 df3d d363 1e3e 1ca7 b5be
00000150: 826d ee3d 1df4 50bd 6d69 09bd ea3c d3bd
00000160: 8d46 bf3e a765 32be 2321 893e f8c8 d6be
00000170: 0e37 2cbc 1910 cbbe f43f e53d 5d54 093e
00000180: 6063 99be 05b3 a13d 37db 423e e3df d8be
00000190: 70a5 d9bc c086 b5bd f3d0 2a3d 43b4 8d3e
000001a0: 8157 acbe c76a 6f3d 5159 f63d 4dcd f8bc
000001b0: 6444 b63e 4449 223e 6c57 76be 1ba3 cebd
000001c0: bb13 b1bd 0fb3 61be ab62 2f3e 4966 c9be
000001d0: b53c b43e ee1c 993e 1c7f d4bd e4c7 e43e
000001e0: d55d a0be 7e63 92be ed30 963e 292f 43be
000001f0: 4812 1f3e 4c33 3ebd 93bc bdbd 03f5 5dbe
00000200: 79fc 123f 16f1 b23e 3641 f43c d038 b03e
00000210: 020a cdbe 8c2d 23be 61ba aa3e 7630 553c
00000220: fae0 99be 699b ccbd c315 833d e16b 833e
00000230: a586 093d c668 3dbe d1a0 80be ddbd 3dbc
00000240: 830f 453c e221 c73e fc85 03bf a54a 84bd
00000250: 9f67 d9bc 03e4 a5be 934e d43e dd00 4cbd
00000260: 3460 acbd f764 a4bd 2eaf 9f3e 9d54 353e
00000270: a3d4 523d d414 ca3d a6b0 21bd 2566 00be
00000280: 53da 463c fc98 723d 06bd 293e 3d1e 903e
00000290: c62f a03e 1c85 893b 51a2 1f3e 4fe9 3cbe
000002a0: 2316 093e 9d4b ad3e 2111 373e bf56 e3bd
000002b0: b47e 3f3c 0651 babd 0a12 5f3d 6657 883e
000002c0: 6f42 01be 32a2 6b3a 4421 223e 66c4 5f3d
000002d0: e0ef 993d fd60 80be 0d00 b0be a06b 46be
000002e0: afc1 173f c8a9 4bbd 14e0 67bd 3e74 773e
000002f0: 9b7b 6e3e 93e0 183e 330e 153e d162 f33d
00000300: 3ac1 473e 91bf 4dbe a670 143e 7c18 ee3d
00000310: e7d1 a53e 713c e03c 535b 753d 9faf 3fbe
00000320: 4699 f23e 37eb 08be dd50 463c fe9f 603e
00000330: 57b9 d3be 48cf 5e3d 2725 b93c fe8a 0c3e
00000340: 947b c93c 4257 983d f125 aebe 6d02 273f
00000350: 97f1 a23e f8a7 9a3d ebc3 6e3d 3e96 a53c
00000360: 7f4f 03bd 987e 4b3c 3539 e03c e262 303e
00000370: e23c 3cbe 2cf4 d83d 6047 4dbd e1c6 8fbd
00000380: bbac 6abe 4bcd 02bd f9ab 873e 5f22 41be
00000390: e30c 58be 0863 593e 65f0 a13e 176b 0d3e
000003a0: 09e2 5f3e 3134 73be 723a 89be 7592 fdbd
000003b0: 5d8f dc3d b9b7 a73d d584 c13d ea51 043f
000003c0: 522e 863d 8668 e8bd 2abd b03c b02b 93bd
000003d0: e579 60bd 0c59 9b3e 219d f53d 8ed9 1d3e
000003e0: af35 873e 9520 febd d829 973d 8677 65bd
000003f0: 2b8f d4bd 632f acbe c1bb 133f 1079 e63d
0.031088062 -0.31039873 0.4336966 0.06218283 0.025267016 0.24270992 -0.3785605 -0.11170928
0.3444774 0.058206286 0.023301432 0.110779844 0.13008288 -0.008351275 0.26441336 0.5352467
-0.3230086 0.00920307 0.018355569 -0.1160806 -0.05014696 0.06034772 0.1555027 0.06581581
-0.19515577 0.03839697 0.17523511 0.034609795 -0.027904402 0.3029015 -0.22780435 0.43620962
-0.2593849 -0.26076233 0.37234622 -0.10640077 -0.032314572 -0.45411015 0.21899627 0.14070018
0.086393856 -0.11476459 0.15371957 0.40978992 0.013705795 -0.23121344 0.37799278 -0.16039434
-0.13878228 0.10780196 0.32647952 -0.06178468 -0.31093165 -0.13745527 0.03481399 0.15703939
0.207161 0.34844318 -0.14137782 0.034664996 -0.18310174 -0.15569839 0.29487208 -0.2347441
0.019193247 0.031442 0.0776999 0.0065387194 0.0883735 -0.24763061 -0.26284742 0.14364667
0.15630047 -0.024743067 -0.1272432 -0.31744164 0.028846484 -0.2084453 0.051210936 -0.14514813
0.026133267 0.10934938 0.15467767 -0.35479057 0.11641981 -0.051014055 -0.033547807 -0.10314353
0.37358513 -0.1742159 0.26783094 -0.41950202 -0.010511173 -0.3966072 0.11193839 0.13411088
-0.2995863 0.078954734 0.19028936 -0.42358312 -0.026568145 -0.08863592 0.041703176 0.2767659
-0.3366051 0.05845144 0.120287545 -0.030371333 0.35599053 0.15848261 -0.24056786 -0.10089704
-0.086463414 -0.22040962 0.17127483 -0.3933585 0.35202566 0.29904884 -0.10375807 0.44683754
-0.31321588 -0.28591532 0.29334202 -0.19060959 0.15534317 -0.04643564 -0.09264483 -0.21675496
0.5741649 0.3494956 0.029816251 0.34418344 -0.40046698 -0.15935344 0.3334532 0.013012042
-0.30054456 -0.0999058 0.06400635 0.25668243 0.033575673 -0.18496999 -0.25122693 -0.011580911
0.012027624 0.38893038 -0.5137632 -0.0645955 -0.026538668 -0.32400522 0.41466197 -0.04980551
-0.08416787 -0.0802707 0.3118834 0.17708059 0.051472317 0.09867254 -0.039475106 -0.12538965
0.0121370135 0.05922793 0.16576013 0.2814807 0.31286448 0.004196776 0.15589263 -0.18448375
0.1338735 0.3384675 0.17877628 -0.1110053 0.011687923 -0.09097485 0.054460563 0.2662918
-0.12622999 0.00089887076 0.15833002 0.05463066 0.07516456 -0.25073996 -0.3437504 -0.19376993
0.5927991 -0.049722463 -0.056610182 0.24165437 0.23289339 0.14929418 0.14556198 0.11884082
0.19507304 -0.20092608 0.14496097 0.11625764 0.32386705 0.02737257 0.059901547 -0.18719338
0.47382563 -0.13370977 0.01210424 0.21936032 -0.4135234 0.054396898 0.022600723 0.13724896
0.02459506 0.07438518 -0.34013322 0.65238076 0.31824943 0.07551569 0.05829231 0.020213243
-0.032058235 0.012420319 0.027371028 0.17225221 -0.183826 0.10593447 -0.050116897 -0.07020355
-0.22917454 -0.031934064 0.26498392 -0.18860768 -0.21098666 0.21229184 0.3162872 0.13810383
0.2186357 -0.23750378 -0.26802403 -0.1238145 0.10769532 0.08189339 0.09449164 0.5168749
0.06551804 -0.11348061 0.021574575 -0.07186067 -0.054803748 0.30341375 0.119928606 0.15415022
0.26408145 -0.12408558 0.07381028 -0.05602219 -0.103788696 -0.33629903 0.57708365 0.112535596

linear1.bias f4 [256]
00000000: 8261 6fbe 1754 043e 7162 66bd cad5 bbbd
00000010: d8a2 563e de7a 283d 7ed1 2a3e b2bf a0bd
00000020: c4de 41bc 6178 c7bd 325b 443e 92b9 c2bd
00000030: abfd e83c aa39 97be 0f08 8cbe c828 7ebb
00000040: b280 e2bc d57f 34bd 6528 823d bd8d 1cbe
00000050: b824 94bd 4f25 f03d a50d 8ebe 83e0 9fbd
00000060: 365f d53c 8c10 00be aaa3 b3bc 54b6 e0bd
00000070: e50f 56be 2323 bfbd 5a20 e2bd e0eb f6bd
00000080: 65f9 543d e227 13be d5a5 acbc 0bcb fabd
00000090: 850a 5b3d 4b80 a53c 7d58 83be e2a2 c33d
000000a0: e65e c4bd 88f6 763d 9dc6 523e 28e2 fe3c
000000b0: 0a31 84be b957 1f3e 6180 2c3e 8814 903e
000000c0: 3edb 8ebe ff3b 643e afc5 c93c 861c 91bd
000000d0: f859 95be 90a9 86be 313b 363e 83f0 13bd
000000e0: f2ad 5b3d a161 78be 7269 8c3d 409d ea3d
000000f0: 081d 25be 0a8e 50bd 4280 1abe f9b2 98be
00000100: 81f5 9fbd 4063 a0bd f6df 4cbd 3cf6 00be
00000110: 1c00 f5bd b019 853e 144c 59bc 1c64 a6bd
00000120: ea50 76be 2533 20bc 7607 dfbd a48d 58be
00000130: 3366 af3d 1b53 a83d ddc1 113e db60 f23b
00000140: c1fa 9ebc ef6c c63d b39b 163b d925 40be
00000150: e012 ea3d 2cec 4abe e448 56be 57ee 753d
00000160: 842a 643e cf67 49bd 51b0 18bd ba65 21be
00000170: 0aa9 59be 90b4 b23e 7c20 8d3d c771 ccbd
00000180: 1a8b f9bd a407 fe3d 6cff 34be 6338 2e3e
00000190: d73d ab3d 30bb ce3d 8762 1e3d d26e 3ebe
000001a0: f413 22bd 9283 0abe 3d32 43be 189d a93e
000001b0: 224e 63be c843 9fbe bbf1 56bd 458f 14bc
000001c0: 2ac2 803e 8560 193e c24d 69bd 1026 84bd
000001d0: 50c9 783e 4f8f 513e a445 3a3e 97fd d93d
000001e0: d583 0abe b83c f53d 1f06 143e 3bdc ffbd
000001f0: 95a1 30be b874 2dbe cae0 b93d 17c5 84bd
00000200: 5029 1cbd 7f64 6f3e 39d9 bc3d c8f8 abbd
00000210: 6e45 4abe ad02 db3d 8268 a5bd 9fa3 29be
00000220: 3726 013e d38d 2abd 7727 a73d 126d 3abe
00000230: 4e12 59be c51c 67be c703 5fbe 6939 8c3d
00000240: 910f 963d 777a 563e 3b77 75bd 4a7f 56bd
00000250: 764a efbc f533 7fbd 5747 663b d91e 02be
00000260: 8b62 fe3c 08bb ab3b e769 153e ca34 02bd
00000270: 0897 a73c 8703 823d 65bc f2bc 98a7 df3c
00000280: fad1 803d 082f 07be 34f4 e839 8de0 993e
00000290: 4af4 e1bb c846 c7bd bff6 0c3e 4659 013e
000002a0: 9e4c 223e e1a9 333d 67a2 da3d 1c79 593e
000002b0: 745e e8bd 972f 17be 82d2 2dbd c0fa e6bc
000002c0: ec17 afbd 0702 28be 0015 05be 01cb bdbe
000002d0: d1f9 193e 793c 4fbe 071b a83c d555 b23d
000002e0: 912a 0abd ce69 28be 2420 0cbd d843 91bd
000002f0: 145e a63d 702b 3a3e 0a44 863d fa91 823d
00000300: 65a2 70be 1606 95bc a6e9 0ebe 1e1e 86bc
00000310: 51ae 803e ccf2 98bd 9cad 993d a9d7 2a3d
00000320: 769c 373e 012b cabd 3735 b8bd c3fc b13d
00000330: b763 a1bd 95cb 4c3e 0021 383e 776f 42bd
00000340: 957f 87be 992c 683c a0dc a13c 7837 11be
00000350: 72a6 c23d 84bb 60be 5468 dd3d c80e 61be
00000360: b6a4 463e 5662 4e3e 5e25 1abc 0187 843d
00000370: 07ec ed3d 2a3b 3c3d ac6c adbb 9202 babd
00000380: 68a7 14be 2d79 d1bd efd5 86be 15e5 3b3e
00000390: 60be 5a3d b9d1 123e d547 95bd 33ae 1a3e
000003a0: 5b62 43bd 4dae 48bb 2642 403e 6d34 893c
000003b0: 3210 83be b594 713e 6562 1f3e 5def 133c
000003c0: 372f 3a3d 859f a63d 4173 06be c826 61bd
000003d0: 2b8e 80bd e397 5c3e ffab 9cbd bcf6 723e
000003e0: a6b7 10be dc18 6d3a 6864 04be d730 50bd
000003f0: f12e 33be 7a30 edbc 3aef 003e 3182 adbd
-0.2337704 0.12922703 -0.056246225 -0.091716364 0.20960557 0.0411328 0.16681477 -0.07849063
-0.011832897 -0.09739757 0.19175413 -0.09508051 0.02844127 -0.29536182 -0.27349898 -0.0038781632
-0.027649257 -0.044067223 0.06355361 -0.15288444 -0.07233566 0.11725866 -0.27744785 -0.07806494
0.026046377 -0.12506312 -0.021928627 -0.10972276 -0.20904501 -0.09332874 -0.11041327 -0.12056708
0.051995654 -0.14370683 -0.021075169 -0.122457586 0.05347683 0.020202776 -0.2565345 0.09552552
-0.09588413 0.060293704 0.20583577 0.0311137 -0.25818664 0.15560807 0.16845848 0.28140664
-0.27901644 0.22288512 0.024630396 -0.070855185 -0.29170203 -0.2630124 0.17796017 -0.03611804
0.053632684 -0.24255992 0.068560496 0.11455774 -0.16124356 -0.05091671 -0.15087989 -0.29824045
-0.07810498 -0.078314304 -0.050018273 -0.12593931 -0.119629115 0.2599616 -0.013262767 -0.08124563
-0.24054304 -0.009777819 -0.10890095 -0.21147782 0.08564415 0.08218976 0.14234109 0.0073968
-0.019406678 0.09688746 0.0022980988 -0.18764438 0.11429381 -0.19816655 -0.20926243 0.06004175
0.22281843 -0.049171265 -0.037277523 -0.15761462 -0.2125589 0.34903383 0.068909615 -0.09982639
-0.12184735 0.12403801 -0.1767556 0.17013697 0.083614044 0.10094297 0.03866818 -0.18596962
-0.03956981 -0.13526753 -0.19062133 0.33127666 -0.22197774 -0.311064 -0.052476626 -0.009067361
0.25148135 0.14978226 -0.05695892 -0.06452572 0.24295545 0.20464824 0.18190628 0.106440715
-0.13526852 0.11974472 0.1445546 -0.124931775 -0.17249139 -0.16939056 0.09076078 -0.064829044
-0.038125336 0.2337818 0.092211194 -0.08397061 -0.19753048 0.1069387 -0.08076574 -0.16566323
0.12612234 -0.04163916 0.08161824 -0.1820567 -0.21198389 -0.22569568 -0.21778785 0.068468876
0.07327188 0.20945154 -0.05992816 -0.052367486 -0.02921031 -0.06230541 0.0035137737 -0.1270708
0.031052848 0.0052408017 0.1459118 -0.031788625 0.02045776 0.06348329 -0.02963085 0.027301595
0.0629005 -0.13201535 0.00044432434 0.3005413 -0.0068955766 -0.09730297 0.13766001 0.12631711
0.1584954 0.04386318 0.10675507 0.21237606 -0.113461405 -0.14764248 -0.042437084 -0.028195739
-0.085494846 -0.16407023 -0.12996292 -0.37068942 0.15036704 -0.20237912 0.0205207 0.087077774
-0.033732 -0.16446611 -0.03421034 -0.07093018 0.08123413 0.18180633 0.06555946 0.06375499
-0.23499449 -0.018191379 -0.13956317 -0.016371783 0.25132993 -0.07468185 0.075038165 0.041709576
0.17930779 -0.098714836 -0.08994525 0.086907886 -0.07880347 0.19999535 0.17981339 -0.047469582
-0.26464525 0.014170789 0.019758523 -0.14181316 0.09504403 -0.21946532 0.10810915 -0.21978295
0.1939877 0.201547 -0.009408323 0.064710625 0.11617284 0.04595486 -0.0052924957 -0.090825215
-0.14516985 -0.102281906 -0.26335093 0.18349107 0.053404212 0.14337815 -0.072890915 0.15105514
-0.04770122 -0.003062147 0.18775234 0.016748631 -0.25598294 0.23591883 0.15564878 0.009029237
0.045455184 0.08135895 -0.13129903 -0.054968625 -0.062771164 0.21542315 -0.07649993 0.23726934
-0.14132556 0.0009044537 -0.12928927 -0.050827827 -0.17498375 -0.02895378 0.12591258 -0.08472098

linear2.weight f4 [3, 256]
00000000: f811 7e3d 78bb 19bd 0d69 313e 3208 fb3d
00000010: b379 e9bd b095 89bc 6896 363e 73a3 39be
00000020: a919 c8be 4048 aa3d 4ae0 c1be 3824 1cbe
00000030: eef9 83bd 8ecc 1dbd 181c fbbe 904a bb3c
00000040: 19d4 97be 23e3 2abe c816 093c b91c ff3d
00000050: da13 303e 13df 813e cc13 4f3d 6994 063c
00000060: f6de 56bd 8395 1f3e c3ce f83d 2fee 593e
00000070: be92 aabe d41f 5a3e 2c93 f13c 55ee 563e
00000080: 0d5b b13e 91c3 46bd d655 c53d d64f 4abe
00000090: d52e 6abd 8633 cabe ea7e 353d af53 78be
000000a0: a3ef 8bbe bc36 df3d 8a4d 633d 924b 35be
000000b0: 1652 83bb 615a 0c3e 75ef 7fbd c39b 373e
000000c0: 59f0 5dbc cfed 2c3e df8b a43d 393d 8f3d
000000d0: 8de0 fa3c 9aa7 bc3c d60d 7b3d 3b7e 793e
000000e0: e7b6 c2bd fd29 f1bc d735 c6bb 4439 c9bc
000000f0: b103 6e3e fe56 9dbc 8ed6 863d 4031 793c
00000100: d6c7 adbc bf48 bb3d ad49 c0bc aab9 37bc
00000110: ad8e 15bd 509e 0f3e 2c2f 2dbe 4870 5bbc
00000120: 235c 713d fa44 e8bd d446 a0bd 2608 4b3d
00000130: 3403 053e 31f7 a1bd de59 00be 8ac7 34bd
00000140: e57d c13e 9da9 7b3d 9e39 7abc 8cdf 943c
00000150: 15db fabd b849 573c 5c48 85be 481d 4e3e
00000160: cebe b2bd f278 66be eabe 3e3e 26d8 4abd
00000170: 56ce 04bd 03a8 d63d 5c4d 87bd 2a61 3ebe
00000180: 5731 5b3e aa71 a6bc 8035 17be fc1f c53d
00000190: 8f69 11bd fd0e edbe 6978 8e3b 350a 62bd
000001a0: 6937 27be 5518 bfbe 55df 8fbe d83b 40bd
000001b0: afd3 36bd 2f5b 4bbe fe3a fcbd dca0 4a3e
000001c0: bcc2 52bd 29b7 373e 512d 8b3c 31f8 b0bd
000001d0: 414c 033e cfe5 663d f30d 05be bf94 42bd
000001e0: 8dbc d93c bfaf 04be 1e6c 713d 1de4 f1bd
000001f0: 6bbe 49bd 3fd6 94be e5fe 083e c127 bdbd
00000200: a770 f2bc 14d2 af3c ce2c 843d f06b 873e
00000210: 2b06 f5be e701 1dbe 5c95 783d 280a 983e
00000220: 1e04 7f3c f263 8ebc 2041 9fbe 5b05 f7bc
00000230: cc95 c6bd 879f 0bbe 4059 d9be c55a 983d
00000240: aa62 533d 9a1c 353e 8fec d63d 3208 71be
00000250: 0905 7bbc 8fb7 423e 0ca4 213b 90e9 6dbe
00000260: 00f6 e03d 32cb 5fbe de12 4ebe d4c6 c1bd
00000270: f752 fcbd 6264 b83d ef15 2e3e 651e 0c3e
00000280: f1bd ebbe 6058 66bb c7e5 9cbe 4d4a 183d
00000290: dd43 e53d 85c2 3c3e b0e6 763d 1e9d 43bd
000002a0: b19d dbbd d687 9bbe 28d2 2a3e 1557 d1bc
000002b0: c776 143d a513 a13e e193 1a3e 4a17 abbe
000002c0: bd7d 45bd 2553 d73d 32b7 91bc 6b60 febc
000002d0: ae9b 2dbe ac3d 03be a46c 8dbe 8ea4 ecbd
000002e0: aa6a 823e 21c2 b2be 9a4f 5b3d bdc8 7c3c
000002f0: 5d7d 823c 8f6c 6e3d 6704 833d b60d a4be
00000300: 3c98 e6bc a9cb b3be a086 efbe 2bb8 623e
00000310: 555b e33d 7403 dabd 5b12 93bb 8479 0fbe
00000320: 88c1 aabd f7e7 23be 8b01 9cbd e4ea 1c3e
00000330: c18d 93be f6e9 1f3e 5ca3 1cbe 81ac 4dbe
00000340: 0317 0abc 46c9 09be 7606 16bd e15e 61be
00000350: 3798 5bbd 6832 c9bc 2064 513e 61bf 0ebd
00000360: 912f 843d 3fa4 313d 4432 3abd 1e72 3cbd
00000370: af73 f13d 54d1 d1bd a2da 09be 27a9 67be
00000380: d90a b2be bbbe 113e b1f2 633d cf33 13be
00000390: 995b fd3d 7afb f53b cde6 fe3d c5d2 8abe
000003a0: c83b a4be 0173 c73b 297c 31bc 1866 05bd
000003b0: 18aa 31bd 79ef 22be d9a5 883c e698 c43c
000003c0: 172e f93d 0b66 273e 3cb2 523d 6269 7c3e
000003d0: 35f4 37be 25a1 83bd ebad 76bd 1d4f 99bd
000003e0: b8f7 e13d 8853 39be 9849 543e 4734 d9be
000003f0: 5856 cd3c 1bda e73d 99ad e8bd 97fb 733e
0.062028855 -0.0375323 0.1732523 0.122574225 -0.114001654 -0.01679501 0.17830813 -0.18128757
-0.39082077 0.08314562 -0.3786643 -0.15248191 -0.06444155 -0.038525157 -0.4904487 0.022862703
-0.29654005 -0.16688208 0.008367248 0.1245665 0.17195073 0.25365505 0.05055599 0.008214095
-0.052458726 0.15584378 0.12148812 0.21282266 -0.3331508 0.21301204 0.029489122 0.20989354
0.3463978 -0.04852635 0.096355125 -0.19757017 -0.05717357 -0.39492434 0.044310488 -0.24250673
-0.27331266 0.10899112 0.05549387 -0.17704609 -0.004007588 0.13706352 -0.062484223 0.17930512
-0.013546073 0.16887592 0.08034491 0.06994099 0.030624652 0.023029137 0.06129249 0.2436456
-0.09507542 -0.029438967 -0.0060488987 -0.02456344 0.23243596 -0.01920652 0.06583892 0.015209496
-0.021213453 0.091447346 -0.023472631 -0.011213699 -0.03651302 0.14025235 -0.16912526 -0.013393469
0.05892576 -0.11341281 -0.078260094 0.049568318 0.12989503 -0.07908476 -0.12534282 -0.044135608
0.37791362 0.061441053 -0.015272526 0.018173002 -0.12248818 0.0131401345 -0.26031768 0.20128357
-0.08727799 -0.22507074 0.18627515 -0.04952254 -0.03242334 0.104812644 -0.06606552 -0.18591753
0.2140554 -0.020317871 -0.14766502 0.09625241 -0.03550106 -0.46300498 0.00434785 -0.055185515
-0.16329731 -0.3732325 -0.28100076 -0.04693207 -0.04463547 -0.19859003 -0.12315939 0.19787925
-0.051455244 0.17940964 0.016989382 -0.08641089 0.12822057 0.056371506 -0.12993602 -0.047505137
0.026579166 -0.12957667 0.058941 -0.11811087 -0.049253862 -0.29069707 0.13378485 -0.09236098
-0.029594732 0.021462478 0.06453858 0.26449537 -0.47856268 -0.15332757 0.060689315 0.2969525
0.015564946 -0.017381642 -0.31104374 -0.03015392 -0.0969654 -0.13635074 -0.42450905 0.07439188
0.051607765 0.17686692 0.10494339 -0.23538283 -0.015321025 0.19015335 0.002466443 -0.23233628
0.10984421 -0.21854857 -0.20124385 -0.094617516 -0.12320512 0.090035215 0.17000555 0.1368347
-0.4604335 -0.003514789 -0.30644056 0.037180234 0.111945845 0.18433578 0.060278594 -0.04775726
-0.107234366 -0.30377072 0.16681731 -0.02555422 0.036246087 0.314603 0.15095474 -0.33416206
-0.048215616 0.105139054 -0.01778755 -0.031051835 -0.16953918 -0.12816495 -0.2762195 -0.11554824
0.25472003 -0.34913734 0.05354271 0.015428719 0.015928918 0.058209 0.06397324 -0.3204171
-0.028148763 -0.35116318 -0.46782398 0.22140567 0.111014046 -0.1064519 -0.004488272 -0.14011198
-0.083376944 -0.16006456 -0.07617482 0.15323979 -0.28819087 0.15616593 -0.15296692 -0.20085336
-0.008428338 -0.13455686 -0.036627255 -0.2200885 -0.05361196 -0.024560168 0.20448351 -0.034850482
0.06454385 0.043369528 -0.045458093 -0.046007268 0.11789643 -0.10245004 -0.13462308 -0.2262312
-0.347739 0.14232914 0.05565137 -0.14375232 0.123709865 0.007506785 0.124463655 -0.2711393
-0.3207686 0.0060867076 -0.010832825 -0.032568067 -0.043375105 -0.15911664 0.016680645 0.023998689
0.12166994 0.1634752 0.05143951 0.24649575 -0.17964251 -0.0642722 -0.060224455 -0.07485793
0.11033577 -0.18098271 0.20731199 -0.42422697 0.025065586 0.11320897 -0.11361236 0.23826443

linear2.bias f4 [3]
00000000: 3e9b 6f3d 2357 13bc de5f b5bd
0.05849766 -0.008992943 -0.08856176
