model_hybrid/checkpoint_20251029_195539_score6.pth (torch, 21281 bytes, 4 tensors)

linear1.weight f4 [256, 14]
000000 d7 9f 09 3e 20 60 2b be e7 a6 9d 3e 21 94 e1 3d
       0.1343988 -0.16735888 0.307914 0.110145815
000010 ce 83 85 bd 76 6b 46 3e da ef a6 be a9 3f e2 bc
       -0.065192804 0.1937693 -0.32604867 -0.027618246
000020 0a 49 94 3e d3 46 2b 3d fb a8 20 3d 73 e5 b6 3d
       0.28961974 0.04181559 0.039223652 0.08930483
000030 a7 a6 d5 3d d7 dd 25 3d 07 94 05 3e 80 16 a1 3e
       0.10432177 0.040494766 0.13044749 0.3146248
000040 bf 6a ae be ad 99 7d 3d 10 06 07 3e 76 63 35 bd
       -0.34065816 0.061914135 0.13185906 -0.044284306
000050 90 e5 c5 bd 70 ae 54 bd 4f 4f 4b 3e 08 11 92 3d
       -0.09662926 -0.05192417 0.19854473 0.07132155
000060 ac fe 43 be bc 95 35 3e fe 44 64 3e 95 bf 3f 3e
       -0.19140118 0.177329 0.22291943 0.18725426
000070 55 94 b3 bd 8b 8d 36 3e b4 0f e4 bd 88 35 af 3e
       -0.087685265 0.17827432 -0.11135808 0.3422053
000080 40 96 3c be 72 ce 79 be 09 bc b9 3e f2 d2 f2 bd
       -0.18416691 -0.24395159 0.36276272 -0.11856641
000090 95 32 45 bd f0 e1 c9 be 5d 8a 66 3e c7 2c 0e 3e
       -0.048143942 -0.3943019 0.22513719 0.13884269
0000a0 7d 1c ef 3d e1 8b fe bd 7a da d4 3c 2f 40 71 3e
       0.116753556 -0.124290235 0.025983084 0.2355964
0000b0 88 34 ae bb 07 8f 7b be a1 0a a6 3e f6 94 20 bd
       -0.005316321 -0.2456628 0.32429984 -0.03920456
0000c0 29 e2 bd bd 9f 62 39 3d 1d 83 96 3e 67 0a 9b bb
       -0.09271652 0.045260068 0.29396906 -0.0047314647
0000d0 96 25 8a be 88 1e 09 be 93 50 5f 3d 9f 57 66 3e
       -0.269818 -0.13390553 0.0545202 0.22494362
0000e0 17 84 bb 3d c7 e9 0f 3e fd d9 a6 bd 33 f9 67 bb
       0.091560535 0.14054023 -0.08147047 -0.0035396337
0000f0 2b 94 d4 bd cc bd 42 be cc d2 a0 3e b1 4d 9b be
       -0.10379823 -0.19017714 0.31410825 -0.3033271
000100 df 82 ca bd ea 2b 06 bd cd 97 e3 3d 31 eb 2a 3d
       -0.09888243 -0.032756723 0.11112938 0.041728202
000110 56 4e 02 3d 9e 63 33 be e1 1e 4a be fd 4a 3e 3d
       0.03181299 -0.1751847 -0.19738342 0.046458233
000120 12 9b c6 3d dc 84 c6 3c b2 da 89 3c e7 3c a0 be
       0.09697546 0.024233274 0.016827915 -0.31296465
000130 17 f2 85 bc a7 0e 78 be 67 0c 7c 3d 62 7e c9 bd
       -0.016350789 -0.2422434 0.061535265 -0.09838559
000140 9b 9e 86 3c 3e 52 1e 3e 04 a3 fe 3d 27 ca 6c be
       0.01643305 0.1546106 0.124334365 -0.2312399
000150 94 57 eb 3d 09 6a 82 3d e7 d3 ac bd bf 08 49 3e
       0.114913136 0.06367881 -0.08438855 0.19632243
000160 a6 11 85 3e d3 14 dd bd fc ba 2f 3e 53 4a 97 be
       0.25990027 -0.107949875 0.17161173 -0.29548892
000170 f2 93 0e 3e 2a 41 7f be 24 1d f5 3d be 8e 29 3e
       0.13923624 -0.24927202 0.11968449 0.16558358
000180 82 3c 9e bd 99 3c bc 3d 34 eb 15 3e 93 87 7f be
       -0.07726385 0.091912456 0.14640504 -0.24954061
000190 6e d3 8c bd 87 17 10 be 7e 6a 25 3d a4 47 81 3e
       -0.068762645 -0.14071475 0.040384762 0.2524997
0001a0 ff 42 85 be 00 3b 45 3d 27 d5 25 3e 56 ca 30 3d
       -0.26027676 0.04815197 0.16194592 0.043161713
0001b0 70 a4 8b 3e 49 50 35 3e 33 7f 57 be 44 fc a7 bd
       0.27273893 0.17706408 -0.21044616 -0.08202413
0001c0 00 70 1f be 7e 4a 72 be fd 45 12 3e 30 3c 9f be
       -0.15570068 -0.23661229 0.14284511 -0.31100607
0001d0 c4 06 9b 3e 59 56 79 3e 34 c6 e2 bd 8d fd 84 3e
       0.302786 0.24349345 -0.110729605 0.25974694
0001e0 b5 7f 33 be 74 72 95 be 06 ee 84 3e c3 ab 1f be
       -0.17529185 -0.29188883 0.25962847 -0.15592866
0001f0 02 71 2d 3e 06 3b e7 bc 96 0a 90 3c 41 67 26 be
       0.1693764 -0.028226387 0.017583173 -0.16250326
000200 61 b2 cd 3e cc 0c 9a 3e 13 e0 60 bc 65 9e bd 3e
       0.40175155 0.30087888 -0.013725298 0.37034908
000210 a2 c7 bb be 67 b2 d1 bd 5f 1e 8b 3e b9 3b 82 3b
       -0.36675745 -0.10239106 0.2717161 0.0039744047
000220 1c 2d a1 be c8 7e 0a be 5a 80 47 3d 4d 4a a6 3e
       -0.31479728 -0.13524926 0.04870639 0.32478562
000230 91 21 2a bd 9b ba 84 be e5 60 83 be 4c 80 e7 bc
       -0.041535918 -0.2592362 -0.25659862 -0.028259419
000240 32 8a a8 3c 38 87 96 3e e0 14 93 be 4d 34 f4 3c
       0.02057371 0.2940004 -0.28726864 0.029810095
000250 4e ff 34 3c 7a c6 31 be 59 37 7e 3e e5 61 5e bd
       0.0110471975 -0.17360869 0.24825801 -0.05429258
000260 02 b0 da bd b7 c4 17 be fb b4 89 3e e8 9f 3c bd
       -0.10678102 -0.14821135 0.2689589 -0.046050936
000270 dc cf ef bd 4c b7 0f 3e 62 95 5c 3d d4 4e 1d 3c
       -0.11709568 0.14034766 0.0538534 0.009601314
000280 22 d5 40 3d 00 da 1c be 6c 19 0b 3e fa 39 40 3e
       0.04707826 -0.15317535 0.13583916 0.18772116
000290 9c a1 8a 3e 9c 35 56 3e 0d bb 5c 3e 06 a4 d5 3d
       0.27076423 0.20918888 0.21555729 0.104316756
0002a0 23 56 47 3d 52 8e 7b 3d 48 4a ab bc af a7 3e 3c
       0.04866613 0.061415024 -0.020909443 0.011636659
0002b0 e8 26 51 3d 50 54 1b bd 08 db d8 3c 69 b8 af 3d
       0.051062495 -0.037922204 0.02647163 0.08580095
0002c0 2b 5e cf bd f2 1c 0a be dc 65 10 3e a5 06 8d 3e
       -0.10125383 -0.13487604 0.14101356 0.27544132
0002d0 17 38 eb 3d a8 6e 13 3e 73 a6 63 be d7 38 5e bd
       0.11485308 0.14397681 -0.22231464 -0.054253425
0002e0 58 e4 cc 3e 47 5b e1 bd 6b 06 27 3d c0 9f 78 3e
       0.40017962 -0.11003738 0.040777605 0.2427969
0002f0 f8 f7 3c 3e 0c d3 18 3e da 18 db 3d 8d df 4e 3d
       0.18453968 0.14924258 0.106980994 0.050506163
000300 9c 85 7f 3e da 6c 67 be 76 88 f5 3d 3e 3f 48 3e
       0.24953312 -0.22600117 0.119889185 0.19555375
000310 fa 9f 88 3e d5 13 06 bd 35 bc b5 3c 59 53 b2 bd
       0.26684552 -0.032733757 0.02218447 -0.087073036
000320 9a 19 bf 3e 0a aa 02 be 10 d1 0b bd ad 9c f8 3d
       0.3732422 -0.12760177 -0.034134924 0.121392585
000330 32 d8 80 be 10 f4 c8 bd 6e 2e 21 3b 5f 32 15 3e
       -0.25164944 -0.09812176 0.0024594325 0.14569996
000340 53 49 28 be 7b dc ac 3d fe ff aa be be 9b cf 3e
       -0.16434221 0.08440491 -0.33398432 0.4054851
000350 8f f3 85 3e e7 91 27 3e ea 39 a0 3d 6f f7 b3 3c
       0.26162383 0.16364251 0.07823546 0.021968571
000360 c0 f8 54 bd 1e ef ab bd 6a 5d e5 3c d1 88 12 3e
       -0.05199504 -0.08395217 0.027998645 0.14310004
000370 e2 08 2d be 88 90 d5 3d fc d2 44 bd 15 4d c5 bb
       -0.1689792 0.10427958 -0.048052773 -0.006021152
000380 21 e6 4d be 5a cf b0 bd 61 cc 43 3e 8d 92 0c be
       -0.20107318 -0.08633299 0.19120933 -0.1372778
000390 b5 b0 53 be aa 62 92 3e 44 02 8b 3e eb 1e b0 bd
       -0.20672877 0.285909 0.27150166 -0.08599647
0003a0 3e 56 07 3d 00 55 59 be f5 96 42 be be 0e 6a bd
       0.03304123 -0.21223831 -0.19002898 -0.057142965
0003b0 85 aa 85 3d e6 57 4a 3e 26 e1 4d bd 33 0d 6b 3e
       0.06526665 0.19760093 -0.050263546 0.22954254
0003c0 cb a3 d6 bd 6b 10 1c bb ca 01 b3 3d 38 75 37 bd
       -0.1048046 -0.0023813497 0.087405756 -0.044789523
0003d0 d3 e8 88 bd 93 e8 11 3e b5 ec dd 3d f4 21 b3 bc
       -0.06685033 0.14248876 0.10836164 -0.021866776
0003e0 4e f6 78 3e 0b 2c 26 3d 9f dc da 3c da 97 74 3e
       0.24312708 0.040569346 0.026716528 0.23886052
0003f0 b5 fd bc 3d e0 0d 62 be 76 5f c6 3e 15 68 10 3e
       0.09228078 -0.22075605 0.38744706 0.14102204

linear1.bias f4 [256]
000000 93 af 82 be 20 4c 89 3e 39 fe 6d bd b8 90 b4 bd
       -0.25524577 0.2681589 -0.058103774 -0.088166654
000010 8a ab 7a 3e fd ee b0 3d f4 0b 4b 3e 05 63 75 bd
       0.244795 0.086393334 0.19828779 -0.059908886
000020 a3 2c bb 3c 41 ed 07 be 04 c3 3f 3e 8f 19 e1 3d
       0.022848433 -0.13274099 0.18726736 0.10991203
000030 e9 3b 7f 3e 70 10 a4 be 38 b4 87 be 59 4d b5 bb
       0.24925198 -0.3204379 -0.26504683 -0.005532902
000040 0f d6 1f 3d a6 f6 f6 3d d4 b6 d9 3c 84 75 2b be
       0.0390225 0.12058763 0.026576437 -0.16744047
000050 9e 6b 22 be 1f 00 a1 3d 11 08 a8 be 31 4c c4 bc
       -0.15861365 0.07861351 -0.32818654 -0.023962112
000060 73 a7 d3 3d 05 1b 2b be 3b 0c f2 bd a9 89 a6 bd
       0.10334673 -0.16709526 -0.11818739 -0.08131725
000070 b8 b7 2d be f3 a7 18 be 5a 20 e2 bd c7 12 d3 bd
       -0.16964614 -0.14907818 -0.11041327 -0.10306316
000080 48 7f 4b bd ed 82 bf bd ea 62 b6 bd 2d 7c f0 bd
       -0.04968193 -0.09351144 -0.08905585 -0.11742435
000090 8c e6 b5 bc ef 2f f2 3c ef 48 8c be 7c 89 14 3e
       -0.02220466 0.029563872 -0.27399394 0.14505571
0000a0 28 54 ef bd 34 cf 38 3d f8 40 6e 3e f4 9c 5d 3e
       -0.116859734 0.04511948 0.23266971 0.21641904
0000b0 9d 54 70 be 77 13 1d 3e 49 e4 13 3e e1 33 70 3e
       -0.23469777 0.15339456 0.14442553 0.2345729
0000c0 d3 68 7e be 7a 5e 5e 3e 7a ae 0f bd 8d 2a 18 bd
       -0.24844675 0.21715727 -0.035078503 -0.037149955
0000d0 f8 59 95 be b2 57 87 be 59 ce 40 3e 0c e5 0b bd
       -0.29170203 -0.26434094 0.18828715 -0.034153983
0000e0 9e f5 25 3e 4e d0 5f be 1a cb 04 3e 71 9c 8e 3e
       0.16206977 -0.21856806 0.12968102 0.2785373
0000f0 f7 10 56 be b7 c9 c7 3c fc bc 09 be b4 f2 8f be
       -0.20904909 0.024388177 -0.13450998 -0.28114855
000100 18 4f fd bc 02 28 2d bd 8b 9c 49 3d ba 37 19 bd
       -0.030921504 -0.042274483 0.049221557 -0.03740666
000110 ac 08 ea bd 77 08 62 3e 6a 5e 79 3d 1c 64 a6 bd
       -0.11427435 0.22073542 0.060881056 -0.08124563
000120 83 cd 83 be 8d 49 dd 3d f3 cc 1d bd a4 8d 58 be
       -0.2574273 0.10805044 -0.038525533 -0.21147782
000130 3f d0 7d 3d 06 22 a8 3d 46 9d 3b 3e d2 a6 9d 3d
       0.061966177 0.082096145 0.18321714 0.07697834
000140 ef 1b 0c be df c0 0c 3e 99 e9 15 3c 1c 67 29 be
       -0.13682531 0.1374545 0.009149932 -0.1654324
000150 cd 27 85 3e 8e ea 4a be 74 e9 6f be 5b ad 85 3d
       0.26006928 -0.19816038 -0.23428899 0.065272056
000160 b8 25 ae 3e f6 a8 0a 3d a8 db 62 bc ba 65 21 be
       0.34013152 0.03385254 -0.013846315 -0.15761462
000170 83 c7 53 be ac 78 94 3e 31 ad 4a 3e 74 22 6f bd
       -0.20681576 0.28998315 0.1979263 -0.058382466
000180 30 b5 28 be 47 3d 37 3e 52 df 8b be d6 39 27 3e
       -0.16475368 0.17894469 -0.27318817 0.16330656
000190 9d 56 36 3e c7 91 98 3d 87 62 1e 3d 0b 08 26 be
       0.17806478 0.0744968 0.03866818 -0.16214006
0001a0 03 38 7d bb 53 29 f0 bd 73 c1 24 be a7 34 9d 3e
       -0.0038638122 -0.11726632 -0.1608942 0.30704233
0001b0 bf ee 6c be b9 cb 83 be 6e c8 0b be b2 e2 47 bd
       -0.2313795 -0.25741366 -0.13650677 -0.048800178
0001c0 55 73 6a 3e f4 2b 11 3e b5 6c e7 bd d1 80 33 3d
       0.22895558 0.14176923 -0.11300031 0.04382402
0001d0 52 90 73 3e 4b cd 51 3e ad be 0a 3e c9 71 03 3e
       0.23785523 0.2048847 0.135493 0.12836374
0001e0 51 45 32 be 75 62 46 3e be 97 c9 3d 26 93 83 bd
       -0.17409255 0.19373496 0.09843396 -0.06424551
0001f0 b1 80 35 be 08 15 e9 bd a3 46 91 3d ef e0 8c bd
       -0.17724873 -0.113809645 0.07093551 -0.0687884
000200 4e 8d e9 3c d7 28 69 3e 76 5b 1e bd dd ab ca bd
       0.028509762 0.22769485 -0.038661443 -0.098960616
000210 46 41 35 be 64 03 65 3e 4a 3d fd bd 93 89 88 be
       -0.17700681 0.22364575 -0.123652056 -0.2666746
000220 47 84 a2 3d 17 d5 0b be b6 57 b7 3d 28 80 cb bd
       0.07935386 -0.13655506 0.089522764 -0.09936553
000230 11 42 4a be 3e aa 29 be 57 81 48 be 79 15 d9 3c
       -0.19751765 -0.16568848 -0.19580589 0.026499497
000240 bb 4a 93 3c 12 50 f8 3d 59 69 86 bd 59 90 43 bd
       0.01797997 0.12124647 -0.06563062 -0.047745083
000250 d6 a8 30 3c 36 fe 3e bc 40 6d 7e 3c 11 8e 82 bd
       0.010782441 -0.011657288 0.015528977 -0.06374753
000260 de 6b 8a 3d 32 a0 8f 3d e0 92 e1 3d 9b a0 3e bd
       0.06758855 0.07012977 0.11014342 -0.046539884
000270 43 f6 8f 3d 68 7a 00 bc 05 98 d4 bd 04 f9 66 3a
       0.070293926 -0.007841684 -0.10380558 0.000881091
000280 56 2f be 3d 08 2f 07 be ad 8e 51 3c 27 84 81 3e
       0.09286372 -0.13201535 0.012790364 0.25296137
000290 88 bf d6 bc 78 9b 1a be cf 50 cc 3d 28 b0 02 3e
       -0.026214376 -0.15098369 0.099763505 0.12762511
0002a0 22 94 a4 3e 61 6b 30 3d b1 32 53 3d cd b7 95 3e
       0.32144266 0.043071155 0.051562015 0.2924179
0002b0 9e 78 d9 bd 3b 88 7d be d0 74 06 be 1b 96 ab bd
       -0.10618709 -0.24758999 -0.13130498 -0.0837824
0002c0 56 26 84 bd 98 df 25 be 18 00 8c bd 88 88 bf be
       -0.064526245 -0.16198575 -0.068359554 -0.37408853
0002d0 28 50 4c 3e 9e 52 52 be 89 14 a0 bd 2e 24 9c 3d
       0.19952452 -0.20539328 -0.07816417 0.07624088
0002e0 ec 9c ac bd 1c f2 47 be 24 20 0c bd 22 2e 8f bd
       -0.08428368 -0.19525951 -0.03421034 -0.06991221
0002f0 3b eb 7e 3d 25 4a 53 3e 20 7e 62 3d e1 20 53 3d
       0.062236052 0.20633753 0.055296063 0.051545028
000300 65 a2 70 be 5e 87 c4 bb df bb d5 bd 9e 70 05 bd
       -0.23499449 -0.0059975823 -0.10436224 -0.032578103
000310 32 cb 66 3e ee 41 9a bd a0 20 1d 3e 5e d4 d2 3d
       0.2253845 -0.07532106 0.15344477 0.10294412
000320 31 9a 84 3e 2c 9d 3d bd 58 db ee bb b8 b2 66 3d
       0.2589889 -0.04629247 -0.0072893314 0.056322783
000330 ce d8 d2 bd 23 e5 78 3e 55 97 6e 3e 82 b9 5f bb
       -0.102952585 0.24306159 0.23299916 -0.003413767
000340 9e 2a 65 be ad af 42 3d 9c b9 60 3c 72 33 cb bd
       -0.22379538 0.04753082 0.013716128 -0.09921922
000350 6e 03 8d 3e 84 bb 60 be 63 ef 8a 3c c9 7e 5f be
       0.2754168 -0.21946532 0.016959852 -0.21825708
000360 08 75 64 3e 9f ce 70 3e c2 19 62 bd db cf f9 3d
       0.22310269 0.2351632 -0.055200346 0.121978484
000370 88 1b d0 3d 6f ad 9a bd 87 fa 7f b8 42 d6 0d be
       0.10161501 -0.07552611 -6.103006e-05 -0.13851264
000380 46 72 1f be 5e 1e e4 bd 6f 62 8a be 1e 45 5a 3e
       -0.15570936 -0.111386046 -0.27028224 0.21315429
000390 14 f1 68 bd be a2 7b 3e 7b 9c b3 bd 64 5e 11 3e
       -0.056870535 0.245738 -0.08770081 0.14196163
0003a0 3e 00 8d bd 42 e2 2f 3e da 65 34 3e 0c 0c 17 bc
       -0.06884812 0.17176154 0.17616978 -0.009219181
0003b0 32 10 83 be 1c 42 61 3e 2d ec 39 3e 19 b0 a1 3d
       -0.25598294 0.21997875 0.181565 0.07894916
0003c0 8f af aa 3d cc 0f 95 3d 41 73 06 be 37 5b ab bd
       0.083342664 0.07278404 -0.13129903 -0.08367007
0003d0 7e 36 97 bd 5f 10 a3 3e 39 38 46 be 40 cf a1 3e
       -0.073834404 0.31848428 -0.19357385 0.31603432
0003e0 0b b1 10 be 73 3e 45 bd 16 13 2e be 60 f3 14 38
       -0.14130037 -0.04815526 -0.16999468 3.551261e-05
0003f0 dc cd f7 bd f3 9a cf bd 83 f4 85 3e 9f 79 07 be
       -0.120998114 -0.10136976 0.2616311 -0.13229989

linear2.weight f4 [3, 256]
000000 3d 12 43 3b 07 0e 9e bd ca 64 9a 3d df f2 e1 3c
       0.002976551 -0.07717519 0.07538755 0.02758163
000010 91 25 f3 bd 28 36 cf bb a5 1b 27 bc 83 5a d6 bd
       -0.118723996 -0.0063235946 -0.010199462 -0.104664825
000020 95 91 e9 bd 88 f4 3c bc 9b e4 0c be f9 4d d1 bd
       -0.11404721 -0.01153291 -0.13759081 -0.1021995
000030 0a 59 3e bd 94 4b 9e 3c 8a c5 c9 bd 9b 46 39 3d
       -0.046471633 0.019323148 -0.09852131 0.04523335
000040 10 6d 1c be 94 10 f0 bc 02 2e 5a 3d 4b eb d7 3c
       -0.15275979 -0.02930478 0.053266533 0.026357314
000050 65 1e 1d 3e 02 b3 8e 3d c5 fc 9c 3d 2e 3d e2 3c
       0.15343626 0.06967737 0.076653995 0.027617063
000060 4c 41 d2 bc d6 2e 93 3d 58 d0 9e 3c 79 32 86 3d
       -0.025665902 0.071866676 0.019386455 0.06552596
000070 de a7 d6 bd b8 82 a9 3d 2c 93 f1 3c b4 97 a7 3d
       -0.10481237 0.08276886 0.029489122 0.08183232
000080 ad fb 46 3e 4b 68 e3 bd 86 26 09 3d 71 cc b2 bb
       0.19431944 -0.11103877 0.033484004 -0.0054565
000090 8f a5 47 3d 10 3f d0 bd 6e 93 59 3c 4d bf b8 bd
       0.048741873 -0.10168278 0.013279779 -0.09020863
0000a0 c3 8c 49 bd 98 91 96 3c 6e 1f 8a 3b ce 79 8d bd
       -0.049206506 0.018379971 0.0042151725 -0.06907998
0000b0 2c 36 e1 bc d5 c8 51 3d 8d 66 c2 bc ee 5a cd 3b
       -0.027491651 0.05121692 -0.02373054 0.006266943
0000c0 59 f0 5d bc 80 3b b0 3c 0b a1 0b 3e f8 60 09 bd
       -0.013546073 0.021512747 0.13635652 -0.033539742
0000d0 8d e0 fa 3c e9 36 96 3b 82 c9 59 3c c3 c2 7b 3d
       0.030624652 0.0045841825 0.013292672 0.061465036
0000e0 c0 d4 56 bd 27 13 4c bd b0 57 e0 bd ac ee 13 be
       -0.052448988 -0.049822953 -0.10954225 -0.14446515
0000f0 1e 84 83 3d 83 21 46 bd d3 cc dc 3d 37 3a 37 ba
       0.06421684 -0.048371803 0.107812546 -0.00069895707
000100 2a 72 16 bd 33 a1 bf 3d c4 ae 35 bd 44 fa 7f bd
       -0.03672997 0.09356918 -0.044356123 -0.06249453
000110 ad 8e 15 bd a1 56 34 3c f7 57 03 be 48 70 5b bc
       -0.03651302 0.011006982 -0.12826525 -0.013393469
000120 21 2d 19 bc 9d 16 a4 bd 57 78 af bd 26 08 4b 3d
       -0.0093491385 -0.08012126 -0.08567875 0.049568318
000130 96 95 f4 39 f6 d7 9e bb 01 37 92 bd 0e a7 6c bd
       0.00046650757 -0.004847522 -0.071393974 -0.057776503
000140 3b 65 1b 3d 14 79 50 bd a0 98 c2 3c d5 f1 80 3c
       0.037938338 -0.05089672 0.023754418 0.015740314
000150 2a ad dd bd 84 02 fd 3c 10 64 7a bc 8c c2 c4 3c
       -0.10824044 0.030884989 -0.015282646 0.024018548
000160 a7 e8 9a bd 4b 0f 11 be d1 2e 0b 3d 26 d8 4a bd
       -0.07563906 -0.1416599 0.033980194 -0.04952254
000170 59 dd b4 bd 7f df cd 3d 99 bd d0 bd a7 a2 ce bd
       -0.08831281 0.10052394 -0.10192413 -0.10089617
000180 7c 30 d2 3d eb a9 8b 3c 98 2d 02 bd 5a 43 77 3d
       0.10263154 0.017048797 -0.031781763 0.060366966
000190 3e 8a 01 bd f0 19 e3 bd 69 78 8e 3b 9a d3 61 bd
       -0.03162598 -0.110889316 0.00434785 -0.05513344
0001a0 3d 44 a1 bd ab 13 13 be a5 2e 14 bd fc bc 83 3c
       -0.078743435 -0.14362971 -0.036177296 0.016081326
0001b0 9d 32 04 bb 45 09 9e bd d2 31 4c 3d 11 26 1b 3d
       -0.002017177 -0.07716612 0.0498522 0.0378781
0001c0 37 7b ad bc 84 2d 2a 3d bd 19 de 3c 8b 47 da bd
       -0.021176917 0.041547313 0.027111882 -0.10658177
0001d0 c9 71 fe 3c f6 38 a2 3c e2 3b 2d bd d8 41 be 38
       0.031060116 0.019802552 -0.042293437 9.07217e-05
0001e0 3b 73 2c 3b 04 68 81 bd 6a 6c 36 3c d9 83 cb bc
       0.00263138 -0.063186675 0.011134246 -0.024843143
0001f0 a3 48 0d bd 36 9e e7 bd c4 b1 52 3d fc b3 8a bd
       -0.0344931 -0.11309473 0.05143906 -0.067726105
000200 f1 c9 ae bd 40 49 62 3d 43 04 c8 bb 65 c0 74 3d
       -0.08534611 0.055245638 -0.0061040237 0.059753794
000210 76 f1 31 be a0 c8 cc bd b8 7d ca bc 7d 08 7d 3d
       -0.17377266 -0.09999204 -0.02471815 0.061775673
000220 22 42 80 3d d0 fd de 3d c6 14 b7 bd ab 67 81 bd
       0.06262614 0.10888255 -0.08939509 -0.06318601
000230 ed 77 c2 3c 65 58 cc bd ee 94 08 be 53 a7 a8 3d
       0.023738826 -0.099777974 -0.13338062 0.082350396
000240 b9 5b b2 3d 95 43 71 3d 89 f5 94 3d a5 f7 b0 3c
       0.08708901 0.058902342 0.072733946 0.021602461
000250 cb 1a 03 3c 22 d4 2b 3c 34 99 a2 3c d2 ae b3 bd
       0.008001993 0.010487588 0.019848444 -0.08773579
000260 46 8d b7 3c 09 9d ad bd f6 0c c1 bc e0 52 69 3c
       0.022406232 -0.08477218 -0.02356575 0.01424095
000270 b1 f5 4b bd fb 84 88 3d 78 5c d7 3d 7c 0f 5f 3b
       -0.049794856 0.06665989 0.10515684 0.003403633
000280 2a 21 1a be 60 58 66 bb 91 d8 b0 bd b7 5f 8f bd
       -0.15051714 -0.003514789 -0.08635057 -0.07000678
000290 51 4a ad b9 28 9c e9 3d 53 6f 99 3d 51 f1 74 bc
       -0.000330525 0.114067376 0.074919365 -0.014950112
0002a0 18 1a b0 bd 73 29 93 bd 89 77 67 3d 44 4b 3c bd
       -0.08598727 -0.0718564 0.056510482 -0.045970216
0002b0 bc 7c ec 3c f0 fe 83 3d 10 72 17 3d f1 19 52 bd
       0.028868072 0.0644511 0.036974013 -0.05129427
0002c0 f2 2a 3f bc d3 cf 9b 3c 15 39 18 3c bb 9b 01 bc
       -0.011667954 0.019019997 0.009290953 -0.007910664
0002d0 e8 1f d3 bd 69 27 c1 3c a8 f4 62 bc 69 9c c3 bc
       -0.1030882 0.023578363 -0.013852276 -0.023878293
0002e0 e8 d1 d4 3d c8 61 ef bd 9a 4f 5b 3d d5 60 78 3d
       0.10391599 -0.11688572 0.05354271 0.06063922
0002f0 e2 7a 3f bd 1a d8 c6 bd d0 37 d5 bb 04 7e b4 bd
       -0.04674805 -0.09709187 -0.0065068975 -0.08813098
000300 3c 98 e6 bc c3 c0 24 be 4e ae f6 bd b0 a8 59 3d
       -0.028148763 -0.16089158 -0.12044965 0.05313939
000310 67 48 d1 3d 1d 9f c4 bd 1f 0c a5 3c 53 16 fb 39
       0.10218888 -0.09600661 0.020147381 0.00047891084
000320 aa 7f 09 bd b4 7f b3 bd a9 18 d5 ba d6 c5 f9 b9
       -0.033569016 -0.08764592 -0.001625796 -0.0004764038
000330 77 c7 c3 bd c2 46 31 3d 2c 19 f2 bd 2a f6 85 bd
       -0.09559529 0.04328037 -0.118212074 -0.06541093
000340 6a d9 d3 3c 2c f2 18 bc 16 cc 84 3c d8 83 15 bd
       0.025860507 -0.009335082 0.016210597 -0.03650269
000350 42 90 9f bd 68 32 c9 bc ce d4 19 3d e2 0f a9 3b
       -0.07791187 -0.024560168 0.037556462 0.005159364
000360 5b da 9f 3c e3 f0 be bd 0f 21 65 bd 33 b7 9f 3c
       0.0195133 -0.09323289 -0.05593973 0.019496536
000370 ae 85 32 bb 74 a7 cd 3c 1e 40 73 bc 63 95 1d 3c
       -0.0027240324 0.025104262 -0.01484683 0.009618136
000380 82 18 1b be 10 f3 96 3d 09 16 92 3d 51 c4 82 bd
       -0.15146068 0.07370579 0.07133109 -0.06385101
000390 6f 07 06 bd 18 5a 8f bd 09 4e b4 bc 2d ac 89 bc
       -0.032721933 -0.06999606 -0.022009866 -0.016805733
0003a0 8f 0d 86 bd 7f df ce bc 5e 49 bd bc 9b fc 11 3d
       -0.06545555 -0.025253056 -0.023106273 0.035641294
0003b0 18 aa 31 bd f9 e1 bd bc b3 c5 a6 bd 0e de 04 3c
       -0.043375105 -0.023179041 -0.08143177 0.008109583
0003c0 2b 7a 49 bd da 6f bc 3d 3c b2 52 3d b8 e9 af 3d
       -0.049188774 0.092010215 0.05143951 0.085895
0003d0 b6 f1 a1 bd 6b 5d ed bc af c2 93 3d 35 90 9a bd
       -0.07907431 -0.02897521 0.07214867 -0.075470366
0003e0 81 e9 b7 bc 01 8f f6 bc 9e 16 c2 3d e7 3f 6f be
       -0.02245021 -0.030097486 0.0947697 -0.2336422
0003f0 32 17 01 3e 9e 4d 4a 3d 8d 65 79 bd 78 7a a9 3d
       0.12606505 0.049390428 -0.060887862 0.08275312

linear2.bias f4 [3]
000000 35 c3 61 bd e3 f2 5a bd ac cd e7 bd
       -0.055117805 -0.05345429 -0.11318526
