model_hybrid/checkpoint_20251029_195524_score3.pth (torch, 21281 bytes, 4 tensors)

linear1.weight f4 [256, 14]
000000 e0 f0 f3 3d 92 f0 00 be 56 be 42 3e 00 a7 c4 3d
       0.11911178 -0.1259177 0.1901792 0.09602165
000010 99 9b 29 be 76 d9 33 3e 14 b3 3c be 58 23 5c 3d
       -0.16563262 0.17563424 -0.18427688 0.053744644
000020 c7 29 64 3e 34 2a 82 3d ce bc 46 3d ac dc 69 3d
       0.22281562 0.06355706 0.048519902 0.057095215
000030 ec 37 92 3d f3 a0 89 bb f7 36 ea 3d 45 58 66 3e
       0.071395725 -0.004200095 0.11436265 0.2249461
000040 a5 45 a8 be 78 76 bb 3d f9 eb 0b 3e 4b de 52 bd
       -0.32865635 0.091534555 0.13664235 -0.051481526
000050 de 46 31 be 67 3c e2 bc ab 80 39 3e a0 db 8d 3c
       -0.1731219 -0.027616693 0.18115489 0.01731664
000060 71 55 54 be 06 e4 25 3e a3 83 68 3e 75 a7 49 3e
       -0.20735718 0.16200265 0.22706465 0.19692786
000070 24 54 91 3d 7f 29 96 3d 2a 3b 87 bd 9e 0c 90 3e
       0.07096127 0.073321335 -0.066030815 0.28134626
000080 90 30 97 bd 3b fa 81 be 92 f6 9b 3e a9 43 79 bd
       -0.073823094 -0.25386223 0.30461556 -0.06085554
000090 fc e5 c1 bd 53 48 88 be cc 06 61 3e 9b 13 11 3e
       -0.09467694 -0.2661768 0.21975249 0.14167635
0000a0 20 1a c8 3d c7 5c bb bd 53 95 43 3e dd 9e 17 3e
       0.09770608 -0.09148555 0.19099931 0.14806695
0000b0 80 2f 91 3c b3 18 23 be be bc 89 3e 06 98 c2 bc
       0.017722845 -0.15927391 0.2690181 -0.023754131
0000c0 b7 60 b2 bd e7 ab 66 3d 18 72 92 3e d1 86 83 bc
       -0.08709853 0.056316283 0.28602672 -0.016055496
0000d0 0f 8c 83 be f1 ba 1f be 93 26 5a 3d 02 48 68 3e
       -0.25692794 -0.15598656 0.053259443 0.22683719
0000e0 9e 1c 20 3d e4 99 8f 3c c0 01 e1 bb b3 b0 79 bc
       0.03908979 0.017529435 -0.0068666637 -0.015239882
0000f0 cd 5f 0a be 94 74 06 be 73 19 80 3e 05 79 39 be
       -0.13513108 -0.13130409 0.25019416 -0.18112572
000100 70 41 18 be bb 2b 91 bd a0 22 06 3e 17 f9 00 3d
       -0.14868712 -0.07088419 0.13099146 0.03148755
000110 10 5e 85 3d 80 62 2f be 30 f8 5a be 9e 71 7c bd
       0.065120816 -0.17127419 -0.21383739 -0.06163179
000120 42 87 1e 3e 1a 43 8b 3d 4b ab 66 3d 2e fb 8a be
       0.15481284 0.06799908 0.0563157 -0.2714476
000130 50 1f c5 bd 42 c1 31 be fc 05 b6 3d 05 77 02 be
       -0.09625113 -0.17358878 0.0888786 -0.12740715
000140 6d e4 c2 3c 8e f6 4e 3e 8d 50 1e 3e 99 5f 28 be
       0.023790563 0.2021124 0.15460415 -0.16442718
000150 0f 03 65 3e 09 31 3d bd 64 2d 5e bd a9 dd 52 3e
       0.22364448 -0.04618934 -0.054242507 0.20592369
000160 e7 69 84 3e 5f dc 83 bd 64 d2 03 3e 59 f7 8f be
       0.25862047 -0.06438517 0.12873226 -0.281184
000170 12 fe 23 3e f1 6d 90 be 10 e6 08 3e 0b 0c 36 3e
       0.16014889 -0.2820888 0.13369012 0.17778032
000180 6e 51 83 bd 3a 78 02 3e 0f ff f3 3c fc 6e 4a be
       -0.06412016 0.12741175 0.029784707 -0.197689
000190 da 6a 11 be 6b 81 fb bd a7 19 61 bd f4 d8 4a 3e
       -0.14200917 -0.12280544 -0.054956105 0.19809324
0001a0 14 cb 36 be d8 e2 b9 bd ba 06 06 3e 30 8f 9d 3d
       -0.17850906 -0.0907647 0.13088503 0.076933265
0001b0 48 18 74 3e cb a3 01 3e 28 37 64 be 04 70 0a be
       0.23837388 0.12660138 -0.22286665 -0.13519293
0001c0 5c 6b 8f be 78 a2 4e be a4 44 fb 3d a1 56 75 be
       -0.28011596 -0.20179164 0.122689515 -0.23958828
0001d0 72 d3 7f 3e 95 a8 0f 3e 67 10 64 bd f9 b1 4b 3e
       0.24983004 0.14029153 -0.055679705 0.1989211
0001e0 e5 cb 4e be 00 f4 90 be 65 30 5e 3e f5 65 50 be
       -0.20194967 -0.28311157 0.21698149 -0.20351394
0001f0 df d3 2e 3e 42 5e 91 bd 50 17 24 bc 45 b8 b2 bd
       0.1707301 -0.070980564 -0.010015324 -0.08726553
000200 73 ad 84 3e 6e bf 85 3e 9e 2b a2 3c 93 a0 9f 3e
       0.2591358 0.26122612 0.019796189 0.31177196
000210 4e 0d 6c be af b7 1b bd 0a a4 3e 3e 30 f7 c4 3c
       -0.2305195 -0.03801697 0.18617263 0.02404365
000220 a7 39 9a be da 0f 3a be a3 5e dc 3c ec 3f 98 3e
       -0.3012211 -0.1817011 0.026900595 0.2973627
000230 cf f5 0e be 05 1a 6d be 82 76 91 be 15 28 9c 3c
       -0.13960956 -0.23154457 -0.28410727 0.019062081
000240 91 81 27 bc 7b 10 62 3e b1 60 35 be 79 7e 51 bc
       -0.010223762 0.220766 -0.17712666 -0.012786501
000250 a8 8d bc 3c 51 ec 0c be 1f ee 6f 3e a3 08 80 bd
       0.023016766 -0.13762023 0.2343068 -0.06251647
000260 c5 09 dd bd b1 4a 2c be 3a c0 64 3e 65 a8 ad 3c
       -0.10792879 -0.16825368 0.22338954 0.02119846
000270 07 6a 67 be 5b 35 24 3e 90 ce 7f 3d 98 54 d1 bc
       -0.2259904 0.16035978 0.062452853 -0.025553033
000280 3b f4 81 bb 79 9d fa bd 38 a1 b0 3d d6 57 0c 3e
       -0.003965882 -0.12237067 0.086245 0.13705382
000290 de c5 80 3e 7c 3b 46 3e ae f6 56 3e f9 e8 cd 3d
       0.2515096 0.19358629 0.20992538 0.10054202
0002a0 82 16 0e 3d ee 5e 06 3d f1 23 e6 bd 99 c7 6b 3c
       0.034689434 0.032805376 -0.11237324 0.0143908495
0002b0 86 b5 7f 3d f6 af 05 bd b6 c9 f5 bc 04 14 04 3e
       0.062428974 -0.032638513 -0.03000341 0.1289826
0002c0 c9 7e 19 be d2 b3 37 be f1 4c 07 3e 12 4f 87 3e
       -0.14989771 -0.1793969 0.13212945 0.26427513
0002d0 8f 23 e0 3d 0f 96 2c 3e e8 1d 6a be e0 94 14 bc
       0.10944282 0.16854118 -0.22862971 -0.009068698
0002e0 4c 1c 9b 3e 02 e6 ec bd 11 6f 69 3d f3 b7 7b 3e
       0.30295026 -0.11567308 0.056990687 0.2458189
0002f0 24 51 48 3e 3f 23 4e 3e b2 ba cf 3d c6 61 92 3d
       0.19562203 0.20130633 0.10143031 0.07147555
000300 55 dd 6a 3e 8d 8d 63 be 1a 04 17 3e 22 cc 3c 3e
       0.22935994 -0.22221966 0.14747658 0.18437245
000310 a6 84 5e 3e a7 8c f6 bc 29 3f bc ba b3 0d f8 bc
       0.21730289 -0.030096365 -0.0014362085 -0.03027997
000320 81 42 9e 3e 12 9f e4 bd b3 bb 8e bc 14 09 1b 3e
       0.30910113 -0.11163153 -0.017423486 0.15140182
000330 14 e0 80 be 1d 9d 09 be 22 f9 35 bd 3a bb 14 3e
       -0.25170958 -0.1343884 -0.044427045 0.14524546
000340 69 59 52 be 39 fb c8 3d fd eb 76 be 61 ff 88 3e
       -0.2054192 0.09813542 -0.2411346 0.2675734
000350 6d 2e 69 3e bb 1c 04 3e ec bc aa 3d 69 5d 2a 3d
       0.22771616 0.12901585 0.08336815 0.04159299
000360 a7 a1 2f 3d 7f 5a f3 bd 59 ba df 3c b2 40 46 3e
       0.042878773 -0.11882495 0.027310537 0.19360617
000370 b6 ee 23 be a5 7b e4 3d 81 6c 3b bd 1f b3 e1 3c
       -0.1600903 0.11156396 -0.045757774 0.027551232
000380 60 32 62 be 45 ab 83 bd db 02 08 3e c6 ba 05 be
       -0.22089529 -0.064291514 0.1328234 -0.1305953
000390 2e c0 82 be 89 4b 6e 3e bc 07 4d 3e 97 ce 4e be
       -0.25537246 0.23271002 0.20022482 -0.20195995
0003a0 84 0f ce ba 32 dd 45 be 32 9f 44 be 1a 69 b9 bd
       -0.0015721177 -0.1932266 -0.19201353 -0.0905325
0003b0 c0 26 67 3d 58 e5 14 3e 2a f5 22 bd ad d1 1d 3e
       0.05643344 0.14540613 -0.039784588 0.15412016
0003c0 e9 50 2f be 14 ba 30 3c a1 73 c9 3d 50 27 b9 bc
       -0.17120709 0.010786552 0.098365076 -0.022601753
0003d0 92 a2 01 be 9c 48 41 3e e2 2a a6 3d 27 ce 80 bd
       -0.12659672 0.18875355 0.08113648 -0.062893204
0003e0 95 26 80 3e 07 95 2a 3d 52 81 de 3c 6c 14 91 3e
       0.25029436 0.04164603 0.027161274 0.28335893
0003f0 84 c2 f6 3d 91 1b 3f be 93 15 a9 3e 21 1c 1b 3e
       0.1204882 -0.1866286 0.33024272 0.15147449

linear1.bias f4 [256]
000000 4a 2d 93 be 36 73 81 3e fc 62 62 bd 93 c9 e1 bd
       -0.2874549 0.2528321 -0.05527018 -0.11024775
000010 00 2f 70 3e c2 1b 09 3e 41 89 57 3e 5c 0a e2 bd
       0.23455429 0.13389495 0.21048452 -0.11037132
000020 5b a5 ca bc 54 7e 37 be 40 57 37 3e 37 25 c1 3d
       -0.02473705 -0.17919284 0.17904377 0.09430926
000030 be cc 73 3e cd 20 a2 be bb ef 87 be dd 94 e5 3a
       0.23808572 -0.3166565 -0.26550087 0.0017515678
000040 54 95 b8 3b 37 2b f9 3d d4 7d 7a 3d 02 33 17 be
       0.0056330357 0.12166446 0.061155155 -0.14765552
000050 1e 60 32 be aa 98 dc 3d 20 18 91 be d8 3c 53 bc
       -0.17419478 0.10771306 -0.28338718 -0.012892924
000060 e9 91 f3 3d 04 1c 3b be e9 d2 d5 bd 06 f6 19 be
       0.118930645 -0.18272406 -0.104406185 -0.15035257
000070 8f 2a 27 be 91 3b 02 be 5a 20 e2 bd db 11 05 be
       -0.16324829 -0.12718035 -0.11041327 -0.12995093
000080 43 4c de bd 13 50 9c bd 85 8e fb bd 1a 67 e7 bd
       -0.108543895 -0.076324604 -0.12283043 -0.11298962
000090 92 34 15 3b a7 d6 71 3d 28 02 77 be b9 a7 33 3e
       0.002276693 0.0590426 -0.24121916 0.1754445
0000a0 67 0d a0 bd 93 33 50 3d 93 26 64 3e 6e f5 44 3e
       -0.07815056 0.050830435 0.2228034 0.19234249
0000b0 9d 54 70 be 0a 1a fe 3d b9 1e 1b 3e c6 ce 7a 3e
       -0.23469777 0.1240731 0.15148439 0.2449294
0000c0 9d 64 7e be 00 43 4b 3e f3 20 56 bd 77 21 80 3c
       -0.24843068 0.19849777 -0.052277517 0.015640957
0000d0 c3 e3 85 be ab 96 7e be 25 19 3c 3e 2c e6 12 bc
       -0.2615033 -0.24862163 0.18368967 -0.00896601
0000e0 65 fb 22 3e 5f 13 4c be f7 7c f6 3d f8 31 8b 3e
       0.15916212 -0.19929264 0.12035554 0.2718656
0000f0 45 ed 7f be e5 df a7 3c d1 9e 7d bd 92 b9 8f be
       -0.24992855 0.020492503 -0.061919037 -0.28071266
000100 e5 63 9d bd 86 41 10 bd 18 1f 81 3c ea 8f 0a bd
       -0.07685069 -0.035218738 0.015761897 -0.033828653
000110 03 a1 e7 bd 2e 8d 4b 3e f0 dd 5f 3d 1c 64 a6 bd
       -0.113100074 0.19878075 0.054655015 -0.08124563
000120 59 de 75 be 6f 25 f1 3d 87 35 8a bd a4 8d 58 be
       -0.240106 0.11774718 -0.06748491 -0.21147782
000130 a5 e2 94 3d 6f 29 db 3d 00 d6 39 3e e0 e3 c6 3d
       0.072697915 0.10701262 0.18148041 0.097114325
000140 ff e0 ee bd 7b 6a dd 3d 64 fa 25 bd 1c 67 29 be
       -0.11664008 0.10811325 -0.040521994 -0.1654324
000150 48 85 3d 3e 48 f5 48 be c2 56 77 be ef f1 ce 3d
       0.18507874 -0.19624817 -0.24154189 0.10104739
000160 84 b0 8e 3e d7 a0 3d bc c4 bf ed b7 ba 65 21 be
       0.27869046 -0.011573992 -2.83419e-05 -0.15761462
000170 65 6a 51 be c4 a2 84 3e 80 29 42 3e 4c ed 8b bd
       -0.20450743 0.2590543 0.18961143 -0.0683237
000180 8d 59 58 be 90 ca 4d 3e 09 9c 76 be c6 fd 23 3e
       -0.21127911 0.20096803 -0.2408296 0.16014776
000190 e7 32 29 3e ea 8c f2 3c d8 54 3e 3d 7e 08 1a be
       0.16523324 0.029608209 0.046467632 -0.15042302
0001a0 1b d4 7c 3c 30 9d f9 bd b1 41 0d be 74 4a 92 3e
       0.015431429 -0.12188184 -0.1379459 0.28572428
0001b0 58 89 5e be 38 83 7a be 0b 60 ea bd 11 72 87 bd
       -0.2173208 -0.24464118 -0.114441 -0.06613553
0001c0 f0 4c 6c 3e 91 b1 ed 3d d3 8e 6e be 64 ad 4d 39
       0.23076224 0.11606134 -0.2329667 0.00019614917
0001d0 3b ab 6a 3e 28 00 32 3e 27 0f ea 3d 43 4d 0f 3e
       0.22916882 0.17382872 0.11428671 0.13994317
0001e0 d9 c2 31 be d0 34 63 3e 40 e6 ac 3d 04 de b5 bd
       -0.17359485 0.22188115 0.08442354 -0.08880237
0001f0 cd b6 2e be d1 c6 eb bd 57 4e 2b 3d 58 cc 00 be
       -0.1706192 -0.115125306 0.041822758 -0.12577951
000200 36 87 ab 3c d2 e1 66 3e bc 84 27 3d 8f c3 94 bd
       0.020938497 0.22547081 0.04089807 -0.07263862
000210 ff 58 76 be 20 77 61 3e 04 fd dc bd b9 f2 91 be
       -0.24057387 0.22018099 -0.107904464 -0.28505495
000220 ae ab 98 3d 21 c3 36 be 29 ec b6 3d eb da d0 bd
       0.0745462 -0.17847873 0.08931763 -0.10198005
000230 f1 b1 2e be 1b c3 13 be 73 3f 4d be d4 74 ad 3c
       -0.17060067 -0.14429896 -0.20043735 0.021173872
000240 e2 16 9d 3a d9 90 2b 3e 7f c5 af bd f4 6c e1 bd
       0.0011984969 0.16754474 -0.08582591 -0.11007109
000250 dd 68 9a 3b 59 e9 6a bc 40 6d 7e 3c 01 77 0f bd
       0.0047122077 -0.014337861 0.015528977 -0.0350256
000260 e4 fb 21 3d bf 35 13 3c 02 d4 00 3e 86 82 78 bc
       0.039546862 0.008984982 0.12580875 -0.015167838
000270 f1 de cc 3d c4 3b 63 3d 2a 0b d1 bd 3c 36 8f bc
       0.1000346 0.05547692 -0.102072075 -0.017481916
000280 bd 53 de 3d 08 2f 07 be 27 02 13 3c 47 0d 57 3e
       0.108558156 -0.13201535 0.008972681 0.21001159
000290 f3 59 c0 bc 10 61 20 be 68 e4 d3 3d d0 25 f0 3d
       -0.023480391 -0.15662026 0.103462994 0.11725962
0002a0 71 3c 94 3e 56 eb 22 3d 4c f9 88 3d 95 09 88 3e
       0.28952363 0.039775215 0.066881746 0.2656981
0002b0 9e 78 d9 bd 40 cf 7e be 88 96 3d be 72 f4 26 bd
       -0.10618709 -0.24883747 -0.18514454 -0.040760465
0002c0 91 9f c1 bd b8 15 6f be 2d 59 43 bd f2 e8 9f be
       -0.09454263 -0.23348129 -0.047692467 -0.3123241
0002d0 70 bb 54 3e b4 ce 31 be 0d f8 ab bd 13 22 57 3d
       0.20774627 -0.17364007 -0.08396921 0.05252273
0002e0 db 11 c3 bd e3 fb 66 be 24 20 0c bd 80 c0 cb bd
       -0.0952489 -0.22557025 -0.03421034 -0.09948826
0002f0 bc a0 6a 3d 0f a7 81 3e 61 f7 58 3d 97 37 31 3d
       0.057282194 0.25322768 0.052970294 0.043265905
000300 65 a2 70 be 47 d2 0e bc 9e 4b b1 bd b7 1f 94 bd
       -0.23499449 -0.008717126 -0.08657001 -0.072326116
000310 e7 0e 52 3e a9 00 32 be e1 d0 22 3e 7b cc dc 3d
       0.20513497 -0.17383064 0.15899993 0.10781189
000320 c1 8a 86 3e a7 44 84 bd 1d cb aa 3c 10 1e 30 3d
       0.26277736 -0.06458407 0.020848805 0.04299742
000330 2a 2c 00 be ee 63 6c 3e 2e fb 6c 3e a1 0e 01 3d
       -0.12516847 0.23084995 0.23142692 0.03150809
000340 b0 7e 3e be 65 91 81 3d 53 34 14 3d ee b3 ba bd
       -0.18603015 0.0632656 0.036182713 -0.0911635
000350 4d 3f 8a 3e 84 bb 60 be 3f c3 7a 3d 4e f3 7a be
       0.2700142 -0.21946532 0.061221357 -0.24506876
000360 04 89 5b 3e 60 bd 78 3e 04 d6 5f bd 89 c0 06 3e
       0.21438986 0.24290991 -0.05464746 0.13159384
000370 25 7c b2 3d 9b e2 29 bd 2d a0 8d 3d e9 21 a3 bd
       0.08715085 -0.041475873 0.06915317 -0.07965452
000380 cc 95 2f be 00 5e 10 be 47 be 85 be 06 2a 64 3e
       -0.17146987 -0.14098358 -0.26121733 0.22281656
000390 5f 2d 57 bd a9 86 5b 3e 6f 85 db bd d8 4f e2 3d
       -0.052533504 0.21438088 -0.1071881 0.11050385
0003a0 66 4d 3d bc 6d fe 4a 3e d1 82 37 3e 2e e2 03 3d
       -0.011554098 0.19823618 0.17920996 0.032198124
0003b0 32 10 83 be a5 b6 3f 3e 1f 6c 49 3e 1f 98 e5 3d
       -0.25598294 0.18722017 0.19670151 0.112106554
0003c0 5c ba d8 3d 4a 5e 63 3d 41 73 06 be a5 7a f8 bd
       0.1058242 0.055509843 -0.13129903 -0.121327676
0003d0 b1 1d d0 bd 74 c2 97 3e 15 dd 43 be 19 d5 94 3e
       -0.10161913 0.29640543 -0.19127305 0.2906883
0003e0 74 6c ef bd 60 75 8c bd da 8c 28 be 72 1d 77 bd
       -0.11690608 -0.06858325 -0.1645998 -0.060330816
0003f0 8b 45 9a bd 46 4b a3 bd 4d c9 86 3e 68 e6 31 be
       -0.075327955 -0.07973342 0.26325455 -0.1737305

linear2.weight f4 [3, 256]
000000 cf ad a5 3c 0e 02 97 bd 34 91 21 3d c5 f6 a0 ba
       0.02022448 -0.07373439 0.039445117 -0.0012280574
000010 97 56 87 bd 2b bf e8 bc b5 e7 b6 bb b5 88 05 bd
       -0.066083126 -0.028411468 -0.005581821 -0.032601077
000020 b2 d6 b7 bc a5 3e 83 bc 49 7a 19 bd c5 fd 9c bd
       -0.022441242 -0.016021082 -0.037470136 -0.0766559
000030 7b 37 30 bd 04 70 2d 3d a1 cc ae bd 53 4a 4d 3d
       -0.04302166 0.042343155 -0.085351236 0.05011971
000040 81 46 43 bd 21 5d f8 bc 84 c3 96 3d 1c 91 2e 3d
       -0.04767466 -0.030317845 0.073615104 0.042618856
000050 a1 b8 04 3e ab 78 f3 3c 3a b8 c4 3d 03 f1 32 3d
       0.12961055 0.029720625 0.09605451 0.043686878
000060 8b f2 77 bc c8 12 78 3c 14 02 10 3d 2a 52 d4 3c
       -0.01513351 0.015141197 0.03515823 0.025918085
000070 77 57 a7 bd dd dd 9a 3d 2c 93 f1 3c a3 6b 47 3d
       -0.081709795 0.07561848 0.029489122 0.048686635
000080 13 ee e9 3d f4 b9 97 bd dc d5 79 3d 18 75 d7 bc
       0.11422362 -0.074085146 0.060994968 -0.026300952
000090 11 62 43 3d 11 c7 1d bd 1b bb bc 3b 92 da 13 bd
       0.047700945 -0.038519923 0.0057596094 -0.036097117
0000a0 9c 6d 46 bd df b9 62 3d b9 29 7e bc 1f fa 4d bd
       -0.048444375 0.05535304 -0.015512877 -0.050287362
0000b0 2c 36 e1 bc 62 3e 8d 3d 73 e5 2c 3d 1f d4 48 3d
       -0.027491651 0.06896664 0.042211007 0.04903042
0000c0 c4 af 5d bc 1f 75 c9 3c 62 e1 f4 3d ab 73 07 bd
       -0.013530675 0.02459198 0.11957051 -0.033069294
0000d0 e6 20 79 3d f8 cf be 3c 74 bf 2a 3d d7 fc a2 3d
       0.06082239 0.023292527 0.04168649 0.079583816
0000e0 e8 a5 5e bd 05 1d 51 bd a9 e1 a5 bd 32 e0 ba bd
       -0.05435744 -0.051053066 -0.08099682 -0.09124793
0000f0 60 30 1f 3d 93 83 55 bd 3b ce fc 3d 8a d5 88 b9
       0.038864493 -0.052127432 0.12344023 -0.0002609904
000100 27 94 74 bb 81 dc 95 3d 93 f4 80 bc c8 55 3f bd
       -0.003731975 0.073174484 -0.015741622 -0.046712667
000110 8a 99 15 bd 37 18 56 3c b7 76 b2 bd 48 70 5b bc
       -0.03652338 0.013067297 -0.08714049 -0.013393469
000120 56 14 e6 bb 9b d4 9a bd c1 b8 97 bd 26 08 4b 3d
       -0.007021467 -0.075600825 -0.07408286 0.049568318
000130 87 98 8b 3c 17 64 d7 3c e5 a2 f4 bb 57 73 88 bc
       0.017040504 0.026292844 -0.0074657076 -0.01665656
000140 ec 5b 10 3d 11 ef 8c bc a0 74 ad 3c d5 f1 80 3c
       0.035243914 -0.01720384 0.021173775 0.015740314
000150 15 15 6b bd 88 c5 57 3d 23 a9 c2 3c 03 8d 5c 3c
       -0.057393152 0.052678615 0.023762291 0.013461354
000160 33 7d 5f bd 24 c5 ab bd 4c a1 49 3d 26 d8 4a bd
       -0.05456276 -0.08387211 0.04922609 -0.04952254
000170 f9 0d 58 bd b7 88 6d 3d a9 18 94 bd 13 6b f4 bc
       -0.0527477 0.05799171 -0.07231266 -0.029836213
000180 39 18 72 3d da 6e 03 bc 43 5d 28 bb 60 c5 3c 3d
       0.05910513 -0.008022035 -0.0025690354 0.04608667
000190 8a 36 ab bb 94 15 82 bc 21 39 8e 3b 3e 69 1c bd
       -0.0052250074 -0.01587943 0.0043403064 -0.038186304
0001a0 33 1a 5b bd f0 85 64 bd e3 25 40 3d 70 78 eb ba
       -0.053491782 -0.055791795 0.04691113 -0.001796497
0001b0 de 38 c7 3c 38 b7 9e bc 77 cb 2f 3d 8a 18 7f 3b
       0.024319109 -0.019374475 0.04291865 0.0038924539
0001c0 b9 91 28 bd f1 6a 8f 39 12 97 95 bc 81 2d 84 bd
       -0.041154597 0.00027354763 -0.018260513 -0.06453992
0001d0 0e 21 87 3c 65 ff a7 3c 19 96 05 3c d0 20 11 3c
       0.016495254 0.020507524 0.008153462 0.008857921
0001e0 7f ab 48 bc 44 1f 2a bd ec 08 1d 3d 28 c4 63 3c
       -0.012247919 -0.041533723 0.038338587 0.013901748
0001f0 13 04 41 3c c8 89 8c bd 01 aa 2e 3b 50 d4 92 bc
       0.0117807565 -0.06862217 0.0026651623 -0.017923504
000200 3a e3 2e bd bb 52 1e 3d f3 3c 0e 3c 83 c8 41 3d
       -0.04269717 0.038653117 0.008681524 0.047310364
000210 4b 51 f6 bc b6 9d bf bd 7f 9c f1 bc 78 f5 2c 3c
       -0.03006806 -0.09356253 -0.029493568 0.010556571
000220 9b 78 83 3d bd e0 41 3d 1c e6 ae bc 04 c6 2c bd
       0.06419488 0.047333468 -0.02134996 -0.04218103
000230 86 73 83 3d 44 78 b1 bd 48 b2 7f bd 97 cd 2c 3d
       0.06418519 -0.08665517 -0.06242588 0.042188253
000240 6e 45 d5 3c 8f 8f c3 ba 21 34 3e 3c e8 ce 1a 3d
       0.026034083 -0.0014920103 0.011609108 0.037794977
000250 6d 92 cd bb 1b 68 9d 3c 34 99 a2 3c 85 fa 52 bb
       -0.006273559 0.01921468 0.019848444 -0.0032192778
000260 29 ba 6c 3d 4e 86 8c bc d6 05 54 3c f9 01 33 3d
       0.057794724 -0.017153885 0.0129408445 0.043703053
000270 32 55 4f bc e3 87 3e 3d a3 48 75 3d ad d0 94 3c
       -0.0126545895 0.04651631 0.059883725 0.01816591
000280 55 39 88 bd 60 58 66 bb aa 9d 7e bc c4 99 48 bd
       -0.0665156 -0.003514789 -0.01554052 -0.048974767
000290 b2 4e df 3c 42 7e 10 3e 66 60 89 3d 5e 69 66 bc
       0.027259205 0.14110664 0.0670784 -0.014063207
0002a0 b6 88 3c bd fa b3 8f bc 28 81 22 3d a1 93 f2 bc
       -0.046028815 -0.017541874 0.039673954 -0.02961141
0002b0 bc 7c ec 3c 1c d1 c9 3c 15 67 6a 3d 89 14 4c bd
       0.028868072 0.024635844 0.057227213 -0.04982427
0002c0 eb f5 8a bc b7 0d 0d 3c 5b 2e c1 3c f7 0c 26 3c
       -0.016962966 0.008609227 0.023581674 0.010134927
0002d0 de 43 a7 bd bc be e3 3c 43 16 74 bc 54 8f 1a 3d
       -0.081672415 0.02780091 -0.014897886 0.037734345
0002e0 2c f9 6f 3d c4 ac 8f 3c 9a 4f 5b 3d e1 cd 5d 3d
       0.05858724 0.017538436 0.05354271 0.05415142
0002f0 09 4c c7 bc e7 29 55 bd 21 93 27 bc a3 0f f2 ba
       -0.024328249 -0.052041914 -0.010227949 -0.0018467795
000300 3c 98 e6 bc 82 4f 9a bd 09 81 45 bd f3 28 1a 3d
       -0.028148763 -0.07534696 -0.04821876 0.03763671
000310 e3 f0 3a 3d 71 98 3d bd 95 c3 05 3d fc 36 85 3c
       0.045639884 -0.046287958 0.032657225 0.01626157
000320 0a 54 89 bc df 28 09 bd 37 73 84 bc 29 04 fb 3c
       -0.016763706 -0.033486243 -0.01616822 0.030641632
000330 00 68 0e bd f9 46 a8 3c 90 7e 69 bd ec 76 8f bc
       -0.03476715 0.020541655 -0.057005465 -0.017512761
000340 26 43 08 3d fb e7 63 3c ea 5d 48 3c 66 2c 82 3c
       0.033267163 0.013910289 0.012229422 0.015890311
000350 b2 2e 21 bd 68 32 c9 bc 0f ea 38 3c ed c3 ba 3c
       -0.039351173 -0.024560168 0.011286273 0.022798503
000360 b5 ec d1 3c 99 76 8f bd 74 bf 4c bd 67 5c 1a 3d
       0.025625566 -0.070050426 -0.04998727 0.037685778
000370 a8 d4 b8 3c d6 bc fd 3c 54 76 bc 3c 3f 29 05 bd
       0.02256234 0.030973833 0.023005642 -0.03251004
000380 12 51 95 bd f0 1e 57 3d 70 68 91 3d 2c a6 b5 bc
       -0.072908536 0.05251974 0.07099998 -0.022173963
000390 db 9d 83 bc 97 ff 8c bd 9c 9c 24 bd 7f 36 27 bc
       -0.016066482 -0.068846874 -0.040188417 -0.010205864
0003a0 fa ce 58 bd 46 5a d1 bc 2d 28 3a 3c d0 5f 23 3d
       -0.052931763 -0.025555741 0.011362118 0.039886296
0003b0 18 aa 31 bd f9 b4 20 3c 60 d5 7f bd f0 b0 f0 3a
       -0.043375105 0.009808772 -0.06245935 0.0018363278
0003c0 27 14 a5 bd 6c 3e d3 3c 3c b2 52 3d d4 de cc 3c
       -0.080604844 0.025786601 0.05143951 0.025008596
0003d0 4a 9a 1e bc e7 30 96 bc bd 1b 86 3d a9 67 6a bd
       -0.00968034 -0.018333865 0.065482594 -0.057227764
0003e0 03 cb fb bc 52 a2 19 3d 2c a7 1a 3d 16 50 8c bd
       -0.030736452 0.037508316 0.037757084 -0.06851213
0003f0 94 78 f6 3d df 8f 6b 3d f9 f5 60 bd 44 21 62 3c
       0.12034717 0.057510253 -0.054922078 0.013801876

linear2.bias f4 [3]
000000 1c c0 1b bd a7 a1 f9 bc 95 aa 96 bd
       -0.038025007 -0.03047259 -0.07356755
