model_hybrid/checkpoint_20251029_200828_score18.pth (torch, 21291 bytes, 4 tensors)

linear1.weight f4 [256, 14]
-0.10285552 -0.43845856 0.60970414 0.05185784 -0.08774295 0.4038295 -0.49508885 -0.32599154
0.4134213 0.024683747 -0.102787465 0.14553562 0.10527179 -0.038481485 0.2220326 0.65783006
-0.50908774 -0.11132841 -0.010353638 -0.109009124 -0.021817256 -0.027848363 0.19144246 0.040208206
-0.21787478 -0.048750076 0.10370893 -0.10276482 -0.056402665 0.4368169 -0.288891 0.4942772
-0.37858012 -0.18733549 0.39396304 -0.17662154 0.1385329 -0.50151813 0.28752562 0.18011384
-0.05902391 -0.19265705 -0.023844017 0.37045857 -0.06723571 -0.33424556 0.483464 -0.3115737
-0.1321048 0.0010470424 0.38776198 -0.15516976 -0.41267183 -0.10226346 0.0870399 0.11067635
0.32433763 0.46268642 -0.31284264 0.014159353 -0.19818257 -0.05624354 0.21425174 -0.20139489
0.12267477 -0.033974126 0.08639681 -0.03855289 0.16965102 -0.38847187 -0.2845481 0.1980111
0.09078295 -0.15290822 -0.17522691 -0.25984725 0.003506647 -0.32959664 0.034943655 -0.17159571
-0.004267029 0.06330312 0.062263276 -0.3920663 0.004514399 -0.24626097 -0.2019201 -0.056837942
0.4715952 -0.19540003 0.6041447 -0.40365243 0.06797569 -0.7941767 0.13381101 0.5074964
-0.5310532 0.1365223 0.49344692 -0.5255058 0.09356848 -0.11772296 0.039040852 0.34741703
-0.49527898 0.025298255 0.11290041 -0.043978058 0.37190917 0.15360646 -0.3022976 -0.08029406
0.06466432 -0.34139502 0.21371719 -0.45130676 0.39816847 0.23432262 -0.048865154 0.5058138
-0.43745148 -0.3688139 0.33357954 -0.20513597 0.20765565 -0.0047072037 -0.17105928 -0.2871429
0.7978346 0.4219582 -0.08645305 0.4032114 -0.42960063 -0.30275524 0.4432753 0.049977444
-0.43228698 -0.077327564 0.1074344 0.13704468 0.16229902 -0.18793312 -0.19832271 0.01829227
-0.008571008 0.51875347 -0.6464727 -0.10456725 -0.07799045 -0.38632458 0.5041635 -0.03836522
-0.1360084 -0.067722864 0.49563554 0.26650503 0.15538111 0.009841491 -0.09025963 -0.041637164
-0.07337235 0.13021934 0.27018914 0.40950543 0.38260323 -0.08039255 0.11589753 0.017751308
0.36041373 0.3654709 0.11291959 -0.30788034 -0.055112656 -0.048940606 0.036017556 0.036598347
-0.056944627 -0.048454106 0.13102408 -0.08220794 0.06621612 -0.3229106 -0.21495254 -0.37939572
0.83751756 -0.018394222 0.0053466936 0.31714624 0.08461169 0.058639985 0.2914274 0.07855807
0.256798 -0.21023467 0.10674855 0.07982783 0.57725346 -0.007933663 0.21734379 -0.18094982
0.53264654 -0.17490824 -0.053732872 0.27887183 -0.43636486 0.18958732 0.050468102 0.1358902
0.0029903734 0.15676385 -0.5527184 0.8236141 0.40456712 0.0047556385 -0.047479898 0.06529731
0.0067849234 -0.037878603 0.13526712 0.15853988 -0.13963518 0.069458984 -0.055223428 -0.021349428
-0.18028067 -0.14221218 0.04124799 -0.27515066 -0.3758592 0.26912552 0.4393433 0.27107015
0.31502432 -0.51888674 -0.3509324 -0.13740693 0.13236164 0.13561766 0.2508358 0.7159261
0.059101384 -0.11164794 -0.035056558 -0.060052216 -0.13949166 0.31434366 0.29818207 0.32855645
0.3766226 -0.22155495 0.10139011 0.16578268 -0.084742576 -0.49634588 0.81349057 0.06057284
00000000: eaa5 d2bd a47d e0be 9215 1c3f e368 543d
00000010: 93b2 b3bd bdc2 ce3e 497c fdbe 5de8 a6be
00000020: f5ab d33e 9235 ca3c 3c82 d2bd 4a07 153e
00000030: bc98 d73d c39e 1dbd 845c 633e 8d67 283f
00000040: 9353 02bf 2600 e4bd 4ea2 29bc 2d40 dfbd
00000050: 1aba b2bc 4022 e4bc 7e09 443e 5cb1 243d
00000060: 911a 5fbe 29ae 47bd 5965 d43d 5d76 d2bd
00000070: 7b06 67bd 77a6 df3e 85e9 93be e711 fd3e
00000080: 41d5 c1be e0d4 3fbe 86b5 c93e 47dc 34be
00000090: 92db 0d3e 7e63 00bf 8f36 933e c36f 383e
000000a0: 0ec3 71bd e447 45be 8754 c3bc bfac bd3e
000000b0: e0b2 89bd 3c22 abbe 9888 f73e 9786 9fbe
000000c0: 7b46 07be ea3c 893a bd88 c63e d2e4 1ebe
000000d0: b949 d3be 816f d1bd fa41 b23d 48aa e23d
000000e0: 950f a63e 3ce5 ec3e e92c a0be a2fc 673c
000000f0: 5ff0 4abe a05f 66bd cf64 5b3e 763a 4ebe
00000100: e93c fb3d 7428 0bbd d0f0 b03d a3e9 1dbd
00000110: ffb8 2d3e c9e5 c6be 4ab0 91be 6cc3 4a3e
00000120: 69ec b93d f993 1cbe af6e 33be b30a 85be
00000130: c6cf 653b e4c0 a8be 1421 0f3d c9b6 2fbe
00000140: 6fd2 8bbb 11a5 813d c707 7f3d eabc c8be
00000150: 86ed 933b d62b 7cbe 25c4 4ebe e7ce 68bd
00000160: ed74 f13e f216 48be 3aa9 1a3f 88ab cebe
00000170: d736 8b3d 2a4f 4bbf c105 093e 49eb 013f
00000180: 1af3 07bf 80cc 0b3e 13a5 fc3e 8c87 06bf
00000190: d5a0 bf3d bc18 f1bd 4de9 1f3d a5e0 b13e
000001a0: 3595 fdbe 493e cf3c 5538 e73d 5622 34bd
000001b0: e16a be3e 034b 1d3e c0c6 9abe 3671 a4bd
000001c0: ba6e 843d 54cb aebe aed8 5a3e ae11 e7be
000001d0: bddc cb3e 45f2 6f3e d426 48bd 037d 013f
000001e0: a4f9 dfbe 2dd5 bcbe f0ca aa3e 2a0f 52be
000001f0: afa3 543e e33e 9abb 2a2a 2fbe 6504 93be
00000200: e33e 4c3f e80a d83e 4c0e b1bd ba71 ce3e
00000210: 9df4 dbbe bc02 9bbe fbf4 e23e 26b5 4c3d
00000220: b854 ddbe ea5d 9ebd 9106 dc3d 7155 0c3e
00000230: b731 263e 8a71 40be 1c15 4bbe acd9 953c
00000240: 6a6d 0cbc 07cd 043f 3c7f 25bf 5b27 d6bd
00000250: 75b9 9fbd 56cc c5be dc10 013f d924 1dbd
00000260: c945 0bbe 49b2 8abd f1c3 fd3e 5973 883e
00000270: 3a1c 1f3e 343e 213c 0ada b8bd bb8b 2abd
00000280: 3e44 96bd 3858 053e 3b56 8a3e b2aa d13e
00000290: 92e4 c33e d9a4 a4bd af5b ed3d 316b 913c
000002a0: 2688 b83e 001f bb3e 6342 e73d 7ea2 9dbe
000002b0: cfbd 61bd f275 48bd 2587 133d 26e8 153d
000002c0: c53e 69bd d077 46bd 2d2b 063e a35c a8bd
000002d0: 519c 873d 8a54 a5be 851c 5cbe 2840 c2be
000002e0: 8d67 563f 7baf 96bc 5133 af3b fe60 a23e
000002f0: e548 ad3d 7b30 703d f935 953e 0ee3 a03d
00000300: 077b 833e c247 57be fc9e da3d c67c a33d
00000310: e2c6 133f 32fc 01bc 5f8f 5e3e e94a 39be
00000320: 865b 083f 251b 33be 0017 5cbd 4ac8 8e3e
00000330: 376b dfbe 2e23 423e a4b7 4e3d cd26 0b3e
00000340: 24fa 433b b486 203e f47e 0dbf 60d8 523f
00000350: 6c23 cf3e 30d5 9b3b 487a 42bd 99ba 853d
00000360: 1054 de3b 9826 1bbd 7783 0a3e 4758 223e
00000370: 86fc 0ebe 8340 8e3d f631 62bd ffe4 aebc
00000380: 7f9b 38be 12a0 11be a7f3 283d 8ce0 8cbe
00000390: 9e70 c0be d2ca 893e 9bf1 e03e b5c9 8a3e
000003a0: de4a a13e c3d5 04bf 69ad b3be 67b4 0cbe
000003b0: cf89 073e 5bdf 0a3e 8d6d 803e ef46 373f
000003c0: 4b14 723d ada7 e4bd 7797 0fbd 50f9 75bd
000003d0: e7d6 0ebe a7f1 a03e 52ab 983e 8d38 a83e
000003e0: add4 c03e 4ddf 62be 9ea5 cf3d efc2 293e
000003f0: 848d adbd 0c21 febe eb40 503f 3a1b 783d

linear1.bias f4 [256]
-0.19901523 0.042079907 -0.016833346 -0.05652477 0.16451368 -0.004913468 0.54020065 -0.08336736
-0.026360614 -0.07481931 0.20319502 -0.17967035 -0.10839715 -0.3046707 -0.2748569 -0.04035372
-0.0412417 -0.14153694 0.038737148 -0.10122633 -0.040563237 0.1763622 -0.35668936 -0.08314038
-0.05140983 0.07289947 0.019367024 -0.070487335 -0.18907417 0.013214947 -0.11041327 -0.07955553
0.13026723 -0.14352296 -0.05505346 -0.12403215 0.03693624 0.009117647 -0.32168093 0.073378526
-0.16371214 0.043979235 0.34530082 -0.07398977 -0.25818664 0.0990856 0.071505055 0.39918768
-0.27901644 0.38918173 0.047444575 -0.038485087 -0.29170203 -0.25232273 0.3297775 -0.08585055
-0.033885896 -0.24255992 0.2962407 0.2872521 -0.03987709 -0.16459511 -0.19358611 -0.32657033
-0.14884943 -0.0734009 -0.120247975 0.0856574 -0.119629115 1.0428445 -0.052794065 -0.08124563
-0.23753954 -0.08658225 -0.19079196 -0.21147782 0.20889297 0.09446694 0.11900922 0.00054842397
0.14533512 0.1359286 0.03602604 -0.18764438 -0.0022278912 -0.22993168 -0.26066652 0.1480124
0.12965551 -0.108143404 0.018096829 -0.15761462 -0.25977954 0.38294637 -0.012910257 -0.1347033
0.0063649435 -0.010494809 -0.20287688 0.17571802 0.035357427 0.1106851 0.03866818 -0.18596962
-0.06312603 -0.1315349 -0.17791599 0.28538474 -0.23298205 -0.37757233 -0.21157083 0.26945242
0.17920296 0.21396407 0.120262854 -0.2277283 0.45248747 0.18915679 0.21480815 -0.006765951
-0.09942504 0.05881633 0.16760904 -0.2029365 -0.16541962 -0.19513969 0.17290477 -0.052213714
0.20750502 0.09436418 0.9162628 -0.09411434 -0.20456232 0.07086196 -0.03454511 -0.15954864
0.12720731 -0.10398441 0.038966056 -0.21333449 -0.18123923 -0.24233149 -0.23295787 0.07169521
0.07852859 0.33134055 -0.032524757 -0.05464838 -0.017542394 -0.0037280284 -0.028242825 -0.08726631
0.015316162 -0.13279392 0.15343393 -0.029497355 -0.0001651506 0.32437673 0.075388215 0.10559877
0.05530622 -0.13201535 -0.023844367 0.23908158 0.018449334 -0.03454267 0.065968044 0.14517297
0.048879247 0.040540304 0.12669453 0.14294747 -0.15754353 -0.03593281 -0.042603485 -0.04615073
-0.100239865 -0.06745661 -0.20619483 -0.26495773 0.10450812 -0.35770684 0.035373647 -0.052513056
0.047694005 -0.22054403 -0.03421034 0.023682002 0.42448652 0.37872767 0.17338187 0.07411005
-0.23499449 -0.049636975 -0.15916541 -0.043314535 0.2717513 -0.23907152 -0.060616698 -0.11128966
0.11749638 -0.10840707 -0.11228222 0.06138924 -0.057939187 0.3188461 0.21203265 -0.064866565
-0.26464525 -0.1064411 -0.054601144 -0.148693 0.04972849 -0.21946532 0.26430777 -0.15590131
0.17076987 0.92232585 -0.0055575683 -0.10415278 0.13596267 0.037524 -0.013110526 -0.110604554
-0.14948918 -0.11403111 -0.2628656 0.100754365 0.47578308 0.22620142 0.23404045 0.111591935
-0.033204008 -0.06434358 0.1133333 -0.041841656 -0.25598294 0.18492614 0.7121309 0.12937707
0.23388343 0.1543966 -0.13129903 0.032727797 -0.06701764 0.080565825 -0.14166771 0.10294875
-0.14585805 0.028671032 -0.018244304 -0.06495855 -0.18353327 0.16255178 0.02544908 -0.07388999
00000000: a6ca 4bbe fb5b 2c3d 16e6 89bc 8486 67bd
00000010: 4676 283e 2801 a1bb 974a 0a3f 82bc aabd
00000020: 37f2 d7bc de3a 99bd 5b12 503e 81fb 37be
00000030: 53ff ddbd ccfd 9bbe 0bba 8cbe f149 25bd
00000040: 0fed 28bd 0fef 10be d8aa 1e3d c04f cfbd
00000050: a325 26bd 4b98 343e fd9f b6be 8145 aabd
00000060: 1d93 52bd 514c 953d 98a7 9e3c aa5b 90bd
00000070: a99c 41be 8183 583c 5a20 e2bd 02ee a2bd
00000080: c664 053e aff7 12be bd7f 61bd 9104 febd
00000090: 744a 173d 2f62 153c 5db3 a4be 7b47 963d
000000a0: 28a4 27be 9223 343d 45cb b03e f387 97bd
000000b0: 0a31 84be 64ed ca3d 3e71 923d 5462 cc3e
000000c0: 3edb 8ebe d442 c73e 3e55 423d 8aa2 1dbd
000000d0: f859 95be 7230 81be 99d8 a83e 6ad2 afbd
000000e0: f0cb 0abd a161 78be dcac 973e b512 933e
000000f0: 2956 23bd 9f8b 28be 703b 46be 3a34 a7be
00000100: fc6b 18be 3653 96bd 9244 f6bd 266d af3d
00000110: 1c00 f5bd ee7b 853f 973e 58bd 1c64 a6bd
00000120: 913d 73be 0952 b1bd f85e 43be a48d 58be
00000130: 0ae8 553e e277 c13d 1bbb f33d 1cc4 0f3a
00000140: bbd2 143e de30 0b3e 0a90 133d d925 40be
00000150: d001 12bb 3673 6bbe 1576 85be 9090 173e
00000160: 6ac4 043e 4a7a ddbd cd3f 943c ba65 21be
00000170: d301 85be 8c11 c43e 8b85 53bc a9ef 09be
00000180: 0491 d03b 6bf2 2bbc f5be 4fbe 6def 333e
00000190: f3d2 103d dfae e23d 8762 1e3d d26e 3ebe
000001a0: 3848 81bd 16b1 06be 9c2f 36be f31d 923e
000001b0: d992 6ebe 2951 c1be 06a6 58be abf5 893e
000001c0: fb80 373e 6619 5b3e 5f4c f63d 9c31 69be
000001d0: 70ac e73e 51b2 413e abf6 5b3e e9b4 ddbb
000001e0: 5b9f cbbd 64e9 703d b4a1 2b3e 96ce 4fbe
000001f0: c363 29be b3d2 47be f30d 313e 0cde 55bd
00000200: 327c 543e 0242 c13d 3390 6a3f 05bf c0bd
00000210: c978 51be 1320 913d 2c7f 0dbd b860 23be
00000220: a242 023e c7f5 d4bd df9a 1f3d 5b74 5abe
00000230: c796 39be bf25 78be 828c 6ebe f0d4 923d
00000240: 99d3 a03d 78a5 a93e ae38 05bd fbd6 5fbd
00000250: 11b5 8fbc f051 74bb 7f5d e7bc aeb8 b2bd
00000260: a4f0 7a3c 21fb 07be c91d 1d3e 70a4 f1bc
00000270: 472c 2db9 b514 a63e 2365 9a3d 2b44 d83d
00000280: c688 623d 082f 07be 4355 c3bc cdd1 743e
00000290: 0f23 973c 9d7c 0dbd 411a 873d 39a8 143e
000002a0: 9b35 483d 970d 263d 36bc 013e d260 123e
000002b0: 1753 21be 482e 13bd fe80 2ebd 8c08 3dbd
000002c0: 8f4a cdbd b126 8abd bd24 53be 8aa8 87be
000002d0: 5a08 d63d 5a25 b7be f5e3 103d ee17 57bd
000002e0: ca5a 433d 4bd6 61be 2420 0cbd c200 c23c
000002f0: 4c56 d93e 98e8 c13e 048b 313e 03c7 973d
00000300: 65a2 70be 2450 4bbd 42fc 22be 956a 31bd
00000310: fd22 8b3e 2acf 74be 3749 78bd d5eb e3bd
00000320: f1a1 f03d 8704 debd 38f4 e5bd 4973 7b3d
00000330: a451 6dbd cc3f a33e 161f 593e c3d8 84bd
00000340: 957f 87be cbfd d9bd 73a5 5fbd fa42 18be
00000350: 1ab0 4b3d 84bb 60be 5953 873e 98a4 1fbe
00000360: 4cde 2e3e 8c1d 6c3f 431c b6bb 0d4e d5bd
00000370: cc39 0b3e c4b2 193d 88cd 56bc a484 e2bd
00000380: b113 19be 2589 e9bd 5296 86be 4e58 ce3d
00000390: d799 f33e 58a1 673e 4da8 6f3e 508a e43d
000003a0: ed00 08bd 91c6 83bd 4a1b e83d 2862 2bbd
000003b0: 3210 83be 475d 3d3e 364e 363f 6c7b 043e
000003c0: 237f 6f3e 241a 1e3e 4173 06be 950d 063d
000003d0: 8b40 89bd b2ff a43d 5711 11be cbd6 d23d
000003e0: d05b 15be 83df ea3c 1475 95bc fd08 85bd
000003f0: 25f0 3bbe f973 263e 977a d03c a353 97bd

linear2.weight f4 [3, 256]
0.13898334 0.014510484 0.28814253 0.19000754 -0.1495926 0.027939659 0.4656264 -0.28389642
-0.4740248 0.185116 -0.4977985 -0.23822689 -0.10545291 -0.07838923 -0.698869 0.057331778
-0.43818885 -0.3087268 0.09347687 0.35891575 0.2697029 0.40738985 0.11226747 0.0327784
-0.111542426 0.36241877 0.16820809 0.40447 -0.5347286 0.38209644 0.029489122 0.44419786
0.52860796 -0.09001366 0.17715329 -0.2727571 0.024535455 -0.64224076 -0.017763365 -0.38448974
-0.19907562 0.35365194 0.20887348 -0.2965102 -0.004007588 0.18233076 -0.14388585 0.3759841
-0.013546073 0.38984668 0.21531138 0.33951938 0.030624652 0.12660776 0.21598092 0.48300192
-0.13821621 -0.029438967 0.17657349 0.14663304 0.44963312 -0.025677418 0.06583892 0.015209496
0.06220598 0.22945803 0.005266295 0.13039833 -0.03651302 0.33448896 -0.24523842 -0.013393469
0.12593883 -0.11993773 -0.07585329 0.049568318 0.25353944 -0.20138735 -0.105219826 -0.15452473
0.71182436 0.23938741 0.05415572 0.018173002 -0.20042355 -0.018625077 -0.34561205 0.4430918
-0.14092325 -0.31248134 0.37010723 -0.04952254 0.1437791 0.26960742 -0.13269201 -0.28921342
0.35869786 -0.06719472 -0.22805628 0.21541539 -0.07908898 -0.6570305 0.00434785 -0.055185515
-0.24347043 -0.5960461 -0.29025602 0.059371512 -0.050237738 -0.35938603 -0.16714978 0.42507663
-0.054319203 0.38596573 0.12743722 -0.045683425 0.38343194 0.195413 -0.14112054 -0.07854881
0.12176453 -0.23723625 0.19019872 -0.2072697 0.0057138028 -0.44583654 0.1836808 -0.23275678
0.112889335 0.061772216 0.30743408 0.49390367 -0.7102515 -0.32591292 0.31512403 0.5376604
0.04027289 -0.028829267 -0.36920163 -0.03015392 -0.083511546 -0.13531768 -0.62734914 0.2178388
0.07356727 0.34818533 0.27186993 -0.3700685 0.08098454 0.4780591 -0.029291712 -0.28029418
0.13502096 -0.25620684 -0.38807023 -0.13381754 -0.25562057 0.19610271 0.37746668 0.3398817
-0.8147787 -0.003514789 -0.4068882 0.032463174 0.2532797 0.36639696 0.16351268 0.10504156
-0.16309085 -0.50031734 0.2928635 0.122998856 0.010959086 0.5128177 0.15049571 -0.35518143
-0.044971664 0.34859574 -0.042201605 0.0052621826 -0.20556381 -0.13776748 -0.5070863 -0.17855458
0.35706097 -0.4212969 0.05354271 0.12950997 0.16598108 0.23892649 0.17742464 -0.36186156
-0.028148763 -0.4241245 -0.71636945 0.3856101 0.22860709 -0.2548891 -0.0011289313 -0.22698817
-0.10781166 -0.13737875 -0.16418715 0.16761217 -0.47801936 0.44264537 -0.16854693 -0.29016775
-0.008428338 -0.20096417 0.008600109 -0.44675705 -0.23722543 -0.024560168 0.6242928 0.045120746
0.10038838 0.22728729 0.08475412 -0.075580515 0.34555998 0.11309929 -0.30507258 -0.16275351
-0.54923075 0.22962008 0.10708497 -0.16791771 0.33125788 0.16844717 0.37637264 -0.34169465
-0.5294388 -0.0048216004 -0.05955235 -0.100876436 -0.043375105 -0.23288529 0.17736839 0.17047866
0.33660057 0.35287547 0.05143951 0.4760038 -0.21334757 -0.13423431 -0.04415232 -0.13557965
0.22228342 -0.2427196 0.43741673 -0.56922233 0.056360766 0.3682582 -0.21499062 0.55190533
00000000: a651 0e3e 62bd 6d3c 6b87 933e 5691 423e
00000010: cd2e 19be b6e1 e43c 9566 ee3e df5a 91be
00000020: 61b3 f2be 0c8f 3d3e 72df febe c0f1 73be
00000030: b2f7 d7bd 888a a0bd 14e9 32bf bad4 6a3d
00000040: 4a5a e0be 7011 9ebe cd70 bf3d cec3 b73e
00000050: 8016 8a3e 6795 d03e 7dec e53d a542 063d
00000060: 5b70 e4bd f48e b93e be3e 2c3e b116 cf3e
00000070: f9e3 08bf 25a2 c33e 2c93 f13c e76d e33e
00000080: da52 073f 1559 b8bd ac67 353e d2a6 8bbe
00000090: 94fe c83c e469 24bf 7a84 91bc d7db c4be
000000a0: 7bda 4bbe de11 b53e eee2 553e 2fd0 97be
000000b0: 1652 83bb eab4 3a3e d056 13be fd80 c03e
000000c0: 59f0 5dbc fc99 c73e 967a 5c3e 7cd5 ad3e
000000d0: 8de0 fa3c 77a5 013e 1a2a 5d3e 074c f73e
000000e0: 8d88 0dbe fd29 f1bc aecf 343e f926 163e
000000f0: 5036 e63e 7359 d2bc 8ed6 863d 4031 793c
00000100: b3cb 7e3d 0cf7 6a3e e290 ac3b 2487 053e
00000110: ad8e 15bd 2342 ab3e c81f 7bbe 4870 5bbc
00000120: 1cf6 003e eaa1 f5bd f858 9bbd 2608 4b3d
00000130: eccf 813e 7c38 4ebe 7e7d d7bd bb3b 1ebe
00000140: 1f3a 363f f921 753e 63d2 5d3d 8cdf 943c
00000150: d53b 4dbe 9e93 98bc 10f4 b0be eedc e23e
00000160: 2f4e 10be 8efd 9fbe b27e bd3e 26d8 4abd
00000170: d43a 133e fc09 8a3e 6ae0 07be c813 94be
00000180: 3fa7 b73e 639d 89bd 9687 69be da95 5c3e
00000190: 67f9 a1bd 2733 28bf 6978 8e3b 350a 62bd
000001a0: 5050 79be 7a96 18bf 709c 94be 8b2f 733d
000001b0: 16c6 4dbd 7201 b8be 5029 2bbe a5a3 d93e
000001c0: d07d 5ebd 4d9d c53e e77e 023e 8b1e 3bbd
000001d0: 3151 c43e 581a 483e e781 10be 33de a0bd
000001e0: af5f f93d 0fee 72be 74c3 423e 823e 54be
000001f0: da3a bb3b b044 e4be d216 3c3e cb57 6ebe
00000200: 8632 e73d dd04 7d3d 0068 9d3e f1e0 fc3e
00000210: 0bd3 35bf 0fde a6be f057 a13e 1da4 093f
00000220: 30f5 243d 5b2b ecbc ff07 bdbe 5b05 f7bc
00000230: 1a08 abbd b890 0abe f499 20bf 2211 5f3e
00000240: 70aa 963d 5945 b23e 8932 8b3e 9e79 bdbe
00000250: 39db a53d 2ac4 f43e 2cf5 efbc b882 8fbe
00000260: ef42 0a3e 8b2d 83be 24b1 c6be 7707 09be
00000270: b3e0 82be 26cf 483e 5043 c13e f904 ae3e
00000280: 5695 50bf 6058 66bb a653 d0be 1bf8 043d
00000290: e0ad 813e 6298 bb3e de6f 273e 0820 d73d
000002a0: 4a01 27be cc14 00bf 34f2 953e d3e6 fb3d
000002b0: bd8d 333c 0548 033f 8c1b 1a3e 57da b5be
000002c0: 3534 38bd 247b b23e 97db 2cbd 636e ac3b
000002d0: 527f 52be eb12 0dbe 68d0 01bf 03d7 36be
000002e0: b2d0 b63e 3ab4 d7be 9a4f 5b3d 439e 043e
000002f0: f2f6 293e 25a9 743e ceae 353e eb45 b9be
00000300: 3c98 e6bc d926 d9be fd63 37bf b06e c53e
00000310: fa17 6a3e d380 82be a6f8 93ba 966f 68be
00000320: 5ccc dcbd 04ad 0cbe ad20 28be 86a2 2b3e
00000330: f4be f4be 6aa2 e23e 9197 2cbe de90 94be
00000340: 0317 0abc 8dc9 4dbe 79e7 0c3c 57bd e4be
00000350: 39eb 72be 6832 c9bc a7d1 1f3f 88d0 383d
00000360: 6c98 cd3d 00be 683e 9193 ad3d f5c9 9abd
00000370: 3ded b03e 9aa0 e73d 7932 9cbe dba8 26be
00000380: 639a 0cbf 8721 6b3e 5d4f db3d 9ff2 2bbe
00000390: a29a a93e 6a7d 2c3e eab3 c03e 9af2 aebe
000003a0: 4d89 07bf 84fe 9dbb 2aed 73bd 4e98 cebd
000003b0: 18aa 31bd 7b79 6ebe 0fa0 353e f591 2e3e
000003c0: e956 ac3e 18ac b43e 3cb2 523d c5b6 f33e
000003d0: c977 5abe b874 09be 10d9 34bd 64d5 0abe
000003e0: 449e 633e 7d8b 78be 16f5 df3e 8eb8 11bf
000003f0: 8cda 663d 578c bc3e 8026 5cbe ab49 0d3f

linear2.bias f4 [3]
0.26660636 0.1811412 0.06764171
00000000: a180 883e 147d 393e bd87 8a3d
