model_hybrid/checkpoint_20251029_195555_score11.pth (torch, 21291 bytes, 4 tensors)

linear1.weight f4 [256, 14]
0.07201183 -0.2190925 0.33579797 0.075757764 -0.01166188 0.24563463 -0.40930492 -0.06815418
0.33104503 0.02872259 -6.191855e-05 0.10748918 0.14132982 0.014177706 0.22078106 0.38286906
-0.29367572 0.07637549 0.119986564 -0.12301785 -0.099780396 0.031257316 0.13326387 0.08279235
-0.15047386 0.12578568 0.18856595 0.1364515 -0.0880556 0.22986397 -0.20045754 0.41801092
-0.23942128 -0.22610074 0.31409812 -0.17427172 -0.0020542366 -0.3801375 0.19964096 0.122980915
0.10957312 -0.15036096 0.028658833 0.29147384 0.024725437 -0.25720814 0.3336698 -0.10737587
-0.090477325 0.058373112 0.24903885 0.0035885726 -0.28294387 -0.17070556 0.0068100514 0.17570439
0.16104384 0.1883465 -0.075888656 0.047732692 -0.17041706 -0.17825983 0.28914738 -0.29242566
-0.09658783 -0.012595156 0.08770002 0.018804032 0.058621187 -0.2131498 -0.20322447 0.06256677
0.12516677 -0.005230561 -0.06881936 -0.28077912 -0.026783641 -0.23904361 0.028396597 -0.12219264
-9.2911556e-05 0.101853244 0.10532727 -0.3206001 0.18987337 0.13310647 -0.04599517 0.16733968
0.23647062 -0.14133069 0.14267941 -0.2509177 0.07410016 -0.22584924 0.12588625 0.101326756
-0.11738635 0.014310664 0.16060674 -0.32706696 -0.09439856 -0.13279596 0.045749713 0.25028467
-0.28315863 0.038362186 0.18239532 -0.030672304 0.27518627 0.17134301 -0.2307603 -0.09048201
-0.091239475 -0.2476009 0.17855203 -0.2839977 0.3267497 0.25637513 -0.12098732 0.36810255
-0.21233603 -0.32514322 0.29672888 -0.14950086 0.1828638 -0.020701913 -0.010249018 -0.1568581
0.4644327 0.28438824 -0.0034693636 0.41291073 -0.43515074 -0.11562579 0.28990957 -0.023865571
-0.31995812 -0.12684059 0.058137223 0.2860217 -0.024449514 -0.28367406 -0.33823997 -0.02562186
0.0112573635 0.31643507 -0.35526007 -0.053236756 0.007163126 -0.2681629 0.29808992 -0.058777064
-0.12240851 -0.11030529 0.324358 -0.0013314963 -0.013461233 0.12764743 0.060932547 -0.06679051
0.03487013 -0.024180165 0.060098905 0.18647297 0.3332467 0.14984955 0.1884137 0.01728638
0.120550014 0.14787307 0.11068634 -0.014364048 0.050935995 -0.09927184 0.024158003 0.21944292
-0.18497664 -0.11599847 0.20110826 0.1829179 0.072309904 -0.026153117 -0.31005228 -0.09565519
0.4843014 -0.08772293 0.014880687 0.27627125 0.20827478 0.14375669 0.105036974 0.060681872
0.26604256 -0.19716123 0.1399464 0.17727374 0.29803073 -0.0701544 0.04161438 -0.103228115
0.39020878 -0.15738168 0.010048064 0.16458851 -0.31457186 -0.033503532 0.055944026 0.1600137
-0.034217056 0.10188781 -0.3375746 0.5191725 0.32601914 0.112643205 0.07599661 0.015228313
-0.032093037 -0.030827492 0.0025774776 0.16478176 -0.17358254 0.092450574 -0.06550189 -0.06697355
-0.22726719 -0.09713155 0.24792431 -0.11842176 -0.19905214 0.19016184 0.26226586 0.05017101
0.058301654 -0.2965114 -0.23566107 -0.109779164 0.052945364 0.12071634 0.03524496 0.32004642
0.0103289215 -0.02197833 0.07615256 -0.096405245 -0.07383564 0.26272124 0.030709632 0.010515733
0.2918694 -0.04118782 -0.009054828 0.09947249 0.013210454 -0.26326525 0.4639093 0.10835982
00000000: f07a 933d c959 60be b6ed ab3e e326 9b3d
00000010: 7811 3fbc a587 7b3e 6a90 d1be 6b94 8bbd
00000020: bc7e a93e a34b eb3c 45da 81b8 4a23 dc3d
00000030: c4b8 103e 9c49 683c 6e14 623e 6a07 c43e
00000040: aa5c 96be c16a 9c3d 84bb f53d c8f0 fbbd
00000050: aa59 ccbd ac07 003d 5376 083e 098f a93d
00000060: d215 1abe f6cd 003e 6f17 413e f1b9 0b3e
00000070: 7f56 b4bd 7661 6b3e be44 4dbe 8705 d63e
00000080: da2a 75be f486 67be 78d1 a03e 4974 32be
00000090: 5fa0 06bb 62a1 c2be ae6e 4c3e 6bdd fb3d
000000a0: df67 e03d 39f8 19be eec5 ea3c 0f3c 953e
000000b0: 008d ca3c c9b0 83be c5d6 aa3e e1e7 dbbd
000000c0: 2d4c b9bd a518 6f3d 0a04 7f3e 422e 6b3b
000000d0: 05de 90be 70cd 2ebe da26 df3b daeb 333e
000000e0: ade8 243e e8dd 403e 836b 9bbd 5b83 433d
000000f0: cf81 2ebe bf89 36be 200b 943e d1b8 95be
00000100: d7cf c5bd ea5b 4ebc 119c b33d ea0a 9a3c
00000110: c51c 703d f143 5abe 131a 50be 0223 803d
00000120: b82b 003e 2065 abbb 2af1 8cbd 48c2 8fbe
00000130: 5e69 dbbc d9c7 74be fb9f e83c 2340 fabd
00000140: 83d9 c2b8 6f98 d03d d3b5 d73d b225 a4be
00000150: 2a6e 423e 104d 083e 6e65 3cbd 185b 2b3e
00000160: 5b25 723e feb8 10be 8d1a 123e 4978 80be
00000170: d3c1 973d 0645 67be 53e8 003e 6784 cf3d
00000180: 4168 f0bd 4677 6a3c 1876 243e 5275 a7be
00000190: 0854 c1bd aafb 07be 0d64 3b3d 5025 803e
000001a0: 2bfa 90be ab21 1d3d d7c5 3a3e 7c44 fbbc
000001b0: 37e5 8c3e 8b74 2f3e 6e4c 6cbe a24e b9bd
000001c0: c3db babd 178b 7dbe 58d6 363e 2668 91be
000001d0: bd4b a73e 9a43 833e 33c8 f7bd f077 bc3e
000001e0: 9e6e 59be 2c79 a6be d9ec 973e c116 19be
000001f0: a640 3b3e 0f97 a9bc 7feb 27bc 699f 20be
00000200: 1fca ed3e 569b 913e 435e 63bb 0969 d33e
00000210: 14cc debe 37cd ecbd 076f 943e bb81 c3bc
00000220: 8dd1 a3be 80e2 01be 4c21 6e3d 7071 923e
00000230: 594a c8bc ba3d 91be ca2d adbe efe4 d1bc
00000240: ce70 383c c703 a23e a6e4 b5be c90e 5abd
00000250: a8b8 ea3b a64c 89be 3e9f 983e 38c0 70bd
00000260: 50b1 fabd bde7 e1bd 4012 a63e 9a85 aeba
00000270: 818c 5cbc 02b6 023e 6894 793d 77c9 88bd
00000280: fbd3 0e3d 7b15 c6bc 452a 763d c5f2 3e3e
00000290: 509f aa3e 2972 193e 85ef 403e 2b9c 8d3c
000002a0: ede2 f63d 0a6c 173e 85af e23d 2f57 6bbc
000002b0: 43a2 503d 094f cbbd 01e7 c53c a5b5 603e
000002c0: 846a 3dbe 9b90 edbd 53ef 4d3e d44e 3b3e
000002d0: 3717 943d 103f d6bc 2cbf 9ebe dee6 c3bd
000002e0: 5af6 f73e 14a8 b3bd 20ce 733c 6d73 8d3e
000002f0: fc45 553e f434 133e a01d d73d 8e8d 783d
00000300: bb36 883e a2e4 49be 1c4e 0f3e 3f87 353e
00000310: 7c97 983e 1cad 8fbd d773 2a3d 4369 d3bd
00000320: 72c9 c73e aa28 21be a3a0 243c e489 283e
00000330: 900f a1be 003b 09bd 9025 653d a2da 233e
00000340: 2f27 0cbd 8eaa d03d 94d6 acbe 7de8 043f
00000350: fbeb a63e 7bb1 e63d 1ca4 9b3d 2d80 793c
00000360: fd73 03bd f089 fcbc e6ea 283b 8dbc 283e
00000370: 9fbf 31be ba56 bd3d db25 86bd 6e29 89bd
00000380: bbb8 68be e8ec c6bd dfdf 7d3e 1c87 f2bd
00000390: 53d4 4bbe c9b9 423e b647 863e 1e80 4d3d
000003a0: b7cd 6e3d 58d0 97be 2351 71be e6d3 e0bd
000003b0: 3ddd 583d 213a f73d 055d 103d 20dd a33e
000003c0: a33a 293c e60b b4bc e0f5 9b3d 1d70 c5bd
000003d0: 2437 97bd 6683 863e c492 fb3c 2e4a 2c3c
000003e0: e86f 953e 8fb4 28bd b45a 14bc 3cb8 cb3d
000003f0: a970 583c b4ca 86be 8585 ed3e c1eb dd3d

linear1.bias f4 [256]
-0.23706128 0.2166158 -0.0739653 -0.12496647 0.22187069 0.033636447 0.13403094 -0.06563013
0.029276168 -0.12433247 0.18278271 0.05057229 0.15672842 -0.29159707 -0.25073317 -0.01736205
-0.013613682 0.038830534 0.017570356 -0.15901648 -0.1041277 0.07448898 -0.34310916 -0.055632792
0.07277485 -0.15474083 -0.09514906 -0.077130675 -0.18465096 -0.14299655 -0.11041327 -0.1501332
-0.018625053 -0.1068162 -0.059497517 -0.10568606 -0.018006062 0.04548619 -0.28602576 0.122649536
-0.11199454 0.038702507 0.18763788 0.12133251 -0.23469777 0.15115182 0.16431493 0.20988543
-0.27901644 0.19129422 -0.017069831 -0.06773859 -0.29170203 -0.22183852 0.15898167 -0.059842687
0.141581 -0.24255992 0.10581631 0.2465912 -0.23115751 0.0036559887 -0.14325279 -0.29824045
-0.050487265 -0.066195436 0.008088141 -0.067919575 -0.11424133 0.18426651 0.0010240466 -0.08124563
-0.2711321 0.06096693 -0.057883028 -0.21147782 0.021612756 0.059220932 0.15218543 0.051541246
-0.13277188 0.098789446 0.011613406 -0.18764438 0.20163956 -0.19816655 -0.22910485 0.0053903097
0.2924593 -0.025929485 -0.044120964 -0.15761462 -0.21113776 0.307856 0.15248758 -0.033613104
-0.15937586 0.17564937 -0.18689363 0.13968459 0.11328892 0.11493769 0.03866818 -0.18596962
-0.020361863 -0.1104022 -0.17853501 0.32984728 -0.22637433 -0.27974778 -0.053752255 -0.053164974
0.24106765 0.101109505 -0.07122819 -0.021347508 0.20603704 0.18356398 0.15376279 0.1066542
-0.15009287 0.13572681 0.09845964 -0.081385 -0.22082298 -0.14566037 0.04715317 -0.101913735
0.018517317 0.22594576 0.024153765 -0.08864857 -0.17225002 0.16303922 -0.10177574 -0.2395134
0.115299985 -0.14211485 0.06625881 -0.1338847 -0.21376075 -0.20372254 -0.19764952 0.05549746
0.014545923 0.12697946 -0.08967585 -0.07561354 -0.036385253 -0.085448004 0.015528977 -0.10843925
0.014130436 0.0031254725 0.1454948 -0.02071198 0.062439952 0.03895087 -0.0904346 -0.015582226
0.07598738 -0.13201535 -0.021675946 0.27802622 -0.012369901 -0.12960729 0.13089548 0.109901376
0.24847014 0.026179649 0.072798364 0.27835497 -0.10535434 -0.18194704 -0.10391366 -0.04392805
-0.049402274 -0.14849712 -0.09838581 -0.38041058 0.15817428 -0.21011944 -0.031050349 0.091449276
-0.061313134 -0.1936868 -0.03421034 -0.08393681 0.060093652 0.17531283 0.05155861 0.07096478
-0.23499449 -0.011707295 -0.12114058 -0.0013843202 0.23748825 -0.027187217 0.12037171 0.103086166
0.21821958 -0.05872674 -0.07563848 0.05378582 -0.11893237 0.18332493 0.18324058 -0.020317627
-0.22379538 0.035606377 -0.0081650885 -0.11800174 0.20269302 -0.21946532 0.020275883 -0.18450661
0.20153207 0.19043693 -0.024619412 0.112492874 0.09531345 -0.050508525 0.011682758 -0.15492968
-0.15956452 -0.112041935 -0.27672082 0.1949087 -0.07245821 0.18453336 -0.089408666 0.18431506
-0.08078746 0.073070355 0.16403456 -0.005322038 -0.25598294 0.21759406 0.16142282 0.052787136
0.039981563 0.047830798 -0.13129903 -0.101659186 -0.0630373 0.26930898 -0.11419015 0.25644344
-0.16395302 -0.05320207 -0.16758169 -0.036571078 -0.13943814 -0.07850275 0.21029592 -0.15064733
00000000: 31c0 72be 88d0 5d3e 1f7b 97bd 6cee ffbd
00000010: 1232 633e 5fc6 093d 683f 093e 1769 86bd
00000020: 93d4 ef3c 06a2 febd 642b 3b3e e424 4f3d
00000030: 6a7d 203e 364c 95be 1960 80be dc3a 8ebc
00000040: ec0b 5fbc c40c 1f3d b5ef 8f3c 37d5 22be
00000050: e740 d5bd ae8d 983d 01ac afbe 36df 63bd
00000060: fb0a 953d 6174 1ebe 83dd c2bd b0f6 9dbd
00000070: 2415 3dbe b06d 12be 5a20 e2bd 85bc 19be
00000080: 9193 98bc 74c2 dabd abb3 73bd ef71 d8bd
00000090: 7381 93bc ba4f 3a3d f871 92be ae2f fb3d
000000a0: 655d e5bd 8586 1e3d 2524 403e 2e7d f83d
000000b0: 9d54 70be 8bc7 1a3e 2c42 283e 35ec 563e
000000c0: 3edb 8ebe a2e2 433e 08d6 8bbc 88ba 8abd
000000d0: f859 95be a329 63be 17cc 223e 9b1d 75bd
000000e0: 9cfa 103e a161 78be 39b6 d83d 6782 7c3e
000000f0: 8eb4 6cbe 5099 6f3b dcb0 12be f9b2 98be
00000100: bccb 4ebd 7991 87bd 1f84 043c 6b19 8bbd
00000110: 5cf7 e9bd 5cb0 3c3e 4d39 863a 1c64 a6bd
00000120: d4d1 8abe 76b8 793d c116 6dbd a48d 58be
00000130: 3c0d b13c a691 723d 7fd6 1b3e ea1c 533d
00000140: 5af5 07be 1f52 ca3d 2846 3e3c d925 40be
00000150: 9a7a 4e3e 2cec 4abe 769a 6abe 32a1 b03b
00000160: 3abd 953e 126a d4bc 2fb8 34bd ba65 21be
00000170: 7f34 58be 4d9f 9d3e b425 1c3e e5ad 09bd
00000180: 6d33 23be 6edd 333e 0b61 3fbe 7a09 0f3e
00000190: 0504 e83d 7464 eb3d 8762 1e3d d26e 3ebe
000001a0: eccd a6bc 8c1a e2bd e2d1 36be bee1 a83e
000001b0: acce 67be 1a3b 8fbe 532b 5cbd 84c3 59bd
000001c0: 70da 763e 8012 cf3d 16e0 91bd f8e0 aebc
000001d0: 60fb 523e 32f8 3b3e fe73 1d3e 846d da3d
000001e0: f2b1 19be f8fb 0a3e 35a5 c93d 2ead a6bd
000001f0: 6b1f 62be fe27 15be af23 413d 26b8 d0bd
00000200: a1b1 973c 535e 673e 1ede c53c 628d b5bd
00000210: 4f62 30be c1f3 263e cd6f d0bd 0043 75be
00000220: 6622 ec3d 8e86 11be b3b2 873d 1219 09be
00000230: 19e4 5abe a49c 50be a364 4abe 4e51 633d
00000240: 0652 6e3c e706 023e f9a7 b7bd 46db 9abd
00000250: b408 15bd 5dff aebd 406d 7e3c 6615 debd
00000260: 5883 673c bad4 4c3b 97fc 143e 2cac a9bc
00000270: 09c1 7f3d f38a 1f3d c735 b9bd 984c 7fbc
00000280: 469f 9b3d 082f 07be c191 b1bc 7459 8e3e
00000290: 20ab 4abc c6b7 04be 7709 063e f913 e13d
000002a0: f56e 7e3e b476 d63c 4f17 953d 8b84 8e3e
000002b0: 04c4 d7bd 5350 3abe afd0 d4bd e6ed 33bd
000002c0: 0a5a 4abd a10f 18be 807e c9bd 2dc5 c2be
000002d0: 70f8 213e 8d29 57be 4d5d febc c249 bb3d
000002e0: 7b23 7bbd d555 46be 2420 0cbd 10e7 abbd
000002f0: c324 763d 3585 333e 1f2f 533d fc55 913d
00000300: 65a2 70be f4cf 3fbc 8d18 f8bd 1472 b5ba
00000310: 1f30 733e bab7 debc 7185 f63d d71e d33d
00000320: f474 5f3e 738b 70bd 59e8 9abd 854e 5c3d
00000330: d092 f3bd 88b9 3b3e 6ba3 3b3e 2771 a6bc
00000340: 9e2a 65be fed7 113d ddc6 05bc e5aa f1bd
00000350: c28e 4f3e 84bb 60be 9c19 a63c 4def 3cbe
00000360: 6c5e 4e3e e601 433e a6ae c9bc aa62 e63d
00000370: b333 c33d 07e2 4ebd 0a69 3f3c e3a5 1ebe
00000380: e264 23be 3e76 e5bd 5aae 8dbe 2596 473e
00000390: f864 94bd 50f6 3c3e e41b b7bd 16bd 3c3e
000003a0: e573 a5bd e9a5 953d adf8 273e 7e64 aebb
000003b0: 3210 83be fad0 5e3e 064c 253e 5337 583d
000003c0: b5c3 233d 3aea 433d 4173 06be b132 d0bd
000003d0: b319 81bd dee2 893e 86dc e9bd 8e4c 833e
000003e0: 4de3 27be 6aea 59bd 899a 2bbe 8ecb 15bd
000003f0: dfc8 0ebe 0dc6 a0bd d057 573e 4b43 1abe

linear2.weight f4 [3, 256]
0.07294606 -0.060864046 0.09053222 0.06722406 -0.094833836 0.006330254 -0.0010579933 -0.12701209
-0.26176035 0.06331678 -0.25644752 -0.10121435 -0.06485228 0.0007910156 -0.2574216 0.07480813
-0.13420118 -0.06316458 0.023784786 0.02115918 0.11665033 0.10856503 0.058911145 -0.004831707
-0.059512123 0.04865485 0.0415005 0.17254761 -0.21580021 0.10565455 0.029489122 0.10671048
0.19626576 -0.0930547 0.09974729 -0.10913488 0.019392528 -0.19198796 -0.018147707 -0.14493342
-0.090076275 0.086728126 -0.041668203 -0.07819622 -0.027491651 0.075000115 -0.021399215 0.048498753
-0.013546073 0.056184698 0.104238324 0.025906298 0.030624652 0.0024780734 0.04654176 0.1498319
-0.057877228 -0.029438967 -0.067741856 -0.0978003 0.08986165 -0.05366827 0.09282073 0.015209496
0.009549846 0.07926411 -0.006666555 -0.049508043 -0.03651302 0.036951065 -0.085666776 -0.013393469
0.006717082 -0.072725564 -0.10828079 0.049568318 0.016683452 -0.0010676177 -0.10088051 -0.072250456
0.13885416 0.024055284 0.011553516 0.018173002 -0.067060225 0.0131401345 -0.055783726 0.07634327
-0.054547757 -0.11509528 0.06850382 -0.04952254 -0.051425923 0.055468943 -0.066312686 -0.11294235
0.09926341 -0.014216492 -0.066848226 0.048187166 0.015251535 -0.30078718 0.00434785 -0.055185515
-0.076722294 -0.18313242 -0.113735795 -0.034400504 0.0036636123 -0.08283936 0.026658231 0.05797883
-0.059192177 0.071782716 0.029252876 -0.050013747 0.07660727 0.049130708 -0.06627976 0.011463299
0.05853654 -0.077169545 0.037386946 -0.05278691 -0.025475962 -0.12964106 0.043549452 -0.039517675
-0.05505741 0.048318807 0.027270842 0.16011861 -0.26838076 -0.07579326 0.0049787555 0.16808516
0.12078529 0.034715466 -0.07465548 -0.03015392 -0.03381205 -0.10018444 -0.25382832 0.055499896
0.07733799 0.06889697 0.1105714 -0.07229557 -0.055969253 0.06108073 0.019848444 -0.12560494
0.05032631 -0.09477042 -0.08788665 -0.017684046 -0.09437197 0.0412848 0.094960585 0.06448582
-0.23242906 -0.003514789 -0.13845028 0.023146175 0.06229802 0.13467687 0.05747226 -0.038616005
-0.06008081 -0.1508122 0.12397486 -0.046760224 0.055561118 0.17428294 0.124777526 -0.08263021
-0.06832391 0.072118156 0.0034129915 -0.019716047 -0.09000132 -0.0019555911 -0.12505603 -0.03129538
0.12718748 -0.20593537 0.05354271 0.041869484 -0.048456848 -0.03385637 0.033487983 -0.1340808
-0.028148763 -0.23992223 -0.23205507 0.16547884 0.073479116 -0.09960202 -0.01091265 -0.04772827
-0.026620843 -0.076962076 -0.0166529 0.10970637 -0.11412162 0.073150046 -0.100735664 -0.15135367
0.025860507 -0.012805349 0.0026321644 -0.07249059 -0.06702417 -0.024560168 0.056638353 -0.01237296
0.00817696 -0.056580476 -0.06713059 -0.0155491335 0.03845032 0.026264569 -0.039866988 -0.0058056233
-0.21464217 0.07390897 0.0536223 -0.06150538 -0.07498056 -0.030163748 0.01758241 -0.105494864
-0.09344822 -0.019962255 0.010786849 0.060077764 -0.043375105 -0.008698103 -0.064796776 -0.0139389895
0.015349506 0.060415547 0.05143951 0.10170046 -0.113611765 -0.024752885 0.04902073 -0.04882565
0.06097955 -0.0319827 0.1083443 -0.26908043 0.08062158 0.03046899 -0.059447765 0.082009144
00000000: be64 953d 944c 79bd f568 b93d c5ac 893d
00000010: 3e38 c2bd 056e cf3b 5dac 8aba 750f 02be
00000020: 7405 86be 3aac 813d 174d 83be 7849 cfbd
00000030: 46d1 84bd 295c 4f3a c4cc 83be 0135 993d
00000040: 096c 09be 6e5c 81bd 50d8 c23c 0456 ad3c
00000050: 5ee6 ee3d 5857 de3d d04c 713d 4c53 9ebb
00000060: fcc2 73bd 4f4a 473d 6efc 293d 52b0 303e
00000070: bbfa 5cbe 6a61 d83d 2c93 f13c 068b da3d
00000080: e4f9 483e 7693 bebd 4f48 cc3d 1c82 dfbd
00000090: 14dd 9e3c 7e98 44be 80aa 94bc 6d69 14be
000000a0: e979 b8bd 849e b13d 47ac 2abd 5725 a0bd
000000b0: 2c36 e1bc a999 993d 684d afbc a1a6 463d
000000c0: 59f0 5dbc ed21 663d e77a d53d 7239 d43c
000000d0: 8de0 fa3c 2c67 223b 93a2 3e3d 896d 193e
000000e0: ac10 6dbd fd29 f1bc 3ebc 8abd 864b c8bd
000000f0: 6209 b83d 43d3 5bbd cb18 be3d 4031 793c
00000100: f576 1c3c 3955 a23d 1e73 dabb f2c8 4abd
00000110: ad8e 15bd 005a 173d 1072 afbd 4870 5bbc
00000120: f81a dc3b 24f1 94bd 52c2 ddbd 2608 4b3d
00000130: bcab 883c 4eef 8bba 719a cebd 0cf8 93bd
00000140: c92f 0e3e 960f c53c f54a 3d3c 8cdf 943c
00000150: df56 89bd b849 573c 7a7d 64bd dc59 9c3d
00000160: 786d 5fbd 13b7 ebbd bb4b 8c3d 26d8 4abd
00000170: fda3 52bd 6733 633d f2ce 87bd 524e e7bd
00000180: 9d4a cb3d 4aec 68bc b9e7 88bd e85f 453d
00000190: 93e1 793c c700 9abe 6978 8e3b 350a 62bd
000001a0: 9420 9dbd 1187 3bbe 50ee e8bd 8be7 0cbd
000001b0: 3719 703b afa7 a9bd 5d62 da3c 367b 6d3d
000001c0: 7f73 72bd d102 933d baa3 ef3c 37db 4cbd
000001d0: 46e4 9c3d 483d 493d afbd 87bd 90d0 3b3c
000001e0: 03c4 6f3d 110b 9ebd 0e23 193d 1637 58bd
000001f0: f7b2 d0bc a0c0 04be e960 323d 49dd 21bd
00000200: e183 61bd f1e9 453d 1a67 df3c 22f6 233e
00000210: 3469 89be 7f39 9bbd d424 a33b 841e 2c3e
00000220: 475e f73d ce31 0e3d f9e4 98bd 5b05 f7bc
00000230: 817e 0abd 802d cdbd c9f5 81be dc53 633d
00000240: 6163 9e3d db19 8d3d 4273 e23d b30f 94bd
00000250: 0440 65bd ca2f 7a3d 3499 a23c 959e 00be
00000260: f622 4e3d fe16 c2bd eafd b3bd 22de 90bc
00000270: 1746 c1bd 401a 293d b27a c23d 2411 843d
00000280: e201 6ebe 6058 66bb e9c5 0dbe 0c9d bd3c
00000290: 352c 7f3d bce8 093e 0868 6b3d d12b 1ebd
000002a0: 4c17 76bd 836e 1abe 88e6 fd3d a687 3fbd
000002b0: 0e94 633d 3a77 323e 5c8b ff3d 073a a9bd
000002c0: 68ed 8bbd afb2 933d 7fac 5f3b 8c83 a1bc
000002d0: 9d52 b8bd 6029 00bb b00e 00be 962f 00bd
000002e0: 6f3d 023e b9e0 52be 9a4f 5b3d 567f 2b3d
000002f0: b07a 46bd faac 0abd b22a 093d 7a4c 09be
00000300: 3c98 e6bc 2cae 75be d89f 6dbe 4973 293e
00000310: 387c 963d 25fc cbbd f9ca 32bc b87e 43bd
00000320: f413 dabc 4b9e 9dbd aa6b 88bc bcad e03d
00000330: 99b8 e9bd b1cf 953d 804e cebd 75fc 1abe
00000340: 6ad9 d33c 87cd 51bc 6480 2c3b f275 94bd
00000350: f843 89bd 6832 c9bc 9efd 673d f5b7 4abc
00000360: a8f8 053c eec0 67bd c37b 89bd cbc1 7ebc
00000370: 157e 1d3d cb28 d73c 914b 23bd 193d bebb
00000380: 28cb 5bbe 965d 973d 0fa3 5b3d 11ed 7bbd
00000390: 688f 99bd f719 f7bc fc08 903c b10d d8bd
000003a0: c861 bfbd e287 a3bc 53bb 303c 1a14 763d
000003b0: 18aa 31bd 7d82 0ebc 2cb4 84bd 5c60 64bc
000003c0: 7f7c 7b3c 4b76 773d 3cb2 523d 5548 d03d
000003d0: 49ad e8bd 90c6 cabc f6c9 483d 68fd 47bd
000003e0: b1c5 793d 4b00 03bd 9ee3 dd3d e9c4 89be
000003f0: ed1c a53d 1a9a f93c 807f 73bd 69f4 a73d

linear2.bias f4 [3]
-0.038407266 -0.036963418 -0.12142873
00000000: f050 1dbd f466 17bd a0af f8bd
