model_hybrid/checkpoint_20251029_195523_score3.pth (torch, 21281 bytes, 4 tensors)

linear1.weight f4 [256, 14]
0	0x3df48324	0.119390756
1	0xbe00f003	-0.12591557
2	0x3e42bda5	0.19017656
3	0x3dc76c18	0.09737414
4	0xbe299e8a	-0.16564384
5	0x3e32a09b	0.17444079
6	0xbe3cc077	-0.18432795
7	0x3d63d158	0.055619568
8	0x3e62ce4b	0.22149007
9	0x3d80c262	0.062870756
10	0x3d440c40	0.047863245
11	0x3d68d329	0.056842003
12	0x3d925ea1	0.07146955
13	0xbb91c9ca	-0.004449104
14	0x3dea3c52	0.114372864
15	0x3e58001d	0.21093793
16	0xbea84947	-0.32868406
17	0x3da8ae14	0.08236328
18	0x3dfd019c	0.123538226
19	0xbd3f0ba7	-0.046641972
20	0xbe313bd9	-0.17307986
21	0xbcce1395	-0.025155822
22	0x3e3147d4	0.17312557
23	0x3c9515b5	0.018198827
24	0xbe65eb5c	-0.22453064
25	0x3e18ec52	0.14933899
26	0x3e5c3721	0.21505405
27	0x3e3cc745	0.1843539
28	0x3d8bf731	0.068342574
29	0x3d5c0da7	0.053723957
30	0xbd86d018	-0.065826595
31	0x3e8f63d0	0.28005838
32	0xbdb6eacc	-0.08931503
33	0xbe8378b6	-0.25678033
34	0x3e9bfa0a	0.30464202
35	0xbd769146	-0.060197137
36	0xbde9f4e8	-0.11423665
37	0xbe8818bb	-0.26581368
38	0x3e50c3ce	0.20387194
39	0x3e036e23	0.12834983
40	0x3da78f7e	0.08181666
41	0xbdd94c86	-0.10610299
42	0x3e43c0b0	0.19116473
43	0x3e069399	0.13142242
44	0x3c91c674	0.017794825
45	0xbe2398ab	-0.15976207
46	0x3e8217ba	0.25408727
47	0xbc27595c	-0.010214176
48	0xbdb176fa	-0.08665271
49	0x3d85ff84	0.06542876
50	0x3e8a853a	0.2705477
51	0xbc826e98	-0.015921876
52	0xbe8bf97b	-0.27338776
53	0xbe29c6db	-0.16579764
54	0x3d2e8738	0.042609423
55	0x3e5e35ce	0.21700212
56	0x3d20163d	0.039083708
57	0x3c8108d7	0.015751285
58	0xbbde4cea	-0.006784071
59	0xbc851b88	-0.01624848
60	0xbe0e70c6	-0.13910207
61	0xbe067414	-0.13130218
62	0x3e801661	0.25017074
63	0xbe396eff	-0.18108748
64	0xbe1488dc	-0.14505333
65	0xbd911dd1	-0.07085765
66	0x3e030da2	0.1279817
67	0x3ced585c	0.028972797
68	0x3d81a21a	0.063297465
69	0xbe325960	-0.17416906
70	0xbe5b0d28	-0.21391737
71	0xbd975d90	-0.073908925
72	0x3e1e8735	0.15481265
73	0x3d96edde	0.07369588
74	0x3d4afa9d	0.04955541
75	0xbe896837	-0.26837322
76	0xbdc57cb3	-0.09642925
77	0xbe2f89a9	-0.17142357
78	0x3dbeb009	0.0931092
79	0xbe024e0c	-0.12725085
80	0x3ccfa35e	0.025346454
81	0x3e501f35	0.20324405
82	0x3e1efca8	0.15526068
83	0xbe272cab	-0.16325633
84	0x3e6433c9	0.2228538
85	0xbd806839	-0.06269879
86	0xbd5e096e	-0.05420821
87	0x3e53f49d	0.20698781
88	0x3e7d1ed3	0.2471879
89	0xbd8d704a	-0.06906183
90	0x3e03c236	0.12867054
91	0xbe92c36e	-0.28664726
92	0x3e1da801	0.1539612
93	0xbe903efb	-0.2817305
94	0x3dff1b26	0.1245635
95	0x3e2c11fb	0.16803734
96	0xbd9cf860	-0.07664561
97	0x3df0c327	0.11755972
98	0x3cf373e8	0.029718354
99	0xbe4a710f	-0.19769691
100	0xbe115dc7	-0.1419593
101	0xbdfb498c	-0.12269887
102	0xbd5d0e31	-0.053968612
103	0x3e492749	0.19643892
104	0xbe36d428	-0.17854369
105	0xbdbb25fd	-0.09138105
106	0x3e04d5c4	0.1297217
107	0x3d9d1abb	0.07671114
108	0x3e72f7d3	0.2372735
109	0x3e00995d	0.12558503
110	0xbe663e8d	-0.22484799
111	0xbe0bab13	-0.13639478
112	0xbe910a12	-0.28327996
113	0xbe4e8c5a	-0.20170727
114	0x3dfa804e	0.122315034
115	0xbe755620	-0.23958635
116	0x3e7d9829	0.24765076
117	0x3e11b44a	0.14228931
118	0xbd63469a	-0.055487253
119	0x3e4ea11f	0.2017865
120	0xbe4dd142	-0.20099357
121	0xbe90f6c0	-0.28313255
122	0x3e5bb54f	0.21455882
123	0xbe502316	-0.20325884
124	0x3e3170de	0.17328212
125	0xbd90cf80	-0.070708275
126	0xbc2495b2	-0.010045456
127	0xbdb2b5c3	-0.087260745
128	0x3e84a77d	0.25909033
129	0x3e7e02ac	0.24805707
130	0x3ca2857a	0.019839037
131	0x3ea5de1d	0.3239602
132	0xbe6c0d4e	-0.2305195
133	0xbcce17c0	-0.02515781
134	0x3e328ca8	0.17436469
135	0x3cc2ef50	0.023795754
136	0xbea16209	-0.31520107
137	0xbe38956c	-0.1802575
138	0x3d0951bf	0.033525225
139	0x3e99076b	0.29888472
140	0xbe0eeec0	-0.13958263
141	0xbe5d7c25	-0.21629389
142	0xbe917141	-0.28406718
143	0x3cf76da4	0.030203648
144	0x3b92b3a0	0.0044769794
145	0x3e5ec67d	0.21755405
146	0xbe35345a	-0.17695752
147	0xbca555ff	-0.020182608
148	0x3d18d742	0.03731466
149	0xbe0d1f54	-0.13781482
150	0x3e7b6a0a	0.2455217
151	0xbd5b6b88	-0.053569347
152	0xbdc11ef5	-0.09429733
153	0xbe21f717	-0.15816914
154	0x3e660948	0.22464478
155	0x3cb19c52	0.021680985
156	0xbe677301	-0.22602464
157	0x3e18052a	0.1484572
158	0x3d7407a6	0.059577607
159	0xbc8223b0	-0.015886158
160	0xbb7bfc4a	-0.0038449937
161	0xbde405dd	-0.11133931
162	0x3dabc520	0.08387208
163	0x3e0d0ac3	0.13773637
164	0x3e76a593	0.24086599
165	0x3e4623cc	0.19349593
166	0x3e595f9e	0.21227881
167	0x3dcdface	0.10057603
168	0x3d12fd61	0.035886172
169	0x3ca21676	0.0197861
170	0xbde62d70	-0.11239135
171	0xb9fd81d4	-0.0004835265
172	0x3d4baaf3	0.049723577
173	0xbc9b18c3	-0.018932706
174	0xbcf460c0	-0.02983129
175	0x3e126e35	0.14299853
176	0xbe25d8f6	-0.16196045
177	0xbe370c41	-0.17875768
178	0x3de3e853	0.11128297
179	0x3e83612d	0.25660077
180	0x3dd8fa6a	0.10594638
181	0x3e24db38	0.1609925
182	0xbe6a96e5	-0.22909124
183	0x3b2181c3	0.0024643994
184	0x3e9b1ecc	0.30296934
185	0xbdec18b2	-0.11528148
186	0x3d93e46c	0.072213024
187	0x3e7a299c	0.24429935
188	0x3e484ed4	0.1956132
189	0x3e4decb3	0.20109825
190	0x3de10d8d	0.10988913
191	0x3d901d49	0.07036836
192	0x3e756de1	0.23967697
193	0xbe5aa500	-0.21352005
194	0x3e2198d1	0.15780951
195	0x3e479df6	0.19493851
196	0x3e5e5f34	0.21716005
197	0xbcf65aeb	-0.03007265
198	0xbac8cac6	-0.001531922
199	0xbcf6919a	-0.030098725
200	0x3e9cd30f	0.30629775
201	0xbde4ecba	-0.111779645
202	0xbc8e1864	-0.017345615
203	0x3e1b4b5d	0.15165468
204	0xbe80e014	-0.25170958
205	0xbe099557	-0.13435875
206	0xbd4743d9	-0.04864869
207	0x3e12812f	0.14307092
208	0xbe54ff54	-0.20800525
209	0x3dc48677	0.0959596
210	0xbe76e5de	-0.24111125
211	0x3e82e632	0.2556625
212	0x3e69392a	0.22775713
213	0x3e062ca5	0.13102968
214	0x3d93a57a	0.072092965
215	0x3d26916d	0.040666033
216	0x3d2fb76e	0.04289954
217	0xbdf85b87	-0.121268325
218	0x3c9b7b4c	0.018979691
219	0x3e45be98	0.19310987
220	0xbe2da76a	-0.16958395
221	0x3ddbfd07	0.107416205
222	0xbd4e9eff	-0.0504446
223	0x3cb8e860	0.022571743
224	0xbe6233e4	-0.22090107
225	0xbd83bc49	-0.06432397
226	0x3e082448	0.1329509
227	0xbe05b9d2	-0.13059166
228	0xbe82c02e	-0.25537246
229	0x3e75ad7a	0.23991957
230	0x3e4d089e	0.20022818
231	0xbe49913f	-0.19684313
232	0x3aebd7e9	0.0017993423
233	0xbe45d980	-0.19321251
234	0xbe3fc3a0	-0.18726969
235	0xbdacfdff	-0.084468834
236	0x3d7cf25d	0.061754573
237	0x3e1b3feb	0.15161102
238	0xbd1f10b2	-0.03883428
239	0x3e0f00a7	0.13965093
240	0xbe2f7029	-0.1713263
241	0xbb805f8c	-0.00391764
242	0x3dad4146	0.084597155
243	0xbc1dbd2c	-0.009627622
244	0xbe01825d	-0.12647386
245	0x3e4f568d	0.2024786
246	0x3d8d4573	0.06898012
247	0xbd7f0c65	-0.06226768
248	0x3e6a1662	0.22860101
249	0x3d0100f3	0.031495046
250	0x3ca8c817	0.020603223
251	0x3e8bcbfe	0.2730407
252	0x3df65b12	0.12029089
253	0xbe3bdd90	-0.18346238
254	0x3ea917c3	0.3302594
255	0x3e26b14a	0.16278568

linear1.bias f4 [256]
0	0xbe934e77	-0.287708
1	0x3e75eeb8	0.24016845
2	0xbd8c7c6e	-0.068596706
3	0xbdf5e163	-0.1200588
4	0x3e6d9bc5	0.23203953
5	0x3e0a4469	0.13502659
6	0x3e4d8f31	0.20074154
7	0xbde41f3d	-0.11138771
8	0xbcc88e6e	-0.024481978
9	0xbe3603e6	-0.17774925
10	0x3e4080af	0.18799089
11	0x3dc0f5d1	0.09421886
12	0x3e6bf0f1	0.2304113
13	0xbe9dac84	-0.3079568
14	0xbe890cc1	-0.26767543
15	0xbb1d0931	-0.0023961777
16	0x3c3fa382	0.011696698
17	0x3de4612d	0.11151347
18	0x3d8a40e0	0.06750655
19	0xbe0c2521	-0.13686039
20	0xbe25d1e3	-0.16193347
21	0x3dd71144	0.1050134
22	0xbe8e4e71	-0.2779422
23	0xbc53a5df	-0.012917965
24	0x3df5a807	0.11994939
25	0xbe3c8e6f	-0.18413709
26	0xbdd5d2e9	-0.104406185
27	0xbe192c46	-0.14958295
28	0xbe2bb40f	-0.16767906
29	0xbe01ff9c	-0.12695163
30	0xbde2205a	-0.11041327
31	0xbe16c18e	-0.14722273
32	0xbdcaad1e	-0.09896301
33	0xbd982f51	-0.074309
34	0xbe0346d0	-0.12819982
35	0xbdeabcbf	-0.11461782
36	0x3b40379d	0.0029330023
37	0x3d735ca0	0.059414506
38	0xbe78940a	-0.24275222
39	0x3e37ce58	0.17949808
40	0xbd9f8645	-0.07789282
41	0x3d6dac57	0.058025684
42	0x3e6b4401	0.2297516
43	0x3e3943dc	0.18092293
44	0xbe70549d	-0.23469777
45	0x3dfb30b8	0.12265152
46	0x3e21227b	0.1573581
47	0x3e79b456	0.24385199
48	0xbe7e21a6	-0.24817523
49	0x3e457326	0.19282207
50	0xbd052846	-0.03250911
51	0x3c743f97	0.014907739
52	0xbe85e3c3	-0.2615033
53	0xbe7d4d60	-0.24736547
54	0x3e34eaa3	0.17667632
55	0xbc645bd0	-0.013937905
56	0x3e16e34f	0.14735149
57	0xbe4bd8d1	-0.19906928
58	0x3de0552b	0.109537445
59	0x3e85a87d	0.2610511
60	0xbe81d327	-0.2535641
61	0x3c884cea	0.016638238
62	0xbd610c0f	-0.05494314
63	0xbe8c2eb8	-0.27379394
64	0xbdb3ca85	-0.08778862
65	0xbd34d558	-0.044148773
66	0x3b3c7ce2	0.002876096
67	0xbcff66bc	-0.031176917
68	0xbde72d04	-0.11287883
69	0x3e425a57	0.18979774
70	0x3d4f3c61	0.05059469
71	0xbda6641c	-0.08124563
72	0xbe760c3a	-0.24028102
73	0x3defda25	0.1171153
74	0xbd8b720d	-0.06808863
75	0xbe588da4	-0.21147782
76	0x3d978b97	0.073996715
77	0x3ddb1ca4	0.10698822
78	0x3e3c61b7	0.1839665
79	0x3dd18061	0.102295645
80	0xbde80dd5	-0.11330763
81	0x3df5a114	0.11993614
82	0xbd21f46b	-0.039539736
83	0xbe29671c	-0.1654324
84	0x3e2b007b	0.16699402
85	0xbe48f548	-0.19624817
86	0xbe6cb8c2	-0.23117355
87	0x3dc6c634	0.09705773
88	0x3e858a1e	0.26081938
89	0xbcb6ca40	-0.022313237
90	0xbc5177ae	-0.0127848815
91	0xbe2165ba	-0.15761462
92	0xbe5efd22	-0.2177625
93	0x3e88ee2c	0.2674421
94	0x3e364cf5	0.17802794
95	0xbd95509f	-0.07290768
96	0xbe59ee0b	-0.21282212
97	0x3e444685	0.19167526
98	0xbe6ae524	-0.22938973
99	0x3e1cfbb0	0.15330386
100	0x3e1d2d55	0.15349324
101	0x3ccc7aeb	0.024960956
102	0x3d3e543a	0.046467043
103	0xbe1a0ad6	-0.15043196
104	0x3ca6fba7	0.020383669
105	0xbe06ff8d	-0.13183422
106	0xbe0c5102	-0.13702777
107	0x3e8e9781	0.27849963
108	0xbe628156	-0.2211965
109	0xbe7a74ff	-0.24458693
110	0xbde887fe	-0.113540635
111	0xbd863cf0	-0.06554592
112	0x3e696a7e	0.2279453
113	0x3dd4de55	0.10393969
114	0xbe720154	-0.23633319
115	0xbc3a9624	-0.011388335
116	0x3e609deb	0.21935241
117	0x3e2e7858	0.17038095
118	0x3e01458a	0.12624183
119	0x3e054883	0.13015942
120	0xbe31e9a5	-0.17374285
121	0x3e60dbf4	0.21958905
122	0x3db3efa6	0.08785944
123	0xbda5a471	-0.08088005
124	0xbe3d955b	-0.18514006
125	0xbdef2990	-0.11677849
126	0x3d0ccb80	0.03437376
127	0xbe00da29	-0.12583221
128	0x3cde462e	0.027133074
129	0x3e613d5c	0.21996063
130	0x3d2127cc	0.039344594
131	0xbd993c89	-0.07482249
132	0xbe765ad4	-0.24058086
133	0x3e5ca00d	0.2154543
134	0xbddb901b	-0.10720845
135	0xbe91f2b9	-0.28505495
136	0x3d9959d6	0.07487838
137	0xbe36c676	-0.17849144
138	0x3dc168af	0.09443795
139	0xbdbbea5b	-0.09175559
140	0xbe2d716a	-0.16937795
141	0xbe0c7683	-0.13717084
142	0xbe4c0acc	-0.19925994
143	0x3cba28da	0.022724558
144	0x3c340b7c	0.010989066
145	0x3e28f58e	0.16499922
146	0xbdb635f1	-0.08897007
147	0xbde16cf4	-0.11007109
148	0x3bb6307f	0.0055599804
149	0xbd03bf88	-0.03216508
150	0x3c7e6d40	0.015528977
151	0xbd1c7e29	-0.038206253
152	0x3d271277	0.040789094
153	0x3c3b94e7	0.011449075
154	0x3e0ba0b7	0.13635527
155	0xbb4a0321	-0.003082462
156	0x3de3e53e	0.11127709
157	0x3d64aca7	0.055828717
158	0xbddb8410	-0.10718548
159	0xbbf1a22f	-0.00737407
160	0x3de15c69	0.11003954
161	0xbe072f08	-0.13201535
162	0x3c124924	0.008928571
163	0x3e562aca	0.2091476
164	0xbd071602	-0.032979973
165	0xbe22bcae	-0.15892288
166	0x3ddb6dd4	0.107143074
167	0x3def490e	0.11683856
168	0x3e8dd406	0.27700824
169	0x3d22416b	0.03961317
170	0x3d719f31	0.058989707
171	0x3e88a658	0.2668941
172	0xbdd9789e	-0.10618709
173	0xbe7ecfc1	-0.2488394
174	0xbe3f8043	-0.18701272
175	0xbcff319d	-0.031151587
176	0xbdca7ba5	-0.098868646
177	0xbe6cf7f5	-0.23141463
178	0xbd466288	-0.04843381
179	0xbe9c74fc	-0.30558002
180	0x3e51edd9	0.20500888
181	0xbe2d0fe3	-0.16900592
182	0xbda851f0	-0.08218753
183	0x3d56b54c	0.052418992
184	0xbdb3d20a	-0.08780296
185	0xbe6e583d	-0.23275848
186	0xbd0c2024	-0.03421034
187	0xbdcc4b1d	-0.09975264
188	0x3d839d9a	0.064265445
189	0x3e81da80	0.25362015
190	0x3d29dfb9	0.041473124
191	0x3d5d2d7a	0.053998448
192	0xbe70a265	-0.23499449
193	0xbbcec78b	-0.0063104085
194	0xbdb5ec0c	-0.08882913
195	0xbd950c2b	-0.072777115
196	0x3e523547	0.20528136
197	0xbe380cb7	-0.179736
198	0x3e20366d	0.15645762
199	0x3dd6a64b	0.104809366
200	0x3e80cf2a	0.25158054
201	0xbd846bb1	-0.06465853
202	0x3c50456e	0.012711866
203	0x3d30e8a4	0.043190613
204	0xbe001b99	-0.12510528
205	0x3e5f7c08	0.21824658
206	0x3e6fa914	0.23404342
207	0x3c8d4ea1	0.017249407
208	0xbe3edd4e	-0.18639109
209	0x3d6b3fe8	0.057433993
210	0x3d2412ea	0.0400571
211	0xbdaf5092	-0.085602894
212	0x3e8697cc	0.26287687
213	0xbe60bb84	-0.21946532
214	0x3d8ebcda	0.06969614
215	0xbe789236	-0.24274525
216	0x3e57b904	0.21066672
217	0x3e6ef5ff	0.23336028
218	0xbd48908e	-0.048965983
219	0x3e09a0f2	0.13440302
220	0x3dae22da	0.08502741
221	0xbd2a7c07	-0.041622188
222	0x3d951ae0	0.072805166
223	0xbd8a6ec6	-0.067594096
224	0xbe2a5407	-0.16633616
225	0xbe1c8c71	-0.15287949
226	0xbe841abd	-0.2580165
227	0x3e6b0f1d	0.22954984
228	0xbd5960fd	-0.05307101
229	0x3e4e6885	0.20157059
230	0xbdd482fb	-0.10376545
231	0x3de251d0	0.11050761
232	0xbc6f7c90	-0.0146171
233	0x3e4127df	0.18862866
234	0x3e361b5b	0.17783873
235	0x3cdbe72d	0.026843632
236	0xbe831032	-0.25598294
237	0x3e3f45e1	0.18679
238	0x3e4774d4	0.1947816
239	0x3de443ca	0.11145742
240	0x3dd5f75e	0.10447572
241	0x3d82786f	0.06370627
242	0xbe067341	-0.13129903
243	0xbdf3e306	-0.11908536
244	0xbdba222b	-0.09088548
245	0x3e91c886	0.284733
246	0xbe43d23a	-0.19123164
247	0x3e8f1121	0.27942756
248	0xbe04e26f	-0.12977003
249	0xbd8c7560	-0.06858325
250	0xbe224eb4	-0.15850335
251	0xbd80aa9f	-0.062825434
252	0xbd9a371d	-0.07530043
253	0xbda1f19a	-0.0790741
254	0x3e877453	0.26455936
255	0xbe34f52a	-0.17671648

linear2.weight f4 [3, 256]
0	0x3c9bbdea	0.019011457
1	0xbd95aef1	-0.07308758
2	0x3d4b85b6	0.049688064
3	0xbb8a7c5b	-0.00422625
4	0xbd7dac2f	-0.061931785
5	0xbcced1ca	-0.02524652
6	0xbb45cce1	-0.0030181932
7	0xbd11feb0	-0.03564328
8	0xbc874041	-0.01651013
9	0xbc8a67ea	-0.016895253
10	0xbd0e64e1	-0.034764174
11	0xbd996cf3	-0.074914835
12	0xbd2120cc	-0.03933792
13	0x3d21b31a	0.039477445
14	0xbda87e67	-0.08227234
15	0x3d4cef64	0.05003299
16	0xbd427dde	-0.047483318
17	0xbce75b53	-0.028241789
18	0x3d97cdca	0.07412298
19	0x3d4b3da5	0.049619336
20	0x3e034a4a	0.12821308
21	0x3cfda14b	0.0309607
22	0x3dc49786	0.09599213
23	0x3d32d64c	0.0436614
24	0xbc54a9c4	-0.012979928
25	0x3c742867	0.014902211
26	0x3d100214	0.03515823
27	0x3cced3b9	0.025247442
28	0xbd9b55ef	-0.0758475
29	0x3d9baca7	0.0760129
30	0x3cf1932c	0.029489122
31	0x3d4845e3	0.048894774
32	0x3de0d86a	0.10978778
33	0xbd94c80f	-0.07264721
34	0x3d74aa1f	0.059732553
35	0xbcd6e813	-0.026233708
36	0x3d443ef5	0.047911603
37	0xbd1f98d3	-0.038964104
38	0x3bc97066	0.006147432
39	0xbd14f26d	-0.036364008
40	0xbd4e794c	-0.050408646
41	0x3d652f69	0.055953417
42	0xbc29d23d	-0.010365066
43	0xbd47e792	-0.048804827
44	0xbce1362c	-0.027491651
45	0x3d8b784e	0.06810056
46	0x3d281192	0.04103238
47	0x3d4673f2	0.048450418
48	0xbc59ae82	-0.013286235
49	0x3d03869d	0.0321108
50	0x3df5ca07	0.12001424
51	0xbd05333f	-0.032519575
52	0x3d7920e6	0.06082239
53	0x3cb60e18	0.022223517
54	0x3d2b4062	0.041809447
55	0x3da308e7	0.07960682
56	0xbd5594d0	-0.05214387
57	0xbd520c74	-0.051281407
58	0xbda421c6	-0.08014254
59	0xbdb45375	-0.08804981
60	0x3d2c1840	0.042015314
61	0xbd4ae8e3	-0.049538504
62	0x3df80f47	0.12112289
63	0x3bdb358f	0.0066897343
64	0xbba9d4f1	-0.0051828553
65	0x3da38fce	0.07986413
66	0xbc796b4c	-0.0152233355
67	0xbd3d5683	-0.046225082
68	0xbd164610	-0.03668791
69	0x3c7f1733	0.015569496
70	0xbdb410a4	-0.087922364
71	0xbc5b7048	-0.013393469
72	0xbbcce5b3	-0.006252968
73	0xbd97fc08	-0.07421118
74	0xbd90bb27	-0.070669465
75	0x3d4b0826	0.049568318
76	0x3c87341b	0.016504338
77	0x3cd746cf	0.026278881
78	0xbb6616e5	-0.003510886
79	0xbc754d75	-0.0149720805
80	0x3d15531a	0.036456205
81	0xbc8a9a6f	-0.016919343
82	0x3cd01b27	0.025403572
83	0x3c80f1d5	0.015740314
84	0xbd6b81c1	-0.05749679
85	0x3d57c588	0.052678615
86	0x3cb2bc15	0.0218182
87	0x3c55b449	0.013043472
88	0xbd6524b3	-0.055943202
89	0xbdab312d	-0.08358989
90	0x3d577c42	0.052608736
91	0xbd4ad826	-0.04952254
92	0xbd3adac3	-0.045618784
93	0x3d927c2b	0.071525894
94	0xbd925a90	-0.0714618
95	0xbc6352bd	-0.013874707
96	0x3d80651e	0.062692866
97	0xbb3c5039	-0.002873434
98	0xbb6b06d7	-0.003586223
99	0x3d4a93ce	0.049457364
100	0xbb5aed8c	-0.003340575
101	0xbc4cb7dd	-0.012495008
102	0x3b8e2ca5	0.004338818
103	0xbd1c74d5	-0.038197357
104	0xbd5a6633	-0.05332012
105	0xbd267790	-0.040641367
106	0x3d454dd3	0.048169922
107	0xbaf10410	-0.0018388052
108	0x3cc5ebe3	0.024160331
109	0xbca7d92d	-0.0204893
110	0x3d30aa06	0.043130897
111	0x3bcc9636	0.0062434925
112	0xbd245063	-0.040115725
113	0x3a3fb749	0.00073133834
114	0xbcc61f7e	-0.024184939
115	0xbd83c8d6	-0.06434791
116	0x3c8bc8f9	0.017063605
117	0x3ca41570	0.020029753
118	0x3c06ae04	0.0082201995
119	0x3c134350	0.0089882165
120	0xbc4b9b02	-0.012427093
121	0xbd295836	-0.04134389
122	0x3d1f1cea	0.038845934
123	0x3c4c6b8e	0.012476815
124	0x3c4cbf78	0.012496822
125	0xbd8e457d	-0.069468476
126	0x3b62a6c8	0.0034584273
127	0xbc8ef6a3	-0.01745159
128	0xbd340a73	-0.043955278
129	0x3d242dee	0.040082864
130	0x3c11a80a	0.008890161
131	0x3d40146d	0.04689448
132	0xbcf6514b	-0.03006806
133	0xbdbe31df	-0.09286856
134	0xbcf1f097	-0.029533667
135	0x3c2cf578	0.010556571
136	0x3d834baf	0.0641092
137	0x3d41f43c	0.04735206
138	0xbcb583b3	-0.022157526
139	0xbd2daa04	-0.042398468
140	0x3d892b8f	0.06697761
141	0xbdb32fa5	-0.08749322
142	0xbd87247c	-0.06598756
143	0x3d2ecb8b	0.042674582
144	0x3ccfaa7a	0.025349844
145	0x3adb2a82	0.0016721042
146	0x3c13a7cb	0.009012173
147	0x3d1acee8	0.037794977
148	0xbb5af309	-0.003340902
149	0x3c946480	0.018114328
150	0x3ca29934	0.019848444
151	0xbb912141	-0.004429013
152	0x3d69d65b	0.05708919
153	0xbc8c3d2d	-0.017119015
154	0x3c6c6763	0.014428946
155	0x3d4154ca	0.0472
156	0xbc4ba293	-0.012428897
157	0x3d3e53c6	0.04646661
158	0x3d7920ce	0.0608223
159	0x3c955561	0.018229188
160	0xbd8922c1	-0.06696082
161	0xbb665860	-0.003514789
162	0xbc7de81a	-0.015497232
163	0xbd4949f2	-0.049142785
164	0x3cde1cee	0.027113404
165	0x3e101abd	0.140727
166	0x3d8a267e	0.06745623
167	0xbc598f48	-0.01327879
168	0xbd3bbd1e	-0.045834653
169	0xbc8d3ce6	-0.017240953
170	0x3d23220a	0.039827384
171	0xbce9ddcd	-0.028548146
172	0x3cec7cbc	0.028868072
173	0x3cc9b6b6	0.024623256
174	0x3d68506a	0.056717314
175	0xbd4e5947	-0.05037811
176	0xbc74d28f	-0.014942779
177	0x3c0cd8a6	0.008596575
178	0x3cc6882f	0.02423486
179	0x3c233d47	0.00996334
180	0xbda7b331	-0.08188475
181	0x3cdc24fd	0.026873106
182	0xbc38ad26	-0.011271751
183	0x3d1a7713	0.037711214
184	0x3d530beb	0.051525038
185	0x3c8e0718	0.017337367
186	0x3d5b4f9a	0.05354271
187	0x3d5db46e	0.05412715
188	0xbcbd400f	-0.023101835
189	0xbd54ab3b	-0.05192111
190	0xbc0dcf9e	-0.008655457
191	0xba0847fe	-0.0005198716
192	0xbce6983c	-0.028148763
193	0xbd9354ce	-0.071939096
194	0xbd43d769	-0.047812853
195	0x3d1aaea2	0.0377642
196	0x3d4804aa	0.048832573
197	0xbd2aaa94	-0.041666582
198	0x3d091e12	0.033475943
199	0x3ca10a95	0.019658366
200	0xbc756fc7	-0.014980263
201	0xbd0a5592	-0.033773012
202	0xbc72d3bd	-0.01482099
203	0x3cfdb9ea	0.03097244
204	0xbd0eba96	-0.03484591
205	0x3cadf479	0.021234738
206	0xbd22601f	-0.03964245
207	0xbc684314	-0.014176149
208	0x3d08113f	0.033219572
209	0x3c45dc0c	0.012076389
210	0x3bc57f2f	0.0060271244
211	0x3c7242ba	0.014786417
212	0xbd1ad2ec	-0.037798807
213	0xbcc93268	-0.024560168
214	0x3c3f4192	0.011673348
215	0x3ca91082	0.020637754
216	0x3ce683ab	0.028138956
217	0xbd89ee8e	-0.06734954
218	0xbd34f9d3	-0.044183563
219	0x3d1c171b	0.038107973
220	0x3cc2d471	0.02378294
221	0x3cfdda1e	0.030987795
222	0x3cb6921f	0.022286473
223	0xbd10262d	-0.035192657
224	0xbd8fac96	-0.0701534
225	0x3d5705cd	0.052495766
226	0x3d8ec5da	0.06971331
227	0xbcbde767	-0.02318163
228	0xbc85d6f3	-0.016337847
229	0xbd89fb9b	-0.06737443
230	0xbd29ed8d	-0.04148631
231	0xbc273f76	-0.010208001
232	0xbd43e1bd	-0.047822703
233	0xbcbf70dd	-0.023369247
234	0x3c38bd72	0.011275636
235	0x3d1f2716	0.038855635
236	0xbd31aa18	-0.043375105
237	0x3c2007dc	0.009767499
238	0xbd750415	-0.059818346
239	0x3b878a0d	0.00413633
240	0xbda1a550	-0.07892859
241	0x3ce47d6c	0.027891837
242	0x3d52b23c	0.05143951
243	0x3ccffadd	0.025388176
244	0xbc228d93	-0.009921449
245	0xbc95560d	-0.018229509
246	0x3d861b3f	0.065481655
247	0xbd70f032	-0.058822818
248	0xbcff34d9	-0.03115313
249	0x3d19a252	0.037508316
250	0x3d18a461	0.03726614
251	0xbd88d596	-0.06681363
252	0x3df69c08	0.12041479
253	0x3d70ca21	0.058786515
254	0xbd5b3383	-0.053515922
255	0x3c31aae0	0.010843962

linear2.bias f4 [3]
0	0xbd14caa6	-0.036326073
1	0xbcac6858	-0.021045849
2	0xbd9af581	-0.075663574
