model_hybrid/checkpoint_20251029_195545_score6.pth (torch, 21281 bytes, 4 tensors)

linear1.weight f4 [256, 14]
0	0x3d8c5863	0.06852796
1	0xbe579e2b	-0.2105643
2	0x3e9ec67d	0.3101081
3	0x3dad7c1c	0.084709376
4	0xbd5a9ea7	-0.05337396
5	0x3e7670f4	0.24066526
6	0xbec0af3b	-0.3763369
7	0xbd16ffd0	-0.036865056
8	0x3e9f4f02	0.31114966
9	0x3d4fa161	0.050691012
10	0x3c073526	0.008252418
11	0x3dc68e27	0.09695082
12	0x3df75a08	0.12077719
13	0x3ce30d64	0.027716346
14	0x3e5ab3a9	0.21357597
15	0x3ebbe40e	0.3669743
16	0xbe997448	-0.29971528
17	0x3d602422	0.05472196
18	0x3e098fc3	0.13433747
19	0xbda70c91	-0.08156694
20	0xbdad81fe	-0.0847206
21	0x3a9b371f	0.0011841989
22	0x3e2580ea	0.16162458
23	0x3d6dd165	0.058061022
24	0xbe15a439	-0.14613427
25	0x3e2593df	0.1616969
26	0x3e4862c5	0.19568928
27	0x3e290807	0.16506968
28	0xbdb0df52	-0.08636345
29	0x3e3b919a	0.18317261
30	0xbe24ccc7	-0.16093741
31	0x3eb87738	0.36028457
32	0xbe4ebdfc	-0.20189661
33	0xbe73dfa3	-0.2381578
34	0x3ea99bfa	0.33126813
35	0xbe1cd85e	-0.15316913
36	0xbd65b843	-0.05608393
37	0xbeca7e73	-0.39549598
38	0x3e5a877a	0.21340743
39	0x3dfacefe	0.12246512
40	0x3dbfc051	0.09362853
41	0xbe0674f6	-0.13130555
42	0x3d4760c0	0.048676252
43	0x3e918e52	0.28428894
44	0x3ca9c66f	0.020724503
45	0xbe85d03e	-0.2613544
46	0x3eaeec14	0.34164488
47	0xbdb54c59	-0.08852453
48	0xbdb14ad6	-0.08656852
49	0x3d9f0541	0.07764674
50	0x3e83dbe1	0.25753692
51	0x3b625832	0.0034537432
52	0xbe84465f	-0.2583494
53	0xbe1abb27	-0.15110455
54	0x3c8dd740	0.017314553
55	0x3e50c407	0.20387278
56	0x3e330060	0.17480612
57	0x3e2b5989	0.16733374
58	0xbd9a9227	-0.075474076
59	0x3d00c31d	0.031436075
60	0xbe0c6e03	-0.13713841
61	0xbe301d50	-0.17198682
62	0x3e9e3ead	0.30907193
63	0xbe906b69	-0.28206947
64	0xbdca61fb	-0.098819695
65	0xbd22d69a	-0.03975544
66	0x3de747da	0.112930015
67	0x3d3380f2	0.043824144
68	0x3d55ee2d	0.052229095
69	0xbe33afab	-0.17547481
70	0xbe501a13	-0.20322447
71	0x3d3dd2e8	0.046343714
72	0x3de97c56	0.11400668
73	0xbb80ea8e	-0.003934211
74	0xbd0ad3ea	-0.033893503
75	0xbe8fa281	-0.28053668
76	0xbce38821	-0.027774872
77	0xbe7fd4d8	-0.24983537
78	0x3d23d6f5	0.03999992
79	0xbdfd33a2	-0.12363364
80	0xbb7b6ada	-0.003836325
81	0x3df66a0c	0.120319456
82	0x3de6971a	0.11259289
83	0xbe8f2920	-0.27961063
84	0x3e4007f3	0.18753032
85	0x3ddce6ce	0.1078621
86	0xbd3f3964	-0.04668559
87	0x3e204140	0.15649891
88	0x3e844e82	0.25841147
89	0xbdf22f28	-0.118254006
90	0x3e354138	0.1770066
91	0xbe8250f1	-0.25452378
92	0x3dcb5f55	0.099302925
93	0xbe71e4ba	-0.23622409
94	0x3e0db575	0.13838752
95	0x3e15bf6b	0.14623801
96	0xbdd87fe2	-0.10571267
97	0x3d8558c9	0.06511075
98	0x3e040613	0.12892942
99	0xbe9d2eee	-0.30699867
100	0xbdaf6abc	-0.0856528
101	0xbe1890de	-0.14899012
102	0x3c68eeaa	0.014217058
103	0x3e81bf59	0.253413
104	0xbe812d98	-0.25230098
105	0x3c91169c	0.017710976
106	0x3e4468e0	0.19180632
107	0xbbba66fb	-0.0056885458
108	0x3e83c24b	0.2573417
109	0x3e23b41e	0.15986678
110	0xbe5cb168	-0.2155205
111	0xbdd054ed	-0.10172448
112	0xbde64f8f	-0.11245643
113	0xbe809901	-0.25116733
114	0x3e06c702	0.13161853
115	0xbe95fc6d	-0.29294148
116	0x3e9649d4	0.293532
117	0x3e8574c1	0.2606564
118	0xbdd2cdf6	-0.1029319
119	0x3e9955c6	0.29948252
120	0xbe2de2be	-0.16981027
121	0xbe93ddf3	-0.2888027
122	0x3e853336	0.26015633
123	0xbe185351	-0.14875533
124	0x3e495279	0.19660367
125	0xbd14a8d5	-0.036293823
126	0xbc8d42bb	-0.017243734
127	0xbe436098	-0.19079816
128	0x3ede1755	0.43377176
129	0x3e9176cf	0.28410956
130	0xbcbcc95d	-0.023045236
131	0x3ed7864e	0.42094654
132	0xbecf9bc7	-0.40548536
133	0xbdb1e983	-0.08687117
134	0x3e8b38f8	0.271919
135	0x3c7dd54b	0.015492748
136	0xbea74052	-0.3266626
137	0xbe01237c	-0.12611192
138	0x3d72351c	0.05913268
139	0x3e9c18a1	0.3048754
140	0xbc830164	-0.015991874
141	0xbe884dc3	-0.26621827
142	0xbea3a29b	-0.31959996
143	0x3b24cbc5	0.002514587
144	0x3b1cbb43	0.0023915328
145	0x3e93220d	0.28736916
146	0xbe977d9e	-0.29588026
147	0xbc246301	-0.01003337
148	0x3cc9b701	0.024623396
149	0xbe83801f	-0.25683686
150	0x3e8c221e	0.2736978
151	0xbd64ceae	-0.055861168
152	0xbdc64d5c	-0.09682724
153	0xbe07c31c	-0.13258022
154	0x3e985b8c	0.29757345
155	0xbc29a067	-0.010353184
156	0xbd90f3b7	-0.07077735
157	0x3def0ba1	0.1167214
158	0x3d3bde26	0.045866154
159	0xbb9ac804	-0.0047235508
160	0x3d59dbff	0.05318832
161	0xbdbf99f4	-0.09355536
162	0x3df11241	0.1177106
163	0x3e3c51a2	0.18390515
164	0x3e988a48	0.29793
165	0x3e42182f	0.18954538
166	0x3e52700f	0.2055056
167	0x3d7a98e9	0.061180983
168	0x3dc212e1	0.09476257
169	0x3dd70725	0.104994096
170	0x3d26b452	0.04069931
171	0xbd083dc7	-0.03326204
172	0x3d3fbc38	0.04681036
173	0xbd27950f	-0.040913638
174	0x3d135d12	0.03597743
175	0x3e13e9aa	0.14444605
176	0xbe044fd7	-0.12921081
177	0xbe04d312	-0.12971142
178	0x3e2a0425	0.16603144
179	0x3e77e207	0.24207316
180	0x3db22d2d	0.08700023
181	0x3d9a76ca	0.075421885
182	0xbe9ddd6a	-0.30832988
183	0xbdc2a416	-0.09503953
184	0x3ed9d16b	0.42542586
185	0xbdacf8a5	-0.08445863
186	0x3c914728	0.017734125
187	0x3e92e93a	0.28693563
188	0x3e578bb5	0.21049388
189	0x3e0c73d8	0.13716066
190	0x3e11ae22	0.14226583
191	0x3dc86c11	0.09786237
192	0x3e6bd326	0.23029765
193	0xbe438642	-0.19094184
194	0x3e234cff	0.1594734
195	0x3e5bd83d	0.21469207
196	0x3e8e2146	0.2775976
197	0xbd276c6e	-0.04087489
198	0x3cb23e35	0.021758178
199	0xbdbb6d44	-0.091517
200	0x3ec01ecf	0.37523505
201	0xbe047061	-0.12933494
202	0x3c4f2014	0.012641925
203	0x3e03bd25	0.12865122
204	0xbe7da53e	-0.24770066
205	0xbd97ed99	-0.07418365
206	0x3cbde379	0.023179756
207	0x3e25ba31	0.16184308
208	0xbd82e128	-0.063906014
209	0x3da83348	0.08212906
210	0xbeb7a092	-0.35864693
211	0x3edd92a7	0.4327595
212	0x3e9e0868	0.30865788
213	0x3df9d1df	0.12198233
214	0x3dce8c5c	0.10085365
215	0x3d2b0f84	0.041762844
216	0xbd8b5fb0	-0.0680536
217	0xbd81befc	-0.063352555
218	0x3cbdcc64	0.02316875
219	0x3e12e897	0.14346538
220	0xbe209756	-0.1568273
221	0x3dca0b8e	0.09865485
222	0xbd978407	-0.07398229
223	0xbce70481	-0.02820039
224	0xbe63d6d6	-0.22249922
225	0xbdb8159d	-0.089884974
226	0x3e637288	0.22211659
227	0xbdf0a220	-0.11749673
228	0xbe55dd49	-0.20885195
229	0x3e7191e6	0.23590812
230	0x3e877ddd	0.26463214
231	0xbc676668	-0.014123537
232	0x3d8c0b8a	0.068381384
233	0xbe851e22	-0.25999552
234	0xbe560725	-0.20901163
235	0xbda3d7aa	-0.08000119
236	0x3d683cca	0.056698598
237	0x3e28fc5f	0.16502522
238	0x3c8b99ff	0.017041204
239	0x3e8e99d3	0.27851734
240	0xbd556a5f	-0.052103397
241	0xbd4497de	-0.047996394
242	0x3da932fc	0.082616776
243	0xbd6cab80	-0.057780743
244	0xbd6f4031	-0.058410827
245	0x3e48c606	0.1960679
246	0x3d91bb1e	0.07115768
247	0xbca8e080	-0.020614862
248	0x3e8bf5bd	0.2733592
249	0x3be3c808	0.006951336
250	0xbc4de46e	-0.012566669
251	0x3e39add1	0.18132712
252	0x3caa1c0f	0.020765333
253	0xbe7a5ed8	-0.24450243
254	0x3ecf5ade	0.40499014
255	0x3e04e220	0.12976885

linear1.bias f4 [256]
0	0xbe7d8ac3	-0.24759965
1	0x3e814b37	0.25252697
2	0xbd988996	-0.074481174
3	0xbdd7c9e9	-0.10536558
4	0x3e7cd0e8	0.24689066
5	0x3d55697f	0.052102562
6	0x3e373ca1	0.17894222
7	0xbd9de9dc	-0.07710621
8	0x3cf5effa	0.030021656
9	0xbdfd23f9	-0.12360377
10	0x3e3e27c7	0.18569861
11	0x3db8dead	0.09026847
12	0x3e5d10aa	0.21588388
13	0xbe921d0e	-0.28537792
14	0xbe7ee09b	-0.24890368
15	0xbc36cea5	-0.011157666
16	0x3c846ac5	0.016164193
17	0x3db21d2e	0.08696972
18	0x3c27cbf4	0.010241497
19	0xbe36db44	-0.1785708
20	0xbe00c572	-0.1257532
21	0x3da35f20	0.07977128
22	0xbeb43294	-0.35194838
23	0xbd62542f	-0.055256065
24	0x3db252cb	0.08707198
25	0xbe2f5768	-0.17123187
26	0xbdf20c3b	-0.11818739
27	0xbdc41775	-0.095747866
28	0xbe3849ed	-0.1799695
29	0xbe05cfe2	-0.13067582
30	0xbde2205a	-0.11041327
31	0xbdfc361e	-0.123150095
32	0xbd19df26	-0.037566327
33	0xbdd6fad3	-0.1049706
34	0xbd8f7d46	-0.07006316
35	0xbdcfe1f6	-0.101505205
36	0xbcf6cc86	-0.030126821
37	0x3d89301c	0.06698629
38	0xbe87b0b4	-0.26502
39	0x3e1244ca	0.14284053
40	0xbe10ba81	-0.14133646
41	0x3d4e9d92	0.05044324
42	0x3e6395e9	0.22225155
43	0x3e3fa330	0.18714595
44	0xbe70549d	-0.23469777
45	0x3e23f9f8	0.16013324
46	0x3e206474	0.1566332
47	0x3e64d8cf	0.22348331
48	0xbe8edb3e	-0.27901644
49	0x3e42f8d5	0.19040234
50	0xbd085314	-0.033282354
51	0xbd3cda2e	-0.04610651
52	0xbe9559f8	-0.29170203
53	0xbe4fc86a	-0.20291296
54	0x3e33c008	0.17553723
55	0xbce8171e	-0.028331336
56	0x3e23f299	0.16010512
57	0xbe7861a1	-0.24255992
58	0x3df428c9	0.11921842
59	0x3e86d8c9	0.2633727
60	0xbe5abb2d	-0.21360464
61	0x3c1d8c91	0.009616033
62	0xbe09688d	-0.13418789
63	0xbe98b2f9	-0.29824045
64	0xbd045b67	-0.03231373
65	0xbd75b3ff	-0.05998611
66	0x3d03ebc9	0.032207284
67	0xbd758c4c	-0.05994825
68	0xbdea03c4	-0.114264995
69	0x3e3f9d7e	0.18712422
70	0x3cbeeb69	0.023305612
71	0xbda6641c	-0.08124563
72	0xbe83f15f	-0.2577009
73	0x3d9b59f7	0.07585519
74	0xbd4fee6b	-0.050764482
75	0xbe588da4	-0.21147782
76	0x3d056000	0.032562256
77	0x3d81a5ca	0.0633045
78	0x3e213a19	0.15744819
79	0x3d7e58e8	0.062096506
80	0xbe19f164	-0.1503349
81	0x3e075eb3	0.13219719
82	0x3cc7aae6	0.024373483
83	0xbe29671c	-0.1654324
84	0x3e7ecd2a	0.24882951
85	0xbe4aeb83	-0.19816403
86	0xbe7506c2	-0.23928359
87	0x3cbaf386	0.0228212
88	0x3ea2a0ea	0.31763393
89	0xb9e740f2	-0.0004410814
90	0xbd28c60c	-0.041204497
91	0xbe2165ba	-0.15761462
92	0xbe4f52d1	-0.20246436
93	0x3e9bd8dc	0.30438888
94	0x3e390d4b	0.18071477
95	0xbd52baf3	-0.05144782
96	0xbe1a328e	-0.15058348
97	0x3e483842	0.1955271
98	0xbe536ab4	-0.20646173
99	0x3e15f361	0.14643623
100	0x3e042be0	0.12907362
101	0x3d8fe339	0.07025761
102	0x3d1e6287	0.03866818
103	0xbe3e6ed2	-0.18596962
104	0xbbabba18	-0.00524069
105	0xbdadcadb	-0.08485957
106	0xbe3d8a95	-0.18509896
107	0x3ea0d040	0.31408882
108	0xbe7aa01c	-0.2447514
109	0xbe879cff	-0.26486966
110	0xbdc1cf17	-0.094633274
111	0xbd3e25e6	-0.04642286
112	0x3e7c891a	0.24661675
113	0x3deb8646	0.1150022
114	0xbdbba180	-0.09161663
115	0x3ca8aa07	0.020588888
116	0x3e61125c	0.2197966
117	0x3e45d77f	0.19320486
118	0x3e28e8db	0.16495077
119	0x3dfed053	0.124420784
120	0xbe363f2e	-0.17797539
121	0x3e336c9a	0.17521897
122	0x3db8f23f	0.0903058
123	0xbd8637bc	-0.06553599
124	0xbe43534a	-0.19074741
125	0xbded26f0	-0.11579692
126	0x3d3d2e20	0.046186566
127	0xbdbd9b95	-0.092581905
128	0x3cc662a7	0.024216963
129	0x3e5de7ec	0.21670502
130	0xbca39a90	-0.019971162
131	0xbda077f4	-0.07835379
132	0xbe24a6b1	-0.16079213
133	0x3e4ec398	0.201918
134	0xbdcbbc87	-0.09948068
135	0xbe8f4d6c	-0.27988756
136	0x3da027d5	0.07820097
137	0xbe130081	-0.14355661
138	0x3d9ad9ae	0.0756105
139	0xbe046305	-0.12928398
140	0xbe681e12	-0.22667721
141	0xbe456f55	-0.19280751
142	0xbe4a5585	-0.19759186
143	0x3d39b5e6	0.045339487
144	0x3ce32a32	0.027730081
145	0x3e04d31e	0.1297116
146	0xbdb71e66	-0.08941345
147	0xbd8896ae	-0.06669365
148	0xbcaea6d9	-0.021319794
149	0xbd4b71ba	-0.049669005
150	0x3c7e6d40	0.015528977
151	0xbddf5c43	-0.109062694
152	0x3d6dad67	0.058026697
153	0x3d1583e2	0.036502726
154	0x3e067a14	0.13132507
155	0xbd176c6c	-0.036968634
156	0x3d74352b	0.059621017
157	0x3c92166b	0.017832955
158	0xbdbf73a2	-0.09348227
159	0xbc0a347f	-0.008435368
160	0x3db1f10a	0.08688553
161	0xbe072f08	-0.13201535
162	0xbc12c044	-0.0089569725
163	0x3e892b45	0.26790825
164	0xbd160ad6	-0.036631428
165	0xbe12d428	-0.14338744
166	0x3df2147e	0.11820315
167	0x3e04e947	0.12979613
168	0x3e98ace7	0.29819414
169	0x3cd8ee26	0.026480746
170	0x3da1365e	0.07871698
171	0x3e963071	0.29333833
172	0xbdd9789e	-0.10618709
173	0xbe435ec4	-0.19079119
174	0xbdbe4f89	-0.09292514
175	0xbd529a09	-0.05141643
176	0xbd24ed2f	-0.04026526
177	0xbe15c00f	-0.14624046
178	0xbdb5a015	-0.08868424
179	0xbeb83f6a	-0.3598588
180	0x3e40e3da	0.18836918
181	0xbe542af4	-0.2071951
182	0xbd85872d	-0.06519923
183	0x3d9fbc7b	0.07799622
184	0xbd648f31	-0.05580062
185	0xbe3275cf	-0.17427753
186	0xbd0c2024	-0.03421034
187	0xbdac3436	-0.08408396
188	0x3d779aa5	0.060450215
189	0x3e3ea726	0.1861845
190	0x3d23248b	0.039829772
191	0x3d5912b6	0.05299636
192	0xbe70a265	-0.23499449
193	0xbcdfd453	-0.027322924
194	0xbdd867ef	-0.10566699
195	0xbc4f0fad	-0.012638015
196	0x3e60db4b	0.21958654
197	0xbd419a36	-0.047266208
198	0x3e0f91f1	0.14020516
199	0x3dca20ce	0.09869538
200	0x3e748fbd	0.23882957
201	0xbd268112	-0.040650435
202	0xbd44a0e4	-0.048005
203	0x3d650332	0.05591125
204	0xbde8ad2b	-0.11361154
205	0x3e603f3e	0.21899125
206	0x3e43d00d	0.19122334
207	0xbc2a4395	-0.010392089
208	0xbe652a9e	-0.22379538
209	0x3d2b4f7f	0.04182386
210	0xbc0b3e1c	-0.008498695
211	0xbdf80ee7	-0.121122174
212	0x3e7d568a	0.24740043
213	0xbe60bb84	-0.21946532
214	0x3c9deb15	0.019277135
215	0xbe43c827	-0.19119321
216	0x3e5ca2fa	0.21546546
217	0x3e5d03f4	0.21583539
218	0xbd4f664f	-0.05063468
219	0x3df6ea8d	0.12056456
220	0x3df5c8bc	0.12001178
221	0xbd9a7dd5	-0.07543532
222	0x3bb3533d	0.0054725693
223	0xbe1a890c	-0.15091342
224	0xbe1d43cf	-0.15357898
225	0xbdf33697	-0.118756466
226	0xbe8ca011	-0.2746587
227	0x3e661663	0.22469477
228	0xbd6bb766	-0.05754795
229	0x3e65ea21	0.22452594
230	0xbda80aad	-0.08205161
231	0x3e2fa401	0.17152406
232	0xbd974800	-0.0738678
233	0x3e07a9a7	0.13248311
234	0x3e319e46	0.17345533
235	0x3c00e504	0.007867102
236	0xbe831032	-0.25598294
237	0x3e657239	0.22406854
238	0x3e2ec33f	0.17066668
239	0x3d8d8be2	0.06911446
240	0x3d20f298	0.039293855
241	0x3d0d78b4	0.03453894
242	0xbe067341	-0.13129903
243	0xbdbe07ee	-0.09278856
244	0xbd80be0b	-0.06286248
245	0x3e9a1da8	0.3010075
246	0xbe358090	-0.17724824
247	0x3e913d2c	0.28366983
248	0xbe24a93a	-0.1608018
249	0xbd5d0500	-0.053959846
250	0xbe28b347	-0.16474639
251	0xbd3ac5c5	-0.045598764
252	0xbe1ddc97	-0.1541618
253	0xbda10788	-0.078627646
254	0x3e7837b9	0.24240007
255	0xbe0ea0ad	-0.1392848

linear2.weight f4 [3, 256]
0	0x3d0631c2	0.032762296
1	0xbd9b6cb0	-0.0758909
2	0x3d64aac4	0.055826917
3	0x3d5b23aa	0.05350081
4	0xbdf6e936	-0.120562
5	0xbc602eef	-0.013683065
6	0xbc813768	-0.01577349
7	0xbddd9524	-0.10819462
8	0xbe27c62f	-0.16384195
9	0x3cc63d71	0.02419922
10	0xbe4b66d4	-0.19863445
11	0xbdd6f6fc	-0.10496327
12	0xbd6dd56d	-0.058064867
13	0x3cc2449c	0.023714356
14	0xbe2d7fb6	-0.16943249
15	0x3d740fee	0.059585504
16	0xbe073702	-0.13204578
17	0xbd4a7cbe	-0.04943537
18	0x3d37c0c5	0.044861574
19	0x3cde8034	0.027160741
20	0x3e155a68	0.14585268
21	0x3dbf7743	0.09348919
22	0x3d69c43a	0.0570719
23	0x3b732544	0.003710107
24	0xbcfd96a3	-0.030955618
25	0x3d541d43	0.05178572
26	0x3c9ed058	0.019386455
27	0x3dfee608	0.12446219
28	0xbe25db26	-0.1619688
29	0x3dd0aec5	0.10189585
30	0x3cf1932c	0.029489122
31	0x3dace5fa	0.08442302
32	0x3e49abe1	0.19694473
33	0xbdbfefa2	-0.09371878
34	0x3d903263	0.070408605
35	0xbd3ab9bb	-0.045587283
36	0x3d26c62c	0.040716335
37	0xbe0b2c47	-0.13591109
38	0x3933b904	0.00017139694
39	0xbdde00c6	-0.10839991
40	0xbd1761d8	-0.036958545
41	0x3d5d12e9	0.053973112
42	0xbc59c810	-0.0132923275
43	0xbd9876d5	-0.074445404
44	0xbce1362c	-0.027491651
45	0x3d88c307	0.066778235
46	0xbc0d3677	-0.008618942
47	0x3d19b26d	0.037523676
48	0xbc5df059	-0.013546073
49	0x3ccc2771	0.02492115
50	0x3dfb2d0d	0.12264452
51	0xbb5d99bb	-0.0033813554
52	0x3cfae08d	0.030624652
53	0x3cc12a74	0.023579814
54	0x3cfa5fb5	0.030563215
55	0x3debfd6a	0.11522944
56	0xbd7a6faa	-0.061141647
57	0xbcf129fd	-0.029438967
58	0xbdbc70a4	-0.09201172
59	0xbdfbe9eb	-0.12300476
60	0x3d8b44e9	0.06800253
61	0xbd66bf84	-0.056334987
62	0x3dd8ad83	0.1057997
63	0x3c793140	0.015209496
64	0xbc2a65b6	-0.010400226
65	0x3d9c01df	0.076175444
66	0xbcf40b22	-0.029790465
67	0xbd31f399	-0.043445203
68	0xbd158ead	-0.03651302
69	0x3c953037	0.018211467
70	0xbdb97ce1	-0.09057022
71	0xbc5b7048	-0.013393469
72	0x3c720c0b	0.014773379
73	0xbda349ae	-0.07973038
74	0xbdbf6b47	-0.093466334
75	0x3d4b0826	0.049568318
76	0x3c19a383	0.009377363
77	0xbc2b5ef8	-0.010459654
78	0xbd8b9c83	-0.068169616
79	0xbd54931d	-0.05189811
80	0x3dbeaf0e	0.09310733
81	0xbc2b0242	-0.01043755
82	0x38a3fff1	7.8201185e-05
83	0x3c80f1d5	0.015740314
84	0xbdb5ae17	-0.08871096
85	0x3cd7b5f8	0.026331887
86	0xbd81b208	-0.06332785
87	0x3d712f0d	0.05888276
88	0xbd9ca06b	-0.07647785
89	0xbe04ce94	-0.12969428
90	0x3d771f3b	0.060332518
91	0xbd4ad826	-0.04952254
92	0xbd817469	-0.063210316
93	0x3db051a9	0.086093254
94	0xbdb8ba39	-0.09019894
95	0xbdbd2f55	-0.092375435
96	0x3da7b377	0.08188527
97	0xbc9d60da	-0.019211221
98	0xbc8281d7	-0.015931053
99	0x3d5a7d12	0.053341933
100	0xbc7895ab	-0.015172402
101	0xbe414e70	-0.18877578
102	0x3b8e7869	0.00434785
103	0xbd620a35	-0.055185515
104	0xbd9f7ed2	-0.07787861
105	0xbe243e99	-0.16039504
106	0xbd898103	-0.0671406
107	0x3be69e45	0.00703791
108	0xbc3a3f64	-0.011367653
109	0xbd9081a5	-0.07055978
110	0x3d602236	0.054720126
111	0x3d495bf3	0.049159955
112	0xbd5c6831	-0.053810302
113	0x3d3ca529	0.046055946
114	0x3c89f8ad	0.01684221
115	0xbd96cb2d	-0.073629715
116	0x3d167349	0.03673104
117	0x3d25c2ea	0.040469088
118	0xbd757e33	-0.059934806
119	0x3b892b9d	0.0041861073
120	0x3cff8c50	0.031194836
121	0xbd940e22	-0.07229258
122	0xbb7f8888	-0.003899129
123	0xbd2a7abf	-0.041620966
124	0xbd2d8fca	-0.042373456
125	0xbdf3dac3	-0.1190696
126	0x3ca5dfef	0.020248381
127	0xbd69876d	-0.057013918
128	0xbd90a121	-0.07061983
129	0x3d1dbd24	0.038510457
130	0xbc493447	-0.01228053
131	0x3de59cec	0.11211571
132	0xbe7437be	-0.23849389
133	0xbdba8d10	-0.09108937
134	0x3bac9b0c	0.0052675065
135	0x3ddc3e74	0.107540995
136	0x3d807dd3	0.06273999
137	0x3dd7c871	0.10536278
138	0xbdaa17b6	-0.08305304
139	0xbcf372e0	-0.029717863
140	0xbcc329dc	-0.023823671
141	0xbdd0fb8e	-0.1020423
142	0xbe34e150	-0.17664075
143	0x3dacaec8	0.084317744
144	0x3d5c88b5	0.05384131
145	0x3d6bd9fa	0.057580926
146	0x3d7be13f	0.06149411
147	0xbce35b87	-0.027753605
148	0xbc8ddeb6	-0.01731811
149	0x3cf527b2	0.029926155
150	0x3ca29934	0.019848444
151	0xbdb56648	-0.08857399
152	0x3d32de5b	0.043669086
153	0xbdc2a687	-0.09504419
154	0xbd4eb425	-0.050464768
155	0x3abf123d	0.0014577579
156	0xbd4afcb8	-0.049557418
157	0x3d8ed58a	0.06974323
158	0x3db49496	0.08817403
159	0x3d097afd	0.033564556
160	0xbe613643	-0.21993355
161	0xbb665860	-0.003514789
162	0xbdeb981f	-0.11503624
163	0xbd0d0fa7	-0.034438755
164	0x3cd12ef0	0.025535077
165	0x3dcd42ff	0.10022544
166	0x3d800258	0.06250447
167	0xbcbe5a0e	-0.0232363
168	0xbd9d1ccc	-0.07671508
169	0xbdcb016a	-0.09912379
170	0x3dbcb397	0.092139415
171	0xbd47dda5	-0.04879536
172	0x3cec7cbc	0.028868072
173	0x3e05abbf	0.13053797
174	0x3dc0b6f6	0.09409897
175	0xbda462a7	-0.08026629
176	0xbd3aeab2	-0.04563398
177	0x3d477eb5	0.04870482
178	0xba2ac20c	-0.00065139006
179	0xbcc8833e	-0.024476644
180	0xbde7c1a1	-0.11316229
181	0x3b25a004	0.0025272379
182	0xbd5d0b0c	-0.053965613
183	0xbcc40aed	-0.023930991
184	0x3e06b9bc	0.1315679
185	0xbe28ad71	-0.16472413
186	0x3d5b4f9a	0.05354271
187	0x3cdfaad5	0.027303139
188	0xbd39ddda	-0.04537759
189	0xbd88904a	-0.06668146
190	0x3cf80936	0.03027783
191	0xbde64c76	-0.112450525
192	0xbce6983c	-0.028148763
193	0xbe45d2e9	-0.19318737
194	0xbe427dc1	-0.18993284
195	0x3de9d2fa	0.11417194
196	0x3d950c4d	0.07277737
197	0xbdca00b0	-0.098634124
198	0xbb48eeb6	-0.003065986
199	0xbcad2520	-0.021135867
200	0xbd36776b	-0.04454748
201	0xbd9ce3e3	-0.076606534
202	0xbc7c1cc7	-0.01538772
203	0x3d3c60fd	0.045990933
204	0xbde70f43	-0.11282208
205	0x3d5b3274	0.053514913
206	0xbdc58f29	-0.09646446
207	0xbdcf2efb	-0.10116383
208	0x3cd3d96a	0.025860507
209	0xbcadd5c9	-0.021220105
210	0x3b74ea19	0.0037370978
211	0xbd8133a8	-0.06308681
212	0xbd97a140	-0.07403803
213	0xbcc93268	-0.024560168
214	0x3d14cfad	0.036330868
215	0x3cbfc872	0.02341101
216	0x3c490a73	0.012270558
217	0xbd94128e	-0.072301015
218	0xbd6121d0	-0.054963887
219	0xbb44a42a	-0.0030005076
220	0x3c38c117	0.011276505
221	0x3ccdd4a1	0.025125803
222	0xbd16f14c	-0.036851212
223	0xbbdeaca8	-0.0067954846
224	0xbe4c9996	-0.19980463
225	0x3d8d2633	0.068920515
226	0x3d7114fb	0.0588579
227	0xbd81f5b2	-0.06345691
228	0xbd83c402	-0.0643387
229	0xbd732d19	-0.05936918
230	0x3935757e	0.00017305274
231	0xbdb0061e	-0.08594917
232	0xbda1ae4a	-0.07894571
233	0xbcd7aa74	-0.026326396
234	0xbce5d0f7	-0.028053744
235	0x3cbdd5e8	0.023173288
236	0xbd31aa18	-0.043375105
237	0xbd26a4ce	-0.040684514
238	0xbda44673	-0.080212496
239	0xbc9cde05	-0.019148836
240	0xbccd511d	-0.025063092
241	0x3d9a6787	0.075392775
242	0x3d52b23c	0.05143951
243	0x3da6336a	0.08115275
244	0xbde983f2	-0.1140212
245	0xbd074e01	-0.033033375
246	0x3d4938ed	0.049126554
247	0xbd92c1bb	-0.071658574
248	0x3cb8b533	0.02254734
249	0xbd056b37	-0.03257295
250	0x3dc9efd2	0.09860195
251	0xbe7bd5ca	-0.24593273
252	0x3dacc637	0.08436244
253	0x3d2f4083	0.042786133
254	0xbd690b11	-0.05689532
255	0x3dc4b9e1	0.09605766

linear2.bias f4 [3]
0	0xbd53a1c0	-0.05166793
1	0xbd49daf5	-0.04928108
2	0xbdf3b950	-0.1190058
