model_hybrid/checkpoint_20251029_195554_score11.pth (torch, 21291 bytes, 4 tensors)

linear1.weight f4 [256, 14]
000000 6c 5a 94 3d aa 83 5b be f7 81 a9 3e 7a be 96 3d
       0.07243809 -0.21436945 0.33106968 0.07360549
000010 c4 38 dc bc 91 32 76 3e 8b 8e d1 be 65 75 7c bd
       -0.026882537 0.24042727 -0.40929064 -0.061635394
000020 3c 50 9e 3e a8 50 ad 3c c5 8c 8c 3b 63 a8 c4 3d
       0.3092059 0.021156624 0.004289242 0.0960243
000030 f5 d8 03 3e 96 34 55 3c ea af 62 3e c5 c7 bf 3e
       0.12875731 0.013013026 0.22137418 0.374571
000040 14 34 96 be 85 6d ab 3d 28 7f fc 3d 33 65 ea bd
       -0.29336607 0.083704986 0.12328941 -0.114450835
000050 d2 77 c6 bd f9 33 e3 3c fe 71 1e 3e 5c e7 aa 3d
       -0.09690823 0.027734743 0.15473172 0.083449095
000060 9d 8b 19 be b5 96 0c 3e 38 f9 49 3e ab 12 10 3e
       -0.14994664 0.13729365 0.19723976 0.14069621
000070 dc 47 a9 bd 2e c8 68 3e 4b 41 4d be ec f4 d8 3e
       -0.08265659 0.22732612 -0.20044439 0.4237436
000080 d0 2a 75 be 96 81 67 be e4 94 a2 3e 9a 90 33 be
       -0.23942113 -0.22608027 0.3175422 -0.1753563
000090 e6 8a fa 3a e8 e0 bf be b4 58 53 3e 36 8a 03 3e
       0.0019114881 -0.37476277 0.20639306 0.12845692
0000a0 ec 4a ed 3d 5d 95 11 be b0 fd de 3c 33 3a 91 3e
       0.11586556 -0.14217134 0.027220577 0.28364715
0000b0 30 55 1a 3c 14 b0 83 be 62 29 a8 3e c3 89 e2 bd
       0.009419724 -0.25720274 0.32844073 -0.11061432
0000c0 75 48 b9 bd d9 f3 5f 3d 34 26 76 3e 8b 9e 90 3b
       -0.09047023 0.05467591 0.24038011 0.004413431
0000d0 e8 8e 8d be f2 8f 34 be 3f 2d e1 3b 56 c2 32 3e
       -0.2764809 -0.17633036 0.006871849 0.17456946
0000e0 2b 74 2a 3e 5f 78 31 3e c7 4b b7 bd b9 30 56 3d
       0.16645877 0.17331074 -0.0895 0.05229256
0000f0 f3 62 2c be 74 de 1e be 70 6f 95 3e d3 02 95 be
       -0.16834621 -0.15514547 0.29186583 -0.29103717
000100 ad 4b 94 bd 48 3d 82 bb 3c ad ae 3d 35 55 03 3d
       -0.072409965 -0.0039745905 0.085291356 0.03206368
000110 03 9d a1 3d 25 7b 54 be 13 1a 50 be ec cd 81 3d
       0.07891276 -0.20750101 -0.20322447 0.063381046
000120 5e 05 02 3e 1f a6 63 39 32 a9 8a bd 3e c2 8f be
       0.1269736 0.00021710292 -0.06770553 -0.28077883
000130 e2 71 db bc d9 c7 74 be c4 b1 04 3d 25 f9 ee bd
       -0.026787702 -0.23904361 0.032396093 -0.11668614
000140 26 89 04 3a a7 cb d8 3d 4e 09 e1 3d 60 7a a2 be
       0.0005055837 0.105857186 0.10988103 -0.3173399
000150 17 f8 41 3e 31 87 03 3e 60 5b 3e bd 7a 8d 2f 3e
       0.18942295 0.1284454 -0.04647386 0.17143813
000160 ef fe 72 3e e4 4f 0a be 07 76 17 3e 5f e7 80 be
       0.23730062 -0.13507038 0.14791118 -0.25176522
000170 b0 e8 af 3d 15 75 67 be b2 51 05 3e 76 06 e2 3d
       0.085893035 -0.22603257 0.13019446 0.110363886
000180 c7 8a db bd 41 6d a2 3c ae 70 26 3e 43 79 a7 be
       -0.10719829 0.019827487 0.16253921 -0.32709703
000190 35 7b ac bd e6 fa 06 be 16 e0 33 3d f5 86 7b 3e
       -0.084219374 -0.13181648 0.043914877 0.24563201
0001a0 5b ff 90 be 4b 40 07 3d ce ce 38 3e c3 b6 4d bd
       -0.2831982 0.0330203 0.1804764 -0.050223123
0001b0 60 c9 8b 3e 3c 37 2b 3e 4b e4 75 be 11 89 bf bd
       0.27302074 0.16720289 -0.24012868 -0.09352315
0001c0 9d ee ba bd c6 4d 8a be c5 46 29 3e b7 69 8e be
       -0.09127543 -0.2701246 0.16530903 -0.2781503
0001d0 5b b7 a6 3e c1 4b 81 3e 65 21 01 be e6 f3 b6 3e
       0.32561764 0.25253108 -0.12610395 0.35732955
0001e0 41 40 40 be 36 f6 a4 be 98 bf 8f 3e 5a 25 1c be
       -0.18774511 -0.32219094 0.28075862 -0.15248623
0001f0 8a f4 32 3e c0 fc ed bc b2 0e 2f bc 19 af 2f be
       0.17476097 -0.029051185 -0.010684656 -0.17156638
000200 6f 1a ec 3e 1a 94 90 3e d2 e7 9b bc 87 a7 d0 3e
       0.46113917 0.28237993 -0.019031439 0.40752813
000210 ab cc de be 42 2c e4 bd d5 2a 8b 3e 48 bc 0c bd
       -0.43515524 -0.11141254 0.27181116 -0.034359246
000220 ce 61 a3 be df cc 0e be 6c 8b 31 3d 62 3b 8f 3e
       -0.31910557 -0.1394534 0.043345854 0.27974993
000230 f1 ee b7 bc fc 4b 91 be a8 31 ad be 59 e2 bb bc
       -0.022452803 -0.28378284 -0.33826947 -0.02293508
000240 b8 2b bf 3c 4d 70 9f 3e cd a7 b2 be 10 f3 50 bd
       0.023336276 0.31140366 -0.34893647 -0.051013052
000250 ee 5d 80 3c 00 d3 86 be 31 f3 99 3e 60 17 52 bd
       0.01566979 -0.26332855 0.30068353 -0.051291823
000260 80 39 e8 bd 14 86 d3 bd ae 3e a3 3e 17 c9 22 bc
       -0.11339092 -0.10328308 0.31883758 -0.009935639
000270 e5 68 4f bc 41 b4 03 3e e3 d1 57 3d f4 9f 77 bd
       -0.012659286 0.1286173 0.052690398 -0.060455278
000280 77 ef 24 3d 1b f0 ff bc 74 6f ad 3d fc bb 30 3e
       0.040267434 -0.03124242 0.084685236 0.1725921
000290 ed 41 a7 3e 3f 0f 1c 3e be 8b 33 3e 34 24 91 3c
       0.32667485 0.15240191 0.17533776 0.017717458
0002a0 4b 38 e7 3d 14 f4 09 3e 0c 0d e4 3d 28 a9 5b bc
       0.11290034 0.13472015 0.11135301 -0.013407029
0002b0 d9 6f 24 3d 60 5b ba bd 07 ef 05 3d 1c a7 5a 3e
       0.04014573 -0.0909946 0.032698657 0.2135281
0002c0 b6 77 26 be be 18 09 be 5a e2 4d 3e d3 1b 43 3e
       -0.16256604 -0.13388345 0.20105878 0.19053583
0002d0 44 5b 7c 3d 77 74 9b bc 45 c3 9e be e6 03 bf bd
       0.061610475 -0.018976433 -0.31008354 -0.093269154
0002e0 a6 22 f8 3e 1e b9 b3 bd 22 6b 80 3c 23 23 8d 3e
       0.48463935 -0.08775543 0.015676085 0.2756587
0002f0 5c 2c 52 3e d4 b0 17 3e 8f 50 c7 3d 59 72 74 3d
       0.20524734 0.14813548 0.09732162 0.059679363
000300 cb 61 89 3e de 41 4c be da 9f 0b 3e ab 41 34 3e
       0.26832423 -0.19947001 0.13635197 0.17603175
000310 6a 1c 98 3e 23 22 8c bd 72 00 32 3d fc a9 ce bd
       0.29709178 -0.068424486 0.043457456 -0.10091016
000320 27 51 c8 3e 56 d9 1f be af 00 61 3b ab 64 1e 3e
       0.39124414 -0.15610251 0.0034332683 0.1546809
000330 26 af 94 be eb 43 30 bd 2c e1 1d 3d eb 08 22 3e
       -0.29039878 -0.04303352 0.03854482 0.15823714
000340 ae 0b 4c bd cd 08 c1 3d 13 fd b1 be fe b1 01 3f
       -0.049815826 0.09425507 -0.34763393 0.5066222
000350 00 8c a6 3e 05 a5 ed 3d 40 d8 8f 3d 7b e3 eb 3c
       0.32528687 0.116037406 0.07023668 0.028794995
000360 72 98 ef bc 30 52 00 bd bc 93 ed 3b e3 a3 22 3e
       -0.029247496 -0.03132838 0.0072502773 0.1588283
000370 09 4e 23 be 8f 90 cc 3d 0e 0a 58 bd 1f 87 68 bd
       -0.15947737 0.0998851 -0.052743964 -0.056769487
000380 3a b5 63 be a5 94 8e bd b3 a7 85 3e d2 92 f2 bd
       -0.22237101 -0.069619454 0.26104507 -0.1184441
000390 14 e6 37 be 4b 68 3e 3e 43 7b 85 3e d5 99 0b 3d
       -0.17958862 0.18594472 0.26070604 0.034082253
0003a0 e3 4d aa 3d 52 ba 97 be 76 32 75 be 81 74 d8 bd
       0.08315637 -0.2963434 -0.2394503 -0.10569096
0003b0 c3 27 0c 3d ea 38 03 3e 7d 64 f3 3c 06 a7 9c 3e
       0.034217607 0.1281468 0.029711002 0.3059618
0003c0 de 47 34 3c 65 a5 94 bc 5b 74 8d 3d a0 1b c8 bd
       0.011003463 -0.018145273 0.06906959 -0.09770894
0003d0 2b 34 85 bd 42 71 83 3e 44 cd 48 3d fb a1 89 bb
       -0.06504091 0.25672346 0.04902388 -0.004200218
0003e0 20 ef 95 3e c9 e7 1b bd 87 8c c0 bc 8d 32 d5 3d
       0.29284 -0.038062844 -0.023504509 0.104100324
0003f0 54 1a 2e 3c 9b 9d 82 be 5c 62 ed 3e 3a 9c da 3d
       0.010626394 -0.25510868 0.46364105 0.10674329

linear1.bias f4 [256]
000000 a7 7d 7e be 47 99 69 3e 1f 44 8c bd b8 b9 05 be
       -0.2485262 0.22812377 -0.068489306 -0.13059127
000010 ff c5 70 3e d2 2c 1a 3d 72 80 12 3e af e3 8e bd
       0.2351303 0.0376404 0.1430681 -0.06977021
000020 c1 5f d7 3c 63 3b 0c be 9e d5 42 3e 41 99 59 3d
       0.026290776 -0.13694529 0.19026801 0.05312467
000030 69 4a 28 3e d6 7a 96 be f3 48 81 be fb a6 22 bc
       0.16434635 -0.2939059 -0.25250968 -0.009927507
000040 bc 10 1c bc 8a d9 2b 3d 8b 49 5a 3c d3 04 24 be
       -0.009525474 0.04195551 0.013323198 -0.16017465
000050 7c 31 e7 bd 42 0f 9f 3d 21 2b b0 be 5c e9 63 bd
       -0.11288735 0.07766582 -0.34407905 -0.05564247
000060 cf 5d 91 3d 27 06 26 be fd 24 a2 bd e4 e2 94 bd
       0.07097971 -0.16213284 -0.07917211 -0.072698385
000070 fa d4 3b be 80 ea 0d be 5a 20 e2 bd a4 c4 0c be
       -0.18342963 -0.13858986 -0.11041327 -0.13746887
000080 22 eb 95 bc 81 7a ee bd 90 b6 92 bd 9d dc e4 bd
       -0.018300597 -0.116444595 -0.07163727 -0.11174891
000090 4a 49 0b 3c 9a 70 46 3d 1b 47 92 be d9 d4 fa 3d
       0.00850136 0.04844723 -0.28569874 0.12247629
0000a0 13 0c f3 bd 34 5b 35 3d 34 39 47 3e 3b cd 0a 3e
       -0.11867537 0.04427643 0.19455415 0.13554852
0000b0 9d 54 70 be 80 cd 1c 3e 2d d0 16 3e b9 fc 66 3e
       -0.23469777 0.15312767 0.1472785 0.22557344
0000c0 3e db 8e be 73 a2 4a 3e 50 09 0f bd c2 32 81 bd
       -0.27901644 0.19788532 -0.03492099 -0.063085094
0000d0 f8 59 95 be 86 15 64 be 35 e5 27 3e 23 4b 0d bd
       -0.29170203 -0.22273836 0.1639603 -0.034495484
0000e0 b8 77 1d 3e a1 61 78 be a0 a7 e9 3d 9b ec 79 3e
       0.153777 -0.24255992 0.11408925 0.24406664
0000f0 36 73 65 be a4 f6 89 39 f8 37 11 be f9 b2 98 be
       -0.2240723 0.00026314438 -0.14181507 -0.29824045
000100 f4 48 42 bd fc 96 7e bd 36 26 8e 3c d6 43 97 bd
       -0.047432855 -0.06215571 0.017352205 -0.073859856
000110 5c f7 e9 bd f5 02 3b 3e 07 3b 3f 3a 1c 64 a6 bd
       -0.11424133 0.18262847 0.00072948675 -0.08124563
000120 3b d7 8a be 56 13 54 3d ac d0 84 bd a4 8d 58 be
       -0.27117333 0.051776253 -0.064851135 -0.21147782
000130 2c 15 fb 3c 87 da 8d 3d 9f 22 11 3e 4b dd 2c 3d
       0.030649744 0.069264464 0.14173363 0.04220323
000140 6b c4 00 be 3b cb c3 3d 67 4a 65 3c d9 25 40 be
       -0.12574928 0.095602475 0.01399479 -0.18764438
000150 8a 15 59 3e 2c ec 4a be 63 23 67 be 89 31 89 bb
       0.21199623 -0.19816655 -0.22572093 -0.0041868133
000160 19 ee 9b 3e e8 c4 ec bc cd 4e 18 bd ba 65 21 be
       0.30455092 -0.028902486 -0.037184525 -0.15761462
000170 01 e1 4f be d2 5e 99 3e 9d dc 27 3e 48 42 51 bd
       -0.20300676 0.29955155 0.16392751 -0.0510886
000180 20 0e 1a be 32 fa 3f 3e fe 99 33 be 7d 04 13 3e
       -0.15044451 0.18747786 -0.17539212 0.14357181
000190 b7 7a e8 3d 29 1a d9 3d 87 62 1e 3d d2 6e 3e be
       0.11351531 0.10600693 0.03866818 -0.18596962
0001a0 74 8d 1c bc 46 bf e3 bd dd e0 35 be 24 21 a3 3e
       -0.009555209 -0.11120467 -0.1776156 0.31861222
0001b0 fc 29 63 be cb d5 8c be 8b ac 4c bd 75 e3 7b bd
       -0.22183985 -0.2750686 -0.049969237 -0.061496217
0001c0 3b ba 7d 3e 89 25 da 3d c5 44 83 bd ed 06 a0 bb
       0.24778073 0.106516905 -0.06409601 -0.004883638
0001d0 e0 3e 5b 3e d5 97 39 3e 1c e5 21 3e 47 f2 e1 3d
       0.21410704 0.18124326 0.15810055 0.11032539
0001e0 84 14 14 be 43 de 13 3e 36 97 df 3d 3f 06 af bd
       -0.14460951 0.14440255 0.10917513 -0.08546113
0001f0 82 7c 5e be 9b 66 16 be 19 c2 30 3d 6f 2c cc bd
       -0.21727183 -0.14687578 0.043153856 -0.099694125
000200 c9 c4 44 3c 8e 9d 6f 3e e7 ff ac 39 34 d6 bf bd
       0.012009808 0.23399946 0.0003299706 -0.09367028
000210 c7 bb 32 be 1e 4e 2c 3e 77 14 ca bd 46 48 89 be
       -0.17454444 0.16826674 -0.098671846 -0.26812953
000220 40 37 fd 3d ee 29 0e be a1 6b 88 3d c9 6b 0a be
       0.12364054 -0.13883182 0.066611536 -0.1351768
000230 e0 e6 61 be 78 13 56 be ed f8 48 be 34 41 2f 3d
       -0.22060728 -0.20905864 -0.19626208 0.042786792
000240 d2 92 16 3c 13 72 08 3e fd 41 aa bd 1f 4b 89 bd
       0.009190278 0.13324766 -0.083133675 -0.06703781
000250 10 9d 28 bd 50 af 9f bd 40 6d 7e 3c 19 a7 ee bd
       -0.04116541 -0.0779711 0.015528977 -0.11652965
000260 48 f9 3e 3c 75 b8 9c 3c 4a 08 0f 3e 58 ea c5 bc
       0.011656113 0.019130925 0.13968006 -0.024159595
000270 a2 81 81 3d a3 3b 1b 3d 9e a5 d4 bd 7b 13 b7 bc
       0.063235536 0.03789867 -0.103831515 -0.022348156
000280 9c 88 97 3d 08 2f 07 be 33 8b 9f bc e3 08 8a 3e
       0.07399103 -0.13201535 -0.019475555 0.26959905
000290 fd 10 42 bc d9 4c fc bd f8 01 05 3e 9b 90 d1 3d
       -0.011844871 -0.12319345 0.12989032 0.102326594
0002a0 89 ee 85 3e 14 0c c7 3c a4 b5 a9 3d 67 ec 8c 3e
       0.2615855 0.024297751 0.08286598 0.2752411
0002b0 22 b9 c3 bd f7 c7 37 be 54 93 e6 bd 98 cb 62 bd
       -0.09556796 -0.17947374 -0.11258569 -0.055369943
0002c0 b4 34 15 bd f2 54 26 be 5d 2f bb bd 8f 4f c3 be
       -0.036427215 -0.16243342 -0.09139893 -0.38146636
0002d0 da 61 29 3e 7a fd 57 be a4 f3 1c bd d8 d1 c2 3d
       0.16541234 -0.21092787 -0.03831829 0.09512681
0002e0 de 29 77 bd a6 71 4e be 24 20 0c bd 25 4e 91 bd
       -0.060342662 -0.20160541 -0.03421034 -0.07094983
0002f0 85 b5 4e 3d 72 a9 3b 3e a1 7b 4c 3d d2 af 81 3d
       0.05046608 0.18326357 0.04992259 0.06332363
000300 65 a2 70 be 7c c8 ae bc 82 48 02 be f9 7f 7f bc
       -0.23499449 -0.021335833 -0.12722972 -0.015594476
000310 28 ce 7a 3e b6 48 16 bd 04 6a fe 3d da 5d d7 3d
       0.24492705 -0.036690436 0.124225646 0.10515948
000320 61 35 6a 3e 1f 1d 83 bd 0d fd 93 bd 2e 9d 82 3d
       0.22871925 -0.06402039 -0.07226 0.06377636
000330 f8 9f e9 bd 31 b6 38 3e dc 8c 36 3e e1 50 c4 bc
       -0.11407465 0.1803825 0.17827171 -0.023964347
000340 9e 2a 65 be d7 f6 24 3d 6a bd 05 bc 39 a5 f7 bd
       -0.22379538 0.040274467 -0.008162836 -0.120920606
000350 f6 a5 54 3e 84 bb 60 be c3 63 09 3c 39 2d 44 be
       0.20766434 -0.21946532 0.008385601 -0.19157876
000360 a0 b1 48 3e c4 24 48 3e 22 d7 17 bd f5 81 e3 3d
       0.19599009 0.19545275 -0.0370704 0.11108772
000370 5b 94 cd 3d b3 e6 86 bd 28 2e 1c 3c d0 ac 1e be
       0.10038062 -0.06586971 0.009532489 -0.1549561
000380 c8 b9 2b be da 85 cb bd 68 af 8c be 32 0f 45 3e
       -0.16770089 -0.099376395 -0.27477574 0.19244078
000390 e0 48 93 bd 94 56 4a 3e 51 a2 d1 bd cf 5f 34 3e
       -0.07191634 0.1975959 -0.102360375 0.17614673
0003a0 41 df a0 bd 11 39 a4 3d 28 94 2b 3e 79 7e 43 3c
       -0.07855082 0.08018697 0.16755736 0.011932009
0003b0 32 10 83 be 8e d0 5d 3e 8e 0a 27 3e 50 f5 52 3d
       -0.25598294 0.21661589 0.1631262 0.05150348
0003c0 1f ec fb 3c 40 fd 5d 3d 41 73 06 be 3c 1c d8 bd
       0.03075224 0.054196596 -0.13129903 -0.1055226
0003d0 ff 88 71 bd ea 00 90 3e 5c 79 c8 bd 53 47 87 3e
       -0.05896854 0.28125697 -0.097887725 0.26421604
0003e0 4a 6a 28 be 4a e0 5a bd bf 6d 23 be c7 c4 22 bd
       -0.16446796 -0.053436555 -0.15959834 -0.039738443
0003f0 11 c8 0e be 61 14 a0 bd 8b 4f 57 3e f3 b4 23 be
       -0.13943507 -0.07816387 0.21026437 -0.15986995

linear2.weight f4 [3, 256]
000000 1e 55 62 3d ed cc 7f bd 84 0d ba 3d 8f 76 63 3d
       0.055256955 -0.06245129 0.09084609 0.05553299
000010 22 dd b8 bd 53 2e c8 ba c7 e6 af bb 06 6c 0d be
       -0.09026553 -0.0015272595 -0.005368087 -0.13810739
000020 86 11 74 be 09 eb 38 3d 9e b4 84 be 91 61 c8 bd
       -0.2383481 0.045146022 -0.2591905 -0.09784234
000030 0c 76 6e bd 91 f2 33 3c 25 e4 6b be 71 df 93 3d
       -0.058218047 0.010983125 -0.23036249 0.072203524
000040 36 ef 0d be 8a 17 69 bd bd e3 9c 3c 96 10 0b 3d
       -0.13860783 -0.056907214 0.019151563 0.033951364
000050 ee f6 e5 3d 70 8b d8 3d 1e 51 71 3d 06 50 9e bb
       0.11228739 0.105734706 0.05891525 -0.004831317
000060 63 b6 4d bd ed 93 3c 3d c7 ef 48 3d a5 72 21 3e
       -0.050222766 0.04603951 0.049056794 0.1576639
000070 7c 94 53 be 96 48 cd 3d 2c 93 f1 3c 7a 71 ea 3d
       -0.20662111 0.1002361 0.029489122 0.11447425
000080 bd 51 44 3e 06 5c b9 bd ea 20 b0 3d df 22 dc bd
       0.19171806 -0.09050755 0.08600028 -0.10748839
000090 73 ae 63 3d 8e 2a 41 be 03 da ad bc c5 7f 15 be
       0.05558629 -0.1886389 -0.02122212 -0.14599521
0000a0 2b aa 76 bd 0a 0f a6 3d 61 b1 17 bd 6f 74 9c bd
       -0.06022088 0.08108337 -0.037034396 -0.076393954
0000b0 2c 36 e1 bc ac 31 a9 3d 06 df 9b bc 43 4c 67 3d
       -0.027491651 0.08261427 -0.019027244 0.056469213
0000c0 59 f0 5d bc 47 67 6a 3d 79 b3 d9 3d e9 2d 08 3d
       -0.013546073 0.0572274 0.10629935 0.03324691
0000d0 8d e0 fa 3c ca 73 56 3c 48 6a 37 3d dc 8b 25 3e
       0.030624652 0.01308913 0.044779092 0.16166633
0000e0 15 1d 6d bd fd 29 f1 bc 30 82 8a bd a2 74 bf bd
       -0.057889063 -0.029438967 -0.067631125 -0.09348418
0000f0 9a c2 b9 3d f3 d5 4d bd b1 c1 c3 3d 40 31 79 3c
       0.090703204 -0.050252866 0.09558428 0.015209496
000100 7f 57 d9 ba 29 e1 cb 3d 94 29 cc bb 6d e4 45 bd
       -0.0016581862 0.09955055 -0.0062305424 -0.048313547
000110 ad 8e 15 bd 5d cb 0c 3d 9c 60 a4 bd 48 70 5b bc
       -0.03651302 0.03437363 -0.08026239 -0.013393469
000120 1e 6c dc 3b 9d ae a2 bd 6e 06 dd bd 26 08 4b 3d
       0.0067267558 -0.07943461 -0.10792242 0.049568318
000130 e4 98 a7 3c 33 6e 49 bc f1 f4 c6 bd dc cf 8e bd
       0.020458646 -0.01229434 -0.097146876 -0.0697324
000140 52 e4 10 3e c0 3b ab 3c 33 55 93 3c 8c df 94 3c
       0.14149597 0.020902514 0.017984962 0.018173002
000150 d7 9d 8a bd b8 49 57 3c 52 7e 6f bd 1d 0f 8d 3d
       -0.06768387 0.0131401345 -0.058470078 0.06887648
000160 56 3b 78 bd fd 00 f3 bd d2 e9 72 3d 26 d8 4a bd
       -0.060603462 -0.11865423 0.05930502 -0.04952254
000170 2e fd 32 bd 33 a2 7d 3d 7d 84 87 bd 0f 6d cc bd
       -0.043698482 0.061922263 -0.06617067 -0.09981739
000180 7f f6 d1 3d ac 24 c5 bb 15 df 86 bd 09 f5 5b 3d
       0.102520935 -0.0060163345 -0.06585518 0.05370048
000190 e0 6a 5f 3c 64 c1 8c be 69 78 8e 3b 35 0a 62 bd
       0.013636321 -0.27491295 0.00434785 -0.055185515
0001a0 81 db a1 bd 32 96 2a be 67 b1 e4 bd af ad 12 bd
       -0.07903195 -0.16658857 -0.11166649 -0.03581017
0001b0 f2 53 b0 3b b0 30 a1 bd 99 0a f1 3c 91 32 62 3d
       0.005381101 -0.078706145 0.029423999 0.055224005
0001c0 8c eb 79 bd 88 81 97 3d 76 95 be 3c 58 a7 46 bd
       -0.06101565 0.07397753 0.023264628 -0.048499435
0001d0 d7 b8 8c 3d 7a 47 62 3d b5 f1 82 bd 02 d1 75 3c
       0.06871193 0.055243947 -0.06393758 0.015003445
0001e0 ad d0 42 3d f6 25 98 bd c0 50 13 3d 17 d4 65 bd
       0.04756229 -0.074291155 0.03596568 -0.056110468
0001f0 d7 fd cc bc d8 45 05 be d1 f5 29 3d 27 ca 21 bd
       -0.025023384 -0.13014925 0.041494194 -0.039499428
000200 97 8f 77 bd 89 4d 50 3d 0a 05 6c 3c 0a 1a 1f 3e
       -0.060439672 0.050855193 0.014405498 0.15537277
000210 2d a9 84 be bc 43 9c bd fb a8 23 3c 25 ab 01 3e
       -0.2591032 -0.07630107 0.009989019 0.12662943
000220 4e b1 d6 3d 1e 62 2c 3d 73 03 95 bd 5b 05 f7 bc
       0.10483037 0.04208576 -0.072760485 -0.03015392
000230 e0 8e 04 bd 49 29 cd bd 86 b5 82 be 59 6e 5d 3d
       -0.03236282 -0.1001764 -0.25529116 0.054060314
000240 bb 40 92 3d 29 11 8a 3d 82 a8 d2 3d 7a fc 8c bd
       0.071412526 0.06741554 0.102860466 -0.068840936
000250 45 84 50 bd 4a 31 34 3d 34 99 a2 3c 84 86 f4 bd
       -0.050907392 0.04399232 0.019848444 -0.11939719
000260 59 0e 3a 3d 94 49 c8 bd 4d 44 a1 bd 8e bc d6 3a
       0.04542384 -0.09779659 -0.078743555 0.0016383098
000270 db 78 b4 bd 3d 44 e5 3c b4 e6 be 3d fa 7e 85 3d
       -0.08812114 0.02798664 0.09321347 0.065183595
000280 21 f9 6d be 60 58 66 bb 37 a1 10 be 97 77 39 bb
       -0.23239566 -0.003514789 -0.14123999 -0.002830004
000290 fa 50 44 3d 8c c8 f8 3d 13 c1 94 3d 9e 18 24 bd
       0.047928788 0.12147626 0.072633885 -0.04006254
0002a0 17 20 76 bd 6e e0 1a be ef a9 fb 3d ea 2f 4a bd
       -0.060089197 -0.15124676 0.12288272 -0.0493621
0002b0 7c 30 1d 3d fd 88 18 3e 0d bd e6 3d 6e 37 a3 bd
       0.038376316 0.14896007 0.11266527 -0.07969557
0002c0 5e d1 8b bd 4f 82 89 3d 61 f3 d6 3a ea 02 01 bd
       -0.06827043 0.067143075 0.0016399437 -0.03149692
0002d0 fe 3e b8 bd 84 a3 10 bb 19 42 ca bd e3 55 f4 bc
       -0.0899639 -0.002207012 -0.098758884 -0.02982611
0002e0 25 f7 f2 3d d1 64 41 be 9a 4f 5b 3d f9 02 3d 3d
       0.11863545 -0.18886115 0.05354271 0.046145413
0002f0 97 43 4d bd 79 83 05 bd a8 7f d0 3c ac 2e ff bd
       -0.050113287 -0.032596085 0.025451496 -0.12460074
000300 3c 98 e6 bc 67 e2 76 be 10 96 61 be 5f f7 22 3e
       -0.028148763 -0.24109803 -0.220299 0.15914677
000310 2d 0f 9c 3d ed a0 bd bd 2f be 33 bc 32 e7 2d bd
       0.07620082 -0.0925921 -0.010970636 -0.042456813
000320 41 19 91 bc 7b 27 aa bd 31 74 99 bc 17 06 e5 3d
       -0.017712237 -0.083083116 -0.018732162 0.11182802
000330 e3 76 f1 bd c0 df 73 3d 34 70 cf bd 7a 39 09 be
       -0.11790254 0.059539557 -0.10128823 -0.13400832
000340 6a d9 d3 3c 09 ca 8a bc e8 dd 2c 3b a6 c1 89 bd
       0.025860507 -0.016942041 0.0026377384 -0.06726389
000350 e3 0c 78 bd 68 32 c9 bc cd 80 5a 3d e3 ac 99 bc
       -0.060559165 -0.024560168 0.05334549 -0.018759197
000360 ba 1b 59 3c 98 99 4e bd a4 61 45 bd c3 9d 89 bc
       0.013251239 -0.050439447 -0.04818882 -0.01679886
000370 fb 1e 37 3d a1 52 d5 3c 58 f3 2c bd e8 9f bd bb
       0.04470728 0.026040377 -0.04222426 -0.0057868846
000380 d1 86 5d be bc d7 a3 3d 05 1c 6a 3d 45 9b 85 bd
       -0.2163346 0.080001324 0.057155628 -0.06523756
000390 85 8c 99 bd 1a bd fb bc 2c 3b 2b 3c b5 ab b3 bd
       -0.07497505 -0.03072982 0.010451119 -0.08772985
0003a0 74 9c b9 bd 4e e2 84 bc 12 73 8f 3b c1 72 67 3d
       -0.09063044 -0.016221192 0.004377731 0.056505922
0003b0 18 aa 31 bd 5c e5 e7 bc a6 ff 80 bd 2a 48 5d bc
       -0.043375105 -0.02830761 -0.06298761 -0.013505975
0003c0 e9 b7 cd bb 37 de 8d 3d 3c b2 52 3d 6d 27 c8 3d
       -0.0062780273 0.0692715 0.05143951 0.09773145
0003d0 b7 08 ef bd b3 53 cd bc 6d 92 1c 3d 49 63 75 bd
       -0.11671584 -0.025064325 0.03822558 -0.05990914
0003e0 95 13 86 3d 17 fd 02 bd a9 88 e5 3d fd 39 8c be
       0.06546704 -0.031979647 0.112077065 -0.27387992
0003f0 62 22 a5 3d 2a 41 15 3d 0f b1 69 bd 99 c9 96 3d
       0.080631986 0.0364391 -0.05705362 0.073626705

linear2.bias f4 [3]
000000 56 47 20 bd ad 84 41 bd 93 6b f0 bd
       -0.03913053 -0.04724567 -0.11739268
