model_hybrid/checkpoint_20251029_195530_score3.pth (torch, 21281 bytes, 4 tensors)

linear1.weight f4 [256, 14]
00000000: fdb9 093e 32fd 2dbe 3bbd 893e b6fa ba3d
00000010: 01b1 14be 0fd2 443e 0778 4abe 0c32 233d
00000020: f4b2 703e 1e18 793d 25db 243d 86a2 873d
00000030: df2a c63d 09de 133d 1d6a fa3d 029e 803e
00000040: bf84 b5be 92db a53d e8f4 1c3e c22d 55bd
00000050: c07c 09be c85f 6ebd 37c1 613e 78a2 f73c
00000060: b141 2ebe 0262 3a3e 5afe 6f3e ec49 443e
00000070: 227f 33bd ba1a eb3d 427c d8bd a321 a33e
00000080: 997a d2bd e631 58be ed4e b73e 8e8c b7bd
00000090: ee23 cbbc 4d21 aebe 16aa 863e f34d 2c3e
000000a0: bf82 d63d d5f8 92bd 9b64 9a3d 65b8 363e
000000b0: 0301 89bc 2d18 50be a3d7 993e 3d63 36bd
000000c0: 19fc e6bd fb6b 873d 82b6 8c3e e12b 66bc
000000d0: dcb0 83be cafc 21be dcd6 423d 96f1 5a3e
000000e0: e4cd 663d fb41 4d3d 33f7 b6bd 34be bebc
000000f0: 1a85 afbd 1633 17be 31c9 953e 79e7 73be
00000100: 84bc bcbd 1827 a9bd 355f 2a3e 6b1d 513d
00000110: 47ac 453d 6aba 23be c9af 52be 7760 80bc
00000120: d1d7 9f3d 79b7 4c3d 694a 863d 1eac 93be
00000130: 7a76 86bd d44d 4ebe 24ba bc3d 6a2d d4bd
00000140: 5f71 263d 1266 4d3e b94f 1e3e c582 3dbe
00000150: 83e0 203e 5c95 223b a095 c9bd 5845 5a3e
00000160: c466 8b3e 6420 bfbd 5742 1c3e 85bd 95be
00000170: bc68 2b3e 9742 8fbe 09a8 153e e9f8 383e
00000180: 76d9 8fbd 0ce0 df3d be8e d13d cf74 77be
00000190: 5b2d cabd 8122 17be 3319 54bb 3fed 703e
000001a0: 914d 89be 4477 c53a c29b fe3d a772 3c3d
000001b0: 37bf 7c3e d379 173e 05d2 55be 98b6 babd
000001c0: a5cb 54be 9a40 61be f9d7 4b3e 6724 9cbe
000001d0: 83a3 9d3e 1a95 473e bdca b7bd 3c90 673e
000001e0: 7470 2abe 01dc 91be e2be 793e 0fa6 2abe
000001f0: a946 3e3e 4da7 02bd c7d9 f33c 1f45 22be
00000200: 048b b13e 8808 973e 4043 363b 32b0 b63e
00000210: a094 adbe 4489 4fbd 56e6 6a3e 4626 1f3d
00000220: 6477 9dbe a047 0abe 8a1c 6f3d f9fc ad3e
00000230: 4f07 bbbd 433e 88be 41be 84be 2bce 95bc
00000240: 91fa 2c3c 39a1 823e f9a4 86be bdd5 de3c
00000250: b642 3f3b d0e3 13be ac2e 6a3e 49bd 85bd
00000260: 3bef c7bd 48e2 20be 5d6a 863e c293 babc
00000270: 0dd6 26be b4bd 173e 17b0 bb3d f603 b4bb
00000280: ab59 6c3c 3453 1bbe a4d0 0e3e c36c 1f3e
00000290: a947 8f3e dd7c 603e a7b7 753e 77d6 e83d
000002a0: b3a2 593d 15a8 293d d74d 8bbd 7b2d 963c
000002b0: b2dd a93d 4a98 0ebd 5821 f8bb 39bd c13d
000002c0: d3eb c1bd 3a90 26be 367c 213e e882 963e
000002d0: 3b09 0d3e cbbe 2e3e 9e08 6fbe 8cbb 1abd
000002e0: da2e bf3e 68d1 d6bd af62 4e3d 781b 7e3e
000002f0: 054d 193e eaec 433e f4fe 963d 9965 893d
00000300: 970f 5a3e 3da2 77be 1788 083e 317a 363e
00000310: 7c6a 6d3e 38ab 35bd 8ed4 913c aa51 81bd
00000320: e616 a13e c6e9 dfbd 8a8b 2abd 5318 f43d
00000330: c635 8cbe b9ca 14be e17f 70b9 6951 023e
00000340: d3cd 58be 2f08 9c3d 1f85 89be 4796 ae3e
00000350: 61df 5a3e 907b 2a3e ed4a 903d 641b cc3c
00000360: ba84 d9bc 0763 b6bd 5f21 073c 951e 353e
00000370: 94a9 34be 381b d33d 34f6 7cbd 3dcc d73b
00000380: a60d 4fbe 41a4 0cbe c542 303e 34ff fabd
00000390: 3f13 19be 1bf5 7d3e 4dfe 5f3e 4082 30be
000003a0: b131 433d d1db 6abe 989b 32be b8c5 3abd
000003b0: 22bf 6a3d 6726 533e de7a 19bd fbf7 393e
000003c0: cdcd 16be 9bc0 7c3c a8aa e93d f049 20bd
000003d0: 3276 c6bd f3e7 1a3e cae2 003e e792 57bd
000003e0: e630 8a3e 3ab5 773d 01e8 303d fd9e 8a3e
000003f0: 3159 db3d fea9 42be 4ec5 be3e c3a5 1f3e
0.13449855 -0.16991118 0.26902184 0.091298506 -0.14520647 0.19220756 -0.1977235 0.03984265
0.23505765 0.060814016 0.040248055 0.06622796 0.09676146 0.03610042 0.12227271 0.2512055
-0.3545284 0.0809852 0.153278 -0.05204559 -0.13426495 -0.058196813 0.22046362 0.030228838
-0.17017247 0.1820145 0.23436871 0.19168824 -0.043822415 0.11479707 -0.10570575 0.318616
-0.1027729 -0.21112785 0.35802403 -0.089623556 -0.024797406 -0.3400978 0.2630164 0.1682661
0.104741566 -0.07176367 0.0753872 0.17843778 -0.016724115 -0.20321722 0.3004733 -0.044528235
-0.112785526 0.066123925 0.27482992 -0.0140485475 -0.2572087 -0.15819088 0.047568187 0.2138122
0.056348696 0.050111752 -0.08933868 -0.023284055 -0.08570309 -0.14765581 0.2925506 -0.23818769
-0.09215644 -0.0825941 0.16637881 0.051053446 0.04826 -0.1598908 -0.20574869 -0.015670998
0.078048356 0.04997966 0.06557161 -0.28842252 -0.06565566 -0.20146877 0.09215191 -0.103602245
0.040635463 0.20058468 0.154601 -0.18506916 0.15710644 0.0024808263 -0.09842992 0.21315515
0.2722684 -0.0933235 0.15259682 -0.29246154 0.16739172 -0.27980492 0.14614882 0.18063702
-0.07023899 0.109314054 0.10232304 -0.24165653 -0.09871932 -0.14759256 -0.0032363653 0.23528002
-0.2681699 0.0015065451 0.12432052 0.04600778 0.24682318 0.14792566 -0.20880897 -0.09116858
-0.20780809 -0.219973 0.19906606 -0.30496523 0.30788812 0.19490471 -0.08974216 0.22613615
-0.1664446 -0.28488162 0.24389222 -0.16664909 0.18581642 -0.03189783 0.02976693 -0.1584668
0.34676373 0.29498696 0.002781108 0.356813 -0.33902454 -0.050668016 0.22939429 0.03885486
-0.3075515 -0.13503885 0.058376826 0.33982065 -0.091322534 -0.26610002 -0.25926402 -0.018286785
0.010557787 0.25513628 -0.2629774 0.027201528 0.002918405 -0.14442372 0.22869366 -0.06530244
-0.097624265 -0.1571132 0.26253024 -0.022775535 -0.16292591 0.1481846 0.09164446 -0.0054936362
0.014425675 -0.15168458 0.13946778 0.15568833 0.2798436 0.21922632 0.23995839 0.11369031
0.053133678 0.04142006 -0.06801956 0.018332234 0.08294238 -0.034813203 -0.0075723343 0.094599195
-0.09468808 -0.16265956 0.15770039 0.2939675 0.13773052 0.17064969 -0.23343131 -0.037776515
0.37340432 -0.1048916 0.05038708 0.24815166 0.14970787 0.19133344 0.07372847 0.06708831
0.2129501 -0.24182983 0.13333164 0.1782005 0.23185152 -0.04435274 0.01780155 -0.06314404
0.31462783 -0.109332606 -0.04163698 0.11918702 -0.27384776 -0.14530458 -0.00022935822 0.12726368
-0.21172266 0.076187484 -0.26859376 0.34099028 0.21374275 0.16648698 0.07045541 0.024915405
-0.026552547 -0.08905607 0.008247702 0.17687447 -0.17642814 0.10307926 -0.061758235 0.0065856264
-0.2022005 -0.13734533 0.1721297 -0.122557074 -0.14948748 0.24800532 0.21874352 -0.17237186
0.04765481 -0.22935416 -0.17442167 -0.045598716 0.057311185 0.20620118 -0.03747069 0.18161003
-0.14726944 0.01542678 0.11409503 -0.039133012 -0.09690513 0.15127544 0.12586513 -0.05263033
0.26990432 0.060475565 0.043190006 0.27074423 0.10710371 -0.1901016 0.37259907 0.15590577

linear1.bias f4 [256]
00000000: 3d80 8ebe 36b2 8b3e 3df3 eabc 324d e6bd
00000010: 0d1c 823e 468b 073e 1f76 5a3e 845e b6bd
00000020: 4cb4 463c 19b6 07be ec7c 343e 06a8 f53d
00000030: 371a 893e 1f2b acbe a324 91be 9ca1 dcbb
00000040: 121f 4f3d a5dd 0f3e 3d04 1f3d 90cd 2bbe
00000050: c9f6 39be fcea c43d ec6e 9ebe 63c1 cfbb
00000060: 175a 023e 4a57 4abe 3b0c f2bd ed99 15be
00000070: 26ec 3bbe c6c9 00be 5a20 e2bd f66c febd
00000080: a229 c4bd 962e 9abd d9c2 e7bd f270 fabd
00000090: 78ed 21bc 81f1 333c 0eaf 89be fc32 1e3e
000000a0: c521 d1bd 676e 703d c4cf 653e 282f 6d3e
000000b0: 9d54 70be ca21 0e3e 0157 183e 9593 6c3e
000000c0: d368 7ebe 861e 5c3e 0012 40bd bdf4 0dbc
000000d0: c3e3 85be bcba 8dbe 1426 4a3e e218 05bd
000000e0: 5a6d 303e 590c 5cbe 84b6 043e 9e79 943e
000000f0: ddd9 66be 9056 643b a44e eebd b4f2 8fbe
00000100: 4646 0cbd 70cd 2bbd 9ead 483d 938d d9bc
00000110: b51f eabd c5de 6f3e 57ba 623d 1c64 a6bd
00000120: 809d 84be 7448 f63d afd3 42bd a48d 58be
00000130: dca3 723d 7d26 da3d 858d 413e 2ad4 b23d
00000140: fae1 1abe 74bd 0b3e 5709 94bb 1c67 29be
00000150: 3f20 793e 48f5 48be eb8a 76be fe4d cd3d
00000160: da1f a63e fa9a 5e3d dedf c6bb ba65 21be
00000170: 6c90 4cbe f745 943e 9adf 4d3e 94f4 9dbd
00000180: 0ed9 35be 8e8a 583e dd12 89be 0b70 333e
00000190: 6959 423e 4ce8 343d 8762 1e3d f924 32be
000001a0: 0eee 093c 8e7c 15be 7f8d 09be 769c 9b3e
000001b0: d92c 79be 1d5c 82be 9ffc d7bd 3573 36bd
000001c0: 0616 693e c89c 0b3e 4e4d 3bbe 4645 373d
000001d0: d610 7c3e bd48 293e 7eca e03d fbf1 053e
000001e0: cfcb 40be d697 573e 24f5 d43d 1a8c a0bd
000001f0: 2a71 22be edd3 f1bd d410 0d3d d40b febd
00000200: 5974 923c e697 5b3e 01ce 703c a654 b2bd
00000210: f7c8 23be 50df 6c3e e39a 0ebe dd6c 91be
00000220: 7e41 9c3d 9d77 27be 9c1b a93d b56b e0bd
00000230: 3939 36be ceed 15be f0a1 59be 12d5 153d
00000240: 8d9d 813c 19b7 123e 60b8 46bd 0e92 b3bc
00000250: a133 f1bb 5324 9d3c 406d 7e3c c37a 9cbd
00000260: 2ed9 953c e6cc 4f3d 2b97 dd3d c125 26bd
00000270: fc47 aa3d 868c 233c 20a6 c7bd ae7d af3c
00000280: 71d4 b63d 082f 07be 0f38 803b 8d2a 743e
00000290: ae27 13bd 6b96 22be 30c9 f33d 1686 d53d
000002a0: fcb4 a83e 9633 3f3d 5486 7a3d 0b57 943e
000002b0: 9e78 d9bd b324 85be b542 02be 60ca 99bd
000002c0: e327 8dbd 3f84 2bbe 803a 46bd 8a61 afbe
000002d0: 32f4 6c3e 7abb 3bbe 1ce6 93bd e423 853d
000002e0: d7a2 cfbd 4bfa 60be 2420 0cbd 24fb 45bd
000002f0: 1021 8b3d 83c9 733e 4ebb 683d d97c 173d
00000300: 65a2 70be 5c73 fe3b bc60 cabd 2d62 31bd
00000310: b8a6 733e 7831 ccbd d77f 2b3e 75a2 db3d
00000320: a811 853e 380d 6ebd d87b c33c 3e30 903d
00000330: 10ba 09be 40cf 853e 3ccc 863e 91a8 8e3b
00000340: f47c 5abe 724d 923d b229 233d d953 d8bd
00000350: 2405 943e 84bb 60be fd1c d43c e689 71be
00000360: f047 6e3e 5eec 813e ede4 84bd 1a2e 0d3e
00000370: 2e5e ca3d 308c 77bd 4e29 adbb 8f67 ebbd
00000380: ad56 37be bbb7 09be ce17 98be 2d47 6f3e
00000390: 059b 25bd bb7e 7d3e 3b66 9ebd a794 d73d
000003a0: 7880 80bc cdc4 473e 9058 2e3e 9b71 2f3c
000003b0: 3210 83be c4db 613e 3bc9 413e 0e1b a93d
000003c0: 5fdd fe3d 9388 6d3d 4173 06be edf7 bebd
000003d0: 8f23 95bd 1ff1 a53e 4588 56be 48bc a83e
000003e0: 2185 cebd 6075 8cbd e8da 41be 6d80 30bd
000003f0: b9ca 9abd 95da ebbd 6588 8f3e c3cd 1ebe
-0.27832213 0.27284402 -0.028680438 -0.112451926 0.25412026 0.13236722 0.21334122 -0.08904746
0.012127947 -0.13253058 0.17625779 0.119949386 0.26777813 -0.3362665 -0.28348264 -0.0067331325
0.05056674 0.14049394 0.0388224 -0.16777635 -0.18160547 0.09615132 -0.30944002 -0.006340192
0.12729679 -0.1975986 -0.11818739 -0.146095 -0.18351802 -0.1257697 -0.11041327 -0.124231264
-0.09578253 -0.07528417 -0.11316461 -0.12228574 -0.009883277 0.010982872 -0.2689137 0.15449136
-0.10211519 0.058699038 0.22442538 0.2316252 -0.23469777 0.13880077 0.1487694 0.23103173
-0.24844675 0.21496019 -0.046892166 -0.008664307 -0.2615033 -0.2768153 0.19741088 -0.032494433
0.17229214 -0.21489085 0.12960249 0.28999037 -0.22544046 0.0034841634 -0.11636093 -0.28114855
-0.034246705 -0.041943967 0.0489937 -0.026556766 -0.11431829 0.23424824 0.05535349 -0.08124563
-0.25901413 0.12025538 -0.04756516 -0.21147782 0.0592383 0.10651872 0.18901642 0.08731873
-0.15125266 0.1364649 -0.004517715 -0.1654324 0.24328707 -0.19624817 -0.2407643 0.100246415
0.32446176 0.054347016 -0.0060691675 -0.15761462 -0.19976968 0.2895963 0.20104828 -0.07712665
-0.17758581 0.21146604 -0.26772204 0.1752321 0.1897942 0.044166848 0.03866818 -0.17396916
0.008418573 -0.14598295 -0.13432883 0.30392808 -0.24333514 -0.25460902 -0.105462305 -0.044543464
0.22762308 0.13634026 -0.18291208 0.0447438 0.24615797 0.16531654 0.10976122 0.1308059
-0.18827747 0.21054015 0.10398319 -0.07839222 -0.15863481 -0.11808 0.034439877 -0.124046
0.017877745 0.21444663 0.014697553 -0.08707552 -0.15994631 0.23132062 -0.13926272 -0.2840337
0.07629679 -0.16354223 0.08257219 -0.109580435 -0.17795266 -0.14641497 -0.2125318 0.036580153
0.015822196 0.14327659 -0.048515677 -0.02192023 -0.007360891 0.01918236 0.015528977 -0.076406024
0.018292036 0.050732516 0.108198486 -0.04056335 0.08314511 0.009982234 -0.09748483 0.021422233
0.08927239 -0.13201535 0.0039129327 0.23844357 -0.035926513 -0.15877692 0.11903608 0.104259655
0.3295058 0.046680056 0.06116326 0.2897266 -0.10618709 -0.26004562 -0.12720759 -0.07509303
-0.068923734 -0.16749667 -0.048395634 -0.34254104 0.23140028 -0.18333235 -0.07221624 0.06500986
-0.10138481 -0.21970479 -0.03421034 -0.04833521 0.067934155 0.2380734 0.056819253 0.0369843
-0.23499449 0.0077652168 -0.09881732 -0.04330652 0.23794067 -0.09970373 0.16747986 0.107243456
0.25990033 -0.058118075 0.023862764 0.070404515 -0.13449883 0.26134682 0.26327693 0.004353591
-0.21336728 0.07143678 0.039834686 -0.10562868 0.28910172 -0.21946532 0.025892729 -0.2358776
0.2326963 0.25375646 -0.06488977 0.13787118 0.098812446 -0.060436428 -0.005284465 -0.114943616
-0.17904158 -0.13448994 -0.29705662 0.23366995 -0.04043104 0.24755375 -0.07734343 0.105264
-0.015686259 0.19508667 0.17025971 0.010708238 -0.25598294 0.2205649 0.1892442 0.082571134
0.12444567 0.057991575 -0.13129903 -0.09324632 -0.07282173 0.32410523 -0.2095042 0.32956147
-0.10083986 -0.06858325 -0.18931162 -0.043091226 -0.075581975 -0.115163006 0.28033748 -0.1550818

linear2.weight f4 [3, 256]
00000000: 8096 a6b9 6188 9dbd 30a9 783d 1688 74bb
00000010: 1b52 c7bd d093 d8bc a2c4 d1bc 4f9a a3bd
00000020: 1909 afbd b9c7 87bc 4f6b aabd 281c c2bd
00000030: 45f2 3ebd 8cfa d13c a014 88bd e52b 723d
00000040: 364e edbd 4ec8 fbbc ba81 a63d 6e3e 69bc
00000050: fc76 f23d ffd2 7a3d fd6f ac3d 860c 3e3d
00000060: 05ca 2cbc 9182 313d 58d0 9e3c db0c 473d
00000070: 6b67 b0bd 945c d23d 2c93 f13c 9a81 833d
00000080: 8087 073e 6e12 dfbd cc27 313d edfc 8ebb
00000090: 9778 2c3d 2d51 46bd fcb9 1d3d cb0b 9bbd
000000a0: 84c7 cabc 119c 7a3d 1315 23bc a882 65bd
000000b0: 2c36 e1bc 42aa ae3d f3a3 ec3b e195 393d
000000c0: 59f0 5dbc f82c 1f3c 6bb3 f33d 3ba7 a7bc
000000d0: e620 793d 8025 d23c af03 c13c 7b21 893d
000000e0: c935 4fbd afda 46bd b246 dbbd 4e0a 08be
000000f0: d6f8 663d 61e9 04bd 0ae2 f63d 373a 37ba
00000100: 05e6 0cbd 029a b03d ece8 43bd 1fc9 40bd
00000110: ad8e 15bd 071c 813c 8c33 e3bd 4870 5bbc
00000120: c81a ad3c 2142 afbd b361 9fbd 2608 4b3d
00000130: 3adf d73c 5a8a ec3c e57b 38bd eafa 57bd
00000140: 1d67 b33c 6d3e a3bc ece0 9a3d d5f1 803c
00000150: 48a9 c9bd 88c5 573d e5a7 073d e0c4 88bb
00000160: 4c2d adbd 70e6 09be 7c0f 713c 26d8 4abd
00000170: 4676 cebd 7724 8a3d b08b a7bd 81be b9bd
00000180: 7c1d ad3d a759 9bbb 76ea 15bc 4621 4c3d
00000190: d128 36bc 3e71 8cbd 6978 8e3b 84bf 1dbd
000001a0: c81f a1bd c334 8bbd ef58 a03c 10ef 923c
000001b0: 9872 ba3c 95af 32bd c05a 833d 961c e13c
000001c0: 0517 cfbc 5daa cd3c 9d69 a43c 94ad b5bd
000001d0: 60bd 6f3b 0b90 a43c c297 a9bb b95b eeba
000001e0: 1e98 89bc 98b4 74bd 904f 383d 7986 9abc
000001f0: b769 4cbc 2ce5 a3bd f54a c23c 971e 62bc
00000200: a571 b0bd 1bf1 913d 71e6 453b d100 3b3d
00000210: 1fb8 09be 7290 cebd d6fd 11bd be30 003d
00000220: cd2e a03d 1063 4e3d d62c 2dbd 4794 76bd
00000230: 13b5 263d 7021 ebbd 248c 29bd 51b0 8e3d
00000240: 5f73 d43d 3abd 133d 8d54 273d 9117 8a3d
00000250: 6f79 3e3c b85e 74bc 3499 a23c 5fab d2bc
00000260: 2331 8d3d 12a1 28bd d37c 51bb 415e 193b
00000270: e89d eabc b95c 323d bc31 aa3d ae58 8b3c
00000280: 97de c3bd 6058 66bb 854e bcbc 2a3c 8ebd
00000290: 372c a93c deb3 0d3e f41b 933d b784 03bc
000002a0: 02a0 98bd 8d40 bebc d87a 153d 287b 17bd
000002b0: bc7c ec3c 488c 843d 33dd dd3c e4d5 43bd
000002c0: d2f6 44bb df41 b13c 8133 a53b 7008 813c
000002d0: deb7 d7bd f191 953c 6d4b 66bd e960 0c3d
000002e0: 004c 343d 745d 26bd 9a4f 5b3d eb66 663d
000002f0: bb82 1abd 08b0 97bd a896 e1bc 02fa a8bc
00000300: 3c98 e6bc 4f0f f2bd f356 57bd 77d2 383d
00000310: 9876 cb3d e9f4 90bd 6ce4 b13c d457 c33c
00000320: 897a cdbc c470 8cbd b0fb 49bc ce26 9f3c
00000330: 6e23 38bd 79b2 0b3d f6a4 0cbe 74a1 0dbd
00000340: 17dd d33c 857f a63b 4a6c f0bb facf c8bc
00000350: 61a1 89bd 6832 c9bc 38b2 553d cac2 d13c
00000360: 792e 453c 3d68 c9bd 050e c3bd 29fd e53c
00000370: a891 e63b 864c ce3c 3e03 eb3b d9b6 f8bc
00000380: 3f50 a3bd 8bfb b13d 6033 823d 4bb6 2abd
00000390: 7dd2 ecbc 1cc9 97bd 7110 38bd 5e77 193c
000003a0: 19f3 84bd 2a80 00bd af8e 7e3c 489e 513d
000003b0: 18aa 31bd 70a3 293c 432b 98bd c753 43bb
000003c0: 0e0c 90bd 0e9d 823d 3cb2 523d 1f29 aa3d
000003d0: 4b7f 593c 45e0 bbbc d88c 7a3d 98cf b0bd
000003e0: 5ca3 2cbd 52a2 193d af5f 503d 0a93 07be
000003f0: 2126 1a3e 1746 0f3d 955e 6fbd 4da4 2c3d
-0.00031774119 -0.07692028 0.060708225 -0.003731256 -0.09732457 -0.02643767 -0.025606457 -0.079884164
-0.08546657 -0.016574727 -0.08321249 -0.09478027 -0.046617765 0.025632165 -0.06644559 0.059123892
-0.11587183 -0.030735161 0.08130212 -0.014236076 0.11839101 0.061236378 0.084197976 0.046398662
-0.010546212 0.04333741 0.019386455 0.048596244 -0.086134754 0.10271564 0.029489122 0.06421204
0.13235283 -0.10892187 0.043250844 -0.004363647 0.04210719 -0.04841726 0.038507447 -0.07570609
-0.02475334 0.061183993 -0.009953755 -0.056032807 -0.027491651 0.08528568 0.0072216927 0.04530895
-0.013546073 0.009715311 0.11899456 -0.020465484 0.06082239 0.025652647 0.023561327 0.06695839
-0.050588403 -0.048548397 -0.107068434 -0.13285181 0.056389652 -0.03244913 0.12054832 -0.00069895707
-0.03439905 0.08623125 -0.047829553 -0.047066804 -0.03651302 0.015760435 -0.11093816 -0.013393469
0.021130934 -0.08557535 -0.077823065 0.049568318 0.02635156 0.028874565 -0.04504003 -0.052729525
0.021899754 -0.019927228 0.07562432 0.015740314 -0.09846741 0.052678615 0.0331191 -0.00417386
-0.08455905 -0.13466811 0.014713164 -0.04952254 -0.100811526 0.06745236 -0.0818094 -0.09069539
0.08452889 -0.004740912 -0.009150138 0.04983642 -0.01111813 -0.06857537 0.00434785 -0.03851272
-0.0786739 -0.06797173 0.019573657 0.01793626 0.02275972 -0.04362448 0.064137936 0.027479451
-0.025279531 0.02510565 0.020069892 -0.08870998 0.0036581382 0.020088216 -0.0051755616 -0.0018185294
-0.016796168 -0.05974254 0.04499775 -0.01886295 -0.012476376 -0.080026954 0.023717383 -0.0138012385
-0.08615426 0.07126065 0.0030197168 0.045655075 -0.13449143 -0.100861445 -0.035642467 0.031296484
0.078214265 0.050387442 -0.042279087 -0.060200002 0.04070003 -0.11480987 -0.041393414 0.069672234
0.10373568 0.036069132 0.04085212 0.06742776 0.011625632 -0.014915161 0.019848444 -0.025716482
0.06894138 -0.041169234 -0.003196527 0.0023402127 -0.028639749 0.04354546 0.08310267 0.01701006
-0.0956394 -0.003514789 -0.02298666 -0.06945069 0.020650966 0.13838145 0.07183066 -0.008027247
-0.07452394 -0.02322414 0.036494106 -0.036982685 0.028868072 0.06472069 0.027083015 -0.047811404
-0.0030054343 0.021637855 0.00504154 0.015751094 -0.10533117 0.018258067 -0.056224275 0.03427211
0.04401779 -0.040616468 0.05354271 0.056250494 -0.03772233 -0.07406622 -0.027537659 -0.020627026
-0.028148763 -0.11819326 -0.052573156 0.04512259 0.09934729 -0.07077963 0.021715365 0.02384559
-0.025082843 -0.06857446 -0.012328073 0.019427683 -0.044955663 0.03410575 -0.13734803 -0.0345778
0.02586226 0.0050811195 -0.007337128 -0.024513233 -0.06720234 -0.024560168 0.052171916 0.025605578
0.012035006 -0.09834335 -0.095241584 0.028074818 0.0070364065 0.025182974 0.0071720174 -0.030360626
-0.0797429 0.08690556 0.06357455 -0.041677754 -0.028908962 -0.074114054 -0.044937555 0.009366838
-0.0649168 -0.031372227 0.015536948 0.05117634 -0.043375105 0.010353908 -0.074301265 -0.0029804574
-0.07033549 0.06377612 0.05143951 0.083086245 0.013274978 -0.022934088 0.061169475 -0.08633345
-0.04214798 0.037508316 0.0508725 -0.13239685 0.15053608 0.034978952 -0.05843981 0.042148877

linear2.bias f4 [3]
00000000: 24a1 45bd 06ae 3dbd 42eb ddbd
-0.04824938 -0.04630854 -0.108358875
