model_hybrid/checkpoint_20251029_200719_score11.pth (torch, 21291 bytes, 4 tensors)

linear1.weight f4 [256, 14]
00000000: d92f 283d 3992 8cbe 89b7 cd3e fe42 203d
00000010: dbdb 103d 606d 803e b312 c4be 4d71 c2bd
00000020: 2e56 a93e abe1 443d 6926 423c 770f da3d
00000030: bd73 093e ac3f 513c 73a7 823e 243b f93e
00000040: df2c 9cbe 2d6c 493d 7133 633d 7f9d e9bd
00000050: 3321 97bd 651a 973d ab2c 1c3e f940 c43d
00000060: 373c 2cbe 60ba 9f3d 4513 543e 4bf4 7b3d
00000070: af98 32bd 745d 9c3e 1c8a 61be cac6 e83e
00000080: 761f 58be b58f 81be e1fd ad3e 931b 16be
00000090: 338e fe3b 843d cebe 0836 733e 770b 253e
000000a0: 7d89 e43d 9e03 e9bd 0bec 0b3e f77a ce3e
000000b0: 0b8e 663c 6d85 82be 8e89 b93e b03c 03be
000000c0: e4e6 17be 9fb8 f13d ffcc 953e 1089 67bd
000000d0: 7f4b 93be 616e 19be 93f2 1a3d 44c6 243e
000000e0: 0686 463e 5193 973e 7061 04be 73d3 5d3d
000000f0: 7d78 41be 04d4 28be 182e 963e eeca 66be
00000100: ae54 cabb 5e68 2f3d 8db1 8e3d 4dfd 6f3c
00000110: ed5d ed3d 077e 7cbe 7e8d 89be b89c 0d3e
00000120: f52e 093e 2331 9dbb 12c3 c7bd b687 a2be
00000130: fa62 bf3c d4cd 52be ec4c 4d3d 84ff ccbd
00000140: ec2e 693c 1685 083e 9d23 423e c648 a9be
00000150: 3772 0c3e db1c 09bc 7dc1 cfbc a568 b1bc
00000160: eef7 b23e d67f 2cbe 180a 6d3e 80c8 b2be
00000170: b720 80bc f0c8 b5be 1cb9 0d3e f58c 0a3e
00000180: 5872 8cbe 5939 8f3d c873 493e c523 c6be
00000190: bb20 efbc 0009 dcbd 4dbf 6f3d 8aa2 843e
000001a0: 0ef3 9dbe 5a55 a03d 2d19 013e a225 01bd
000001b0: f22e a13e 68e8 2a3e 14fd 63be ea05 dcbd
000001c0: 2307 dbbd 7536 83be 048a 2f3e 0c2f b8be
000001d0: 95eb 9e3e 15ff 993e 3581 cfbd 4f1a ec3e
000001e0: cf91 a5be 8150 92be f768 923e 5e88 30be
000001f0: 3522 423e fe17 07bd c95d 9cbd 853b 30be
00000200: 6da5 093f e562 9c3e 6af0 233c a5b7 c63e
00000210: b449 cfbe c653 13be f294 993e 541c 27bc
00000220: 6244 a3be 1511 f8bd 1c9e 4e3d 8f66 8b3e
00000230: c470 843d ef11 5ebe ae1f 80be fdf6 12bb
00000240: 3cc0 a93c fd7f ba3e e8fc f3be 142b 16bd
00000250: d0d1 1fbd a552 a4be ab32 bd3e 596a 4abd
00000260: 66cd aebd ad7c c6bd f706 9c3e 54e6 0e3e
00000270: 05b8 a93c c48d bb3d 4855 84bd b6fd f3bd
00000280: 9074 133d 3b85 6c3d 033c e73d 694c 7b3e
00000290: c820 953e e0db 4439 2295 413e 505b 2abe
000002a0: 939b de3d 6843 943e 81c8 0e3e 38c1 7abd
000002b0: 3bc1 0bbd 0285 96bd 261e b53c 304d 8c3e
000002c0: c65c 3abe 48b4 17bd faf7 073e 4dd3 563d
000002d0: ec3d e43d b237 75be b60b b0be e1c4 1bbe
000002e0: 8e25 0e3f d61f 98bd 0aff 3ebd 3d0d 883e
000002f0: dba2 623e bd46 2b3e 6377 f73d 6709 c63d
00000300: 97cc 4b3e 11a3 42be 0bcb 383e 3861 0f3e
00000310: 8dd5 aa3e b6b6 843b 0dc2 483d 626f 1abe
00000320: bbd4 e23e 0e9c 06be 4340 a23a 9f9e 6e3e
00000330: 9f64 d3be 900f 073d 14f8 d73c 2bf0 143e
00000340: 7d54 d03c 4ce9 913d c220 adbe 8f1e 253f
00000350: 1940 983e 98a5 bc3d 161a 413c 0981 4c3d
00000360: 35a2 8cbc 8323 3e3c 3028 b73c c004 343e
00000370: 9217 42be 66a5 ec3d 1eee babc 5628 4ebd
00000380: c40d 62be 1515 a7bd defc 883e 309f 20be
00000390: 5f19 59be de04 4b3e b24b 9e3e 564a 163e
000003a0: e0fe 3a3e 4ec4 7cbe 3bc4 84be d984 efbd
000003b0: abe4 023e 4e20 c33d 61a3 823d fff3 ea3e
000003c0: 4b5e 3d3d ce6f b5bd 82f8 dc3a aa8d 7dbd
000003d0: 7560 55bd 1fa8 a33e e03d 883d 83f8 d23d
000003e0: 05db 823e 3515 efbd 6dec ab3d c05e ccbc
000003f0: aa08 54bd 2efa 9dbe 4607 0a3f e0b4 ae3d
0.041061256 -0.2745531 0.4017909 0.03912639 0.03536592 0.25083447 -0.38295516 -0.09494267
0.33073562 0.048066776 0.011849978 0.10647481 0.13423057 0.012771528 0.2551838 0.48677933
-0.30502984 0.04917543 0.05546898 -0.11406993 -0.07379379 0.07378081 0.15251414 0.09582705
-0.16819845 0.0779922 0.20710476 0.061512273 -0.04360264 0.3054005 -0.22025341 0.45464164
-0.21105751 -0.25304952 0.33982757 -0.14658956 0.0077684163 -0.40281308 0.2375108 0.16117655
0.11159036 -0.11377643 0.13664262 0.4032819 0.014071952 -0.2549242 0.36237758 -0.12816119
-0.14834172 0.11802792 0.29257962 -0.056527197 -0.28768536 -0.14983512 0.037828993 0.16091257
0.19387063 0.2960458 -0.12927794 0.05415673 -0.18893619 -0.16487128 0.29332042 -0.22538349
-0.0061746454 0.04282414 0.06967459 0.014647794 0.115901805 -0.2465745 -0.26865762 0.13829315
0.13396819 -0.0047971173 -0.097540036 -0.31744164 0.023362625 -0.2058633 0.050122187 -0.10009673
0.014232378 0.13332018 0.18958898 -0.33063334 0.13715445 -0.008368696 -0.025360817 -0.021656344
0.3495478 -0.1684564 0.23148382 -0.34918594 -0.0156406 -0.35504866 0.13840145 0.13530333
-0.27430987 0.0699336 0.19673073 -0.38699165 -0.029190412 -0.10743904 0.058532048 0.25905257
-0.308495 0.078287795 0.1260726 -0.03153003 0.3148113 0.16690218 -0.2226451 -0.107433155
-0.106947206 -0.25627485 0.17142493 -0.35973394 0.3103911 0.30077425 -0.10132066 0.46113822
-0.32337806 -0.28577045 0.28595707 -0.1723952 0.18958361 -0.032981865 -0.076350756 -0.17210205
0.53768045 0.305442 0.01000605 0.38811985 -0.4048592 -0.14387426 0.2999645 -0.010199625
-0.3188811 -0.12112633 0.050443754 0.27226683 0.06466821 -0.21686529 -0.2502417 -0.0022425049
0.020721547 0.36425772 -0.4765389 -0.036662176 -0.039018452 -0.32094303 0.3695272 -0.049417827
-0.085352704 -0.09691749 0.30474064 0.1395505 0.02071763 0.09157899 -0.064615786 -0.11913626
0.035999835 0.057744246 0.11290743 0.24540867 0.29126573 0.00018773926 0.18904546 -0.16636395
0.10869517 0.28957677 0.13943674 -0.061219424 -0.034119826 -0.07349588 0.022109102 0.2740264
-0.18199453 -0.037037164 0.1327819 0.052447606 0.11144623 -0.23947027 -0.34383935 -0.15211822
0.55526054 -0.07427947 -0.046629943 0.265726 0.22132437 0.16726203 0.12083318 0.09669762
0.19902264 -0.19007517 0.18046205 0.1400193 0.3336605 0.004050101 0.049013186 -0.15081552
0.44302925 -0.13145468 0.0012378771 0.23302697 -0.41287705 0.032973826 0.02636341 0.14544742
0.025430912 0.07124576 -0.33814055 0.64499754 0.29736403 0.09211272 0.0117860045 0.049927745
-0.01716719 0.011605146 0.02235803 0.17579937 -0.18954304 0.11554985 -0.022818621 -0.050331436
-0.22075564 -0.08158318 0.26755422 -0.15685725 -0.21201085 0.19826075 0.30917126 0.14676794
0.1826129 -0.2468426 -0.25930962 -0.116952606 0.12782542 0.09527646 0.06378818 0.4588928
0.046232503 -0.08859216 0.0016858729 -0.06190268 -0.05209394 0.31964204 0.06652427 0.10301306
0.25557724 -0.11673967 0.08394704 -0.024947524 -0.051766075 -0.30854934 0.5391735 0.08530593

linear1.bias f4 [256]
00000000: 16ca 73be b6df 2c3e 6d83 12bd 4c30 d5bd
00000010: a2f0 5e3e ee54 853d 160a 2c3e 5f81 8fbd
00000020: f01b d13b 0eee f2bd e8c0 443e 76ef cabd
00000030: 851b d73c 68ab 91be 78d5 87be d8ff bb3b
00000040: f549 aabc 4269 16bd ac19 b23c f855 24be
00000050: b51b cdbd 2d65 c63d e4af a8be 1b9a 52bd
00000060: 15d5 093d c53c 17be 017d 2abd 0570 91bd
00000070: 2cfe 52be e30a e0bd 5a20 e2bd 7605 f6bd
00000080: 2b21 053d 36dc 1bbe 8fab 9bbd 38a7 01be
00000090: dd52 4a3d 8ad0 2d3d 7086 7bbe 2a24 e03d
000000a0: 5b8e bfbd 9181 a53d 2a73 1f3e e411 e23c
000000b0: 9d54 70be 7404 2d3e 86de 153e 85bf 8e3e
000000c0: 3edb 8ebe 0d6c 643e 72cf 0d3c 4368 57bd
000000d0: f859 95be 9415 76be f224 3f3e 5aae adbc
000000e0: 7312 a83d a161 78be 46c2 ab3d d248 163e
000000f0: f20c 28be 6172 e2bc 4280 1abe f9b2 98be
00000100: 709c 68bd 3e3f 67bd f88d 5dbc 5487 04be
00000110: 1c00 f5bd 1a81 6d3e acd4 d8bc 1c64 a6bd
00000120: f052 81be 5054 153a dd13 f4bd a48d 58be
00000130: 2100 9b3d 9bc1 863d 9bcc d03d b1ff a23b
00000140: d2f5 76bc a579 bd3d a7e3 8e3c d925 40be
00000150: fa4d f73d 2cec 4abe 2326 61be 3f89 613d
00000160: 0069 773e 0ae7 65bd 8eba 5ebd ba65 21be
00000170: b121 42be 011a a43e b7b7 d43d a368 efbd
00000180: 9e7f 01be e6e6 0f3e 2c36 3ebe 4d58 303e
00000190: 1a38 ea3d d188 a33d 8762 1e3d d26e 3ebe
000001a0: 623f fbbc f52a 26be ca1b 37be 7824 9b3e
000001b0: a45c 65be c698 9dbe cb4f 51bd 9e06 fcbc
000001c0: 1004 8a3e b62a 1a3e 77b2 18bd f59f 66bd
000001d0: 01aa 7d3e a344 513e 144e 253e b572 ef3d
000001e0: 72c7 3cbe 28e3 f93d ebd5 1e3e cc24 fdbd
000001f0: 8425 39be a3fe 23be f7ae c33d e84f 89bd
00000200: b4d9 f1bc 4a53 7a3e 3150 b03c 185a 96bd
00000210: 92a9 39be 76b6 c23d cc74 e7bd 5086 30be
00000220: 19c6 fc3d 8790 6ebd c25c 883d 126d 3abe
00000230: 130f 6abe 75b1 6bbe b4ca 5dbe cf93 4c3d
00000240: 5ac5 983d 7963 473e 5de3 8fbd b583 3abd
00000250: 88fd 45bd d956 a5bd 5747 663b d95a e7bd
00000260: 5094 fa3c 16fa b23b 9825 173e 4412 2dbd
00000270: 8748 273d 6fd8 673d da0d 42bd ff4b 6b3c
00000280: a28c 8a3d 082f 07be d789 473c 73d8 8b3e
00000290: 2b86 573b 3be5 d0bd c522 113e a150 e53d
000002a0: cf83 3b3e 5602 0f3d 2068 de3d 4594 673e
000002b0: 745e e8bd f75a 1fbe 01f6 93bd 3245 bbbc
000002c0: 46bd 3abd 2201 3dbe 792f e4bd d7a2 c8be
000002d0: a77c 273e c3ee 57be 282f 05bb 6d07 933d
000002e0: 688f 60bd e026 30be 2420 0cbd 1a77 8ebd
000002f0: 4d42 283d 55ab 3b3e d724 943d d109 3b3d
00000300: 65a2 70be 35fc 59bd 32bd 07be dc9c 35bc
00000310: 1b10 8b3e 7f23 cdbd 7492 c53d bd84 223d
00000320: 1a78 403e ad38 c8bd b311 c4bd 3532 c23d
00000330: 430a a6bd fade 4b3e 9161 363e 31cf 19bd
00000340: 957f 87be 2f67 043d a7c7 25bc 6a79 02be
00000350: b7ea db3d 84bb 60be 82f3 a43d f3e8 68be
00000360: 4eab 423e 4fbd 1f3e 96ed eebc 2dc2 923d
00000370: 561a 113e 4a5b 353c bfa9 883b 3553 03be
00000380: 56e3 1bbe d813 9dbd b8a8 83be ff30 3e3e
00000390: 38cc 653d ca95 253e f85c aebd 2f89 293e
000003a0: d296 5cbd 2448 393c 0606 503e ca37 6c3c
000003b0: 3210 83be ba22 803e 2620 153e 6ca9 8a3b
000003c0: 88b4 723d fb7c 9d3d 4173 06be 6cf4 95bd
000003d0: 6cda 3bbd 9433 6d3e 085e e6bd a49f 7b3e
000003e0: 51c7 f4bd 98cb 0cbc fdb1 12be e320 34bd
000003f0: d906 29be 4710 9dbd 235b 1c3e 8195 dcbd
-0.23807558 0.16882214 -0.03576987 -0.104096025 0.21771482 0.0651034 0.16800722 -0.070070975
0.0063815042 -0.118618116 0.19214213 -0.09908955 0.02625824 -0.28451085 -0.2653005 0.005737286
-0.020787219 -0.036721475 0.021740757 -0.1604842 -0.1001505 0.096872665 -0.32946694 -0.051416498
0.033650476 -0.14769275 -0.04162312 -0.07101444 -0.20604771 -0.109395765 -0.11041327 -0.1201276
0.032502335 -0.15220723 -0.076010816 -0.12661445 0.04939543 0.042435206 -0.24563003 0.10944398
-0.09353324 0.080813535 0.15571275 0.027596422 -0.23469777 0.1689623 0.14635667 0.27880493
-0.27901644 0.22306843 0.008655416 -0.052589666 -0.29170203 -0.24031669 0.18666437 -0.021201301
0.08206644 -0.24255992 0.08386664 0.14676216 -0.16411188 -0.02764243 -0.15087989 -0.29824045
-0.056789815 -0.056456797 -0.0135226175 -0.12942249 -0.119629115 0.2319378 -0.026468597 -0.08124563
-0.2525859 0.00056964625 -0.11917851 -0.21147782 0.07568384 0.06579896 0.101952754 0.0049743284
-0.015073257 0.092517175 0.017442537 -0.18764438 0.1207542 -0.19816655 -0.21987204 0.05506253
0.24161148 -0.05612854 -0.05437713 -0.15761462 -0.18958165 0.3205109 0.10386603 -0.1168988
-0.12646338 0.14052925 -0.18575352 0.17221184 0.11436482 0.0798508 0.03866818 -0.18596962
-0.030669872 -0.16227324 -0.17881694 0.3030126 -0.22398621 -0.3078062 -0.051101487 -0.030764874
0.26956224 0.15055355 -0.037279572 -0.05630489 0.24771883 0.20436339 0.16143066 0.116918005
-0.18435457 0.1220153 0.1551129 -0.12360534 -0.18080717 -0.16015105 0.09554856 -0.06704694
-0.029522754 0.24445835 0.021522613 -0.07341403 -0.18131092 0.09507458 -0.11301574 -0.17238736
0.12342472 -0.0582433 0.06658317 -0.1820567 -0.22857313 -0.23016913 -0.21659356 0.04994565
0.07459517 0.1947154 -0.07025788 -0.045535762 -0.04833749 -0.080732055 0.0035137737 -0.11296625
0.030588299 0.0054619415 0.14760435 -0.042253748 0.04084065 0.05660289 -0.04737649 0.014361381
0.06765105 -0.13201535 0.01217886 0.27313575 0.0032886367 -0.10199972 0.1417342 0.11197019
0.18312 0.034914337 0.10859704 0.22615154 -0.113461405 -0.15562044 -0.07224656 -0.022860143
-0.04559066 -0.18457463 -0.11141867 -0.39186737 0.16356145 -0.21087174 -0.0020322297 0.07179151
-0.054824263 -0.1720233 -0.03421034 -0.069563106 0.041078854 0.18327077 0.07233589 0.04566366
-0.23499449 -0.05321904 -0.13255766 -0.0110847615 0.27160725 -0.10016536 0.09647074 0.03967737
0.18795815 -0.09776435 -0.09573688 0.094822325 -0.08107426 0.19909278 0.17810656 -0.03755111
-0.26464525 0.032324966 -0.010118402 -0.12741628 0.10738128 -0.21946532 0.08054258 -0.22745113
0.1901066 0.15599559 -0.029166024 0.07165942 0.14170203 0.011069128 0.004170626 -0.1282471
-0.1522344 -0.076698005 -0.2571466 0.18573378 0.05610296 0.16170421 -0.08513826 0.16556238
-0.05385477 0.011308704 0.20314798 0.014417598 -0.25598294 0.25026494 0.14563045 0.0042316224
0.0592542 0.07689854 -0.13129903 -0.073220104 -0.0458626 0.23164207 -0.11248404 0.24572617
-0.11952079 -0.008593462 -0.1432571 -0.043976676 -0.16506518 -0.0766912 0.15269141 -0.10770703

linear2.weight f4 [3, 256]
00000000: 1b6a a43d 7a87 1dbd 380f 273e 934e f13d
00000010: 0cc9 c4bd d03d f0b8 bbf2 153e 1716 17be
00000020: 29e0 c2be f004 bb3d df21 abbe 9a44 dbbd
00000030: da5a 83bd 25ec 17bd ca71 e4be 6b44 2c3d
00000040: b640 86be 7290 01be ced2 733c fa5c ce3d
00000050: 5965 193e 346e 4b3e c982 5fba f3a5 7abc
00000060: bb66 82bd 0a92 f13d e3b4 ad3d f64b 4c3e
00000070: 1bb0 a3be b20b 373e 2c93 f13c 0662 313e
00000080: 5b11 a53e cc52 11bd d711 de3d ca31 48be
00000090: 4011 02bd 1dbe b3be 0932 4d3d a31e 5fbe
000000a0: 4b80 70be ddd5 ed3d 8a42 983c 02d9 03be
000000b0: 2c36 e1bc 3a75 f03d c7eb 4cbd 8924 0e3e
000000c0: 59f0 5dbc 2dee 1c3e 555d 8f3d 3e4c 913d
000000d0: 8de0 fa3c 3522 363c c9d2 8c3d c911 763e
000000e0: 8552 69bd fd29 f1bc c1c6 39bc 2ed0 1abd
000000f0: 60ca 4a3e ff31 dbbc 8ed6 863d 4031 793c
00000100: 6f56 0aba dbeb db3d ab54 41bb 8799 91bc
00000110: ad8e 15bd 5baa ec3d 6c81 ebbd 4870 5bbc
00000120: 0882 333d 96da 9cbd 53ae bdbd 2608 4b3d
00000130: da27 d93d 6020 56bd b606 dbbd 56d2 f0bc
00000140: 9e45 b13e 31af 843d 1a7d a63c 8cdf 943c
00000150: e73b a2bd b849 573c dba2 66be 3e0c 323e
00000160: 7131 6fbd 2956 29be 0be5 1b3e 26d8 4abd
00000170: f8ce e1bc 6e81 993d 7e71 46bd 9965 17be
00000180: 2ce0 353e ef3e 45bc 609d dcbd 362f c33d
00000190: b8ba eeba 97ca bdbe 6978 8e3b 350a 62bd
000001a0: c900 0bbe af3c 90be 1327 7dbe 1fdd 5cbd
000001b0: 889f debc 8e91 30be d798 9bbd db99 1f3e
000001c0: a91b 6dbd 0b92 1c3e 1539 fb3c 2edb 46bd
000001d0: ef01 fb3d 001f 5f3d bc11 82bd 9984 07bd
000001e0: 9353 f13c 5419 edbd 3228 803d e7ce ebbd
000001f0: 5182 02bd 460a 82be 205c ca3d 471a 83bd
00000200: 2740 3dbd b94b 1b3d ecfc 043d 127b 823e
00000210: 260e e9be ad0c ddbd ce8e 2e3d 97dd 8b3e
00000220: 482b 1a3d 2009 39bc e636 80be 5b05 f7bc
00000230: 8d42 f5bd c358 06be 448c cbbe 4692 6c3d
00000240: 1fb5 7d3d dafc 143e eb5a dc3d d1db 4dbe
00000250: 07b7 1abd b8e5 1e3e 0ca4 213b dda3 68be
00000260: c712 d83d 7676 32be ca13 1dbe 0895 c3bd
00000270: bceb c0bd 3974 9b3d 9b64 1a3e 6470 f83d
00000280: 6135 d5be 6058 66bb 80e6 85be d903 353d
00000290: 0f97 de3d cc66 3e3e a4ea 5a3d 63d3 5fbd
000002a0: aeb0 b2bd 1910 85be e773 303e 5695 ffbc
000002b0: c776 143d 8e04 943e d7d8 2d3e 5a06 8fbe
000002c0: 61e8 63bd a19d ca3d ca4e 473b d942 403c
000002d0: f807 02be dd53 c5bd 292f 4bbe 72ba a3bd
000002e0: 6047 6a3e e07b a0be 9a4f 5b3d 791e 2b3d
000002f0: fce0 013c 615b 843c 3519 823d d038 83be
00000300: 3c98 e6bc f503 8cbe ca91 d7be e850 653e
00000310: 2a5e cd3d 014f d4bd 590b 2fbc 771c bcbd
00000320: 9016 87bd 1884 0fbe 56eb 25bd 59c5 223e
00000330: cc9f 6fbe fcd2 013e 9177 e1bd 6b9f 43be
00000340: 0317 0abc 5d75 d0bd 98a8 24bc 3d53 4cbe
00000350: 0189 67bd 6832 c9bc 4f8c 183e 7731 ddbc
00000360: 24c4 4d3d 7c71 d83c 3007 35bd 1929 02bd
00000370: 0901 ea3d 96a1 a5bd e1c9 e2bd 2712 34be
00000380: fb81 8ebe 1496 ea3d 079a a33d 574a f9bd
00000390: 326b e33d 1614 053b 3aa4 823d 4161 72be
000003a0: e5ce 6bbe c1e9 29bc de52 183a 8e84 5fbb
000003b0: 18aa 31bd d65b febd a951 8f3a 063a 083c
000003c0: 54c9 d63d e058 003e 3cb2 523d 97ee 483e
000003d0: f15f fdbd f1f6 4bbd 160a 02bd 2e86 88bd
000003e0: 65f2 013e 96c4 27be 012b 303e 6b00 c8be
000003f0: 0b31 523d 4691 a73d b911 e8bd b710 303e
0.080280505 -0.03845928 0.16314399 0.11782565 -0.09608659 -0.00011455605 0.14643376 -0.1475452
-0.38061646 0.09131801 -0.3342428 -0.10706444 -0.06413813 -0.03709044 -0.44618064 0.042057436
-0.26221246 -0.12652758 0.014881803 0.100763276 0.14980067 0.19866258 -0.00085262634 -0.015298354
-0.063672505 0.11795433 0.08481767 0.19950852 -0.31970295 0.17875555 0.029489122 0.17322549
0.32239804 -0.035479352 0.108432464 -0.19550243 -0.031754732 -0.35105982 0.050096545 -0.2178903
-0.2348644 0.11613057 0.018586416 -0.1287575 -0.027491651 0.11741109 -0.050029542 0.13881125
-0.013546073 0.15325232 0.070002235 0.0709462 0.030624652 0.011116554 0.068761416 0.24030222
-0.056963462 -0.029438967 -0.0113388905 -0.037796192 0.19803762 -0.026757238 0.06583892 0.015209496
-0.0005277162 0.10738345 -0.002949993 -0.017773403 -0.03651302 0.1155593 -0.11499295 -0.013393469
0.04382518 -0.076588795 -0.09261765 0.049568318 0.10603304 -0.05227697 -0.106946394 -0.029397171
0.34623426 0.064787276 0.020323325 0.018173002 -0.07921582 0.0131401345 -0.22523062 0.17387483
-0.05839676 -0.16536774 0.15224092 -0.04952254 -0.02756451 0.0749539 -0.04844808 -0.1478485
0.17761296 -0.01203893 -0.107722044 0.09530489 -0.0018213606 -0.37068626 0.00434785 -0.055185515
-0.13574518 -0.28171298 -0.24721937 -0.053921815 -0.02717568 -0.17243025 -0.07597511 0.15586035
-0.057887707 0.15290086 0.030666867 -0.04854887 0.12256228 0.054472923 -0.06351039 -0.03308544
0.029458797 -0.115770966 0.06257667 -0.11514073 -0.03186256 -0.25398463 0.09880853 -0.064014964
-0.04620376 0.03791401 0.032467768 0.2548452 -0.45518607 -0.10793433 0.042616658 0.27317497
0.037638932 -0.0112936795 -0.25041884 -0.03015392 -0.11975584 -0.13119797 -0.39755452 0.057756685
0.06194031 0.1454958 0.10759529 -0.20103385 -0.037772205 0.15517318 0.002466443 -0.22718759
0.105504565 -0.17428002 -0.1533958 -0.0954991 -0.09419963 0.07590527 0.1507744 0.12130812
-0.41642287 -0.003514789 -0.2615242 0.044193123 0.10868656 0.18593901 0.053446427 -0.054644953
-0.08725105 -0.25988844 0.17231713 -0.031199139 0.036246087 0.28909725 0.16977249 -0.27934533
-0.055641536 0.098933466 0.0030411952 0.011734688 -0.12698352 -0.09635136 -0.19842209 -0.07994546
0.2287879 -0.3134451 0.05354271 0.041777108 0.007927176 0.016156854 0.06352464 -0.25629282
-0.028148763 -0.2734677 -0.42103416 0.22394145 0.10027726 -0.10366631 -0.010683858 -0.09185117
-0.065961 -0.14015234 -0.040507637 0.15895595 -0.23400801 0.1267814 -0.110091336 -0.19103782
-0.008428338 -0.10178635 -0.0100499615 -0.19953628 -0.05652714 -0.024560168 0.14897273 -0.027001126
0.050235882 0.026421301 -0.044196308 -0.031777475 0.11425979 -0.08087461 -0.110736616 -0.1758505
-0.27833542 0.114544064 0.07988363 -0.12172382 0.1110443 0.0020306162 0.0637898 -0.23669912
-0.23028143 -0.010370673 0.0005810688 -0.0034106108 -0.043375105 -0.1241986 0.0010934371 0.008314615
0.10487619 0.12533903 0.05143951 0.19622265 -0.12371815 -0.04979605 -0.0317479 -0.06666218
0.12690122 -0.16383585 0.17203905 -0.3906282 0.051316302 0.081820056 -0.11331505 0.17193876

linear2.bias f4 [3]
00000000: a04e 1e3d a923 32bd ffc5 b9bd
0.0386492 -0.04349104 -0.09070968
