model_hybrid/checkpoint_20251029_200819_score18.pth (torch, 21291 bytes, 4 tensors)

linear1.weight f4 [256, 14]
000000 c2 a1 b6 bd c7 81 cb be 22 7d 17 3f 46 76 5e 3d
       -0.089175716 -0.3974745 0.5917531 0.054312013
000010 05 28 b1 bd ca 3a cb 3e ad 18 f7 be 60 ac a4 be
       -0.08650211 0.3969329 -0.48261014 -0.32162762
000020 f3 b6 d7 3e 95 d5 8e 3c 29 f6 9b bd 12 66 14 3e
       0.42131767 0.017435828 -0.07615311 0.14492062
000030 a6 90 c8 3d 6d 34 c0 bc 1f f5 6a 3e f1 80 25 3f
       0.097932145 -0.023462499 0.22945069 0.64649874
000040 3d 53 fe be b4 ee f1 bd 8f 97 30 3b 91 16 2a be
       -0.4967288 -0.11813107 0.0026945805 -0.16610171
000050 c4 fa 37 bc 02 ed 80 bd 73 99 37 3e 4d 7d f7 3c
       -0.011229221 -0.06295206 0.1792963 0.030211115
000060 f5 8c 51 be d8 1b 77 bd 18 14 ab 3d 07 9e 01 be
       -0.20463927 -0.06032929 0.08353442 -0.12657939
000070 5d d8 60 bd e3 c1 d7 3e 35 94 86 be f2 28 f4 3e
       -0.05489384 0.4214011 -0.26284948 0.4768749
000080 23 6c bd be a6 61 45 be 4c 24 c8 3e af 1d 3a be
       -0.36996564 -0.19275531 0.39090192 -0.18175386
000090 32 ee f3 3d 3a 46 04 bf 93 0c 93 3e 7f 94 2d 3e
       0.119106665 -0.5166966 0.2872053 0.16951178
0000a0 83 d9 17 bd ae 83 41 be 6d fd 3f 3b 6c d1 e1 3e
       -0.03707267 -0.18897888 0.002929534 0.4410509
0000b0 97 b7 72 bd c7 31 ab be ac 0e ec 3e d9 3c a3 be
       -0.059257116 -0.33436415 0.46104944 -0.3188236
0000c0 ad 27 f7 bd 75 97 ef bb 35 ad c5 3e b5 70 d9 bd
       -0.120681144 -0.0073117563 0.3860871 -0.106172
0000d0 76 20 e3 be ce 58 f3 bd 70 8f 85 3d ed 93 b3 3d
       -0.44360703 -0.118821725 0.06521499 0.08768449
0000e0 53 d0 a0 3e ab 60 e6 3e bc 43 a4 be a9 c2 fb 3c
       0.3140894 0.44995627 -0.32082927 0.03073247
0000f0 bf 44 45 be 08 ad 8c bd 8d 95 4e 3e 9e ad 65 be
       -0.19264506 -0.068689406 0.20174237 -0.22429511
000100 4d b7 c6 3d 56 53 d4 bc a7 47 9d 3d 98 bd 0f bd
       0.097029306 -0.025918644 0.07679682 -0.03509292
000110 af be 1a 3e 35 d3 ca be 4a b0 91 be 5b 37 50 3e
       0.15111803 -0.39614263 -0.2845481 0.20333616
000120 f3 36 ba 3d a0 84 1d be 25 6e 33 be b3 0a 85 be
       0.09092512 -0.15382624 -0.17522486 -0.25984725
000130 1d bd 53 3c e4 c0 a8 be ae 24 24 3d 8f 82 2a be
       0.012923506 -0.32959664 0.040074043 -0.16651367
000140 af f8 0a 3a 90 12 8c 3d b8 d9 84 3d 46 d3 c4 be
       0.0005301339 0.06839478 0.06486839 -0.3844244
000150 45 6f 3c 3d 40 a4 5d be a3 3e 17 be b3 c5 58 bd
       0.046004552 -0.21644688 -0.14769988 -0.052922916
000160 d2 72 e8 3e b5 6e 40 be ce 87 10 3f 42 31 ed be
       0.454001 -0.18792231 0.5645722 -0.46326643
000170 be 51 a1 3d 5b 65 35 bf 7e 86 f8 3d 82 c4 e8 3e
       0.07876919 -0.7085778 0.12135027 0.45462424
000180 5b c1 fe be 69 81 18 3e 1c ed e7 3e 0d 88 06 bf
       -0.49756894 0.14893116 0.45298088 -0.52551347
000190 cd 74 ad 3d 04 32 dd bd 6d ef af 3c 3b d7 b8 3e
       0.084695436 -0.10800555 0.021476472 0.36101708
0001a0 b0 e1 fc be b6 cb 64 3b 9f 9c 07 3e c5 d2 82 bd
       -0.49390936 0.003491146 0.1324334 -0.06387857
0001b0 b7 69 bb 3e f8 d1 18 3e a3 23 98 be 74 14 92 bd
       0.36604092 0.14923847 -0.2971469 -0.071328074
0001c0 d4 55 99 3d d9 e2 af be c1 05 7a 3e c8 a3 dd be
       0.074870735 -0.3435276 0.24416257 -0.43289018
0001d0 69 1a cf 3e ae ea 77 3e 0b c9 99 bd 6c ae 02 3f
       0.40449837 0.24210617 -0.07509049 0.51047397
0001e0 cd d7 cf be ae 52 b5 be 95 b3 a3 3e 22 ab 52 be
       -0.4059433 -0.35414642 0.31972948 -0.20573094
0001f0 b7 21 5d 3e ab 9f 97 bc 9e 50 37 be 0f 59 85 be
       0.21594892 -0.018508753 -0.17901847 -0.2604451
000200 b7 71 46 3f 53 b7 d4 3e 71 ca c1 bd 21 25 d8 3e
       0.77517265 0.41546115 -0.09462441 0.42215827
000210 d2 5f db be fc d0 8e be 7d 1a e5 3e 42 75 d6 3c
       -0.42846543 -0.27893817 0.4474677 0.02617896
000220 59 84 d0 be 8e c3 91 bd fe 8c b5 3d 1e 31 2d 3e
       -0.40725973 -0.07117377 0.08864783 0.16913268
000230 d0 39 32 3e 98 ad 6b be 11 46 25 be 3c b1 80 3c
       0.17404866 -0.2301544 -0.1614001 0.015709512
000240 89 1c 37 bb 75 73 01 3f 79 ac 1e bf 1a 54 0b be
       -0.0027940592 0.505668 -0.6198192 -0.13606301
000250 e3 77 84 bd b6 7d c9 be 2a 3f ff 3e 9d ce 29 bd
       -0.06468179 -0.39353722 0.49852878 -0.041456807
000260 44 d4 e8 bd 38 70 95 bd 6d d3 f1 3e fe 17 66 3e
       -0.113686115 -0.07296795 0.47231618 0.2247009
000270 3c b4 ed 3d b3 f2 ff 3b 56 80 b6 bd 03 89 42 bd
       0.116066426 0.0078109144 -0.08911197 -0.047493946
000280 e5 20 8b bd 7c 2d ee 3d 0b d0 85 3e da b7 c0 3e
       -0.067933835 0.11629769 0.26135287 0.37640268
000290 79 d9 c0 3e 7b 5c a5 bd 33 45 f0 3d 08 ff f7 bc
       0.37665918 -0.0807428 0.11731949 -0.030272976
0002a0 99 3a ae 3e 64 51 c6 3e 4d 74 d1 3d e4 ee 88 be
       0.3402908 0.3873397 0.10227261 -0.2674476
0002b0 33 e2 84 bd e7 3b 5f bd 7f 58 28 3d 3b 0e 43 3d
       -0.064884566 -0.054500487 0.04110002 0.047620993
0002c0 19 77 8e bd 10 63 58 bd 90 30 16 3e 33 ec 98 bd
       -0.0695631 -0.05282885 0.14666963 -0.074669264
0002d0 da 24 42 3d 8d 5f a4 be 6c a6 79 be 4b 28 d5 be
       0.047398426 -0.3210415 -0.24379891 -0.41632304
0002e0 89 5c 4b 3f 41 27 c6 bc ff 46 ac 3c 78 48 a1 3e
       0.7943807 -0.02418864 0.021029947 0.31500602
0002f0 ca 63 dc 3d f3 a4 36 3d dc 04 a5 3e b5 2f 4f 3d
       0.10761221 0.0445909 0.3223027 0.050582606
000300 26 87 8d 3e 4f 78 46 be ad 0c ec 3d 0e 8d cb 3d
       0.27642173 -0.19381832 0.11525855 0.099390134
000310 7b d9 0b 3f 76 dd 3d bd e5 a4 41 3e a5 c9 47 be
       0.54628724 -0.04635378 0.18910559 -0.19510515
000320 24 b6 03 3f 21 1e 33 be b3 14 61 bd 17 25 88 3e
       0.514498 -0.17491962 -0.05495138 0.26590797
000330 ca 51 e3 be 13 03 10 3e f8 87 5d 3d c1 9c ef 3d
       -0.44398338 0.14063673 0.054084748 0.1169982
000340 8c 4c eb 3b 6e 5f 0a 3e 2a 7d 10 bf bd 11 4d 3f
       0.007180756 0.13512966 -0.56440985 0.8010519
000350 4b 01 c7 3e 83 e9 2f 3c 96 0a a7 bd 7c ef 84 3d
       0.38868174 0.010736826 -0.08156316 0.064909905
000360 83 08 7e 3c de 7a c6 bc de 8c d3 3d fc d7 18 3e
       0.015504959 -0.02422851 0.10329603 0.14926142
000370 61 7e 1c be bc f7 75 3d 5d 14 d0 bd cb 47 4f bd
       -0.15282585 0.06005071 -0.10160134 -0.050605576
000380 0c 9a 44 be db d7 10 be 0f 26 81 3d 17 ae 88 be
       -0.19199389 -0.14144842 0.06306087 -0.2669532
000390 4b 6c b6 be 62 7b 8a 3e 06 cf d5 3e 66 1e 85 3e
       -0.35629496 0.2704726 0.4175951 0.25999755
0003a0 2b a4 9c 3e 2f 30 fb be c1 26 b1 be 37 1c 12 be
       0.30594 -0.490602 -0.3459988 -0.14268576
0003b0 98 39 05 3e 0f 5c 02 3e 70 33 6b 3e 51 5e 2c 3f
       0.13010252 0.1273043 0.2296884 0.67331415
0003c0 35 da ed 3c 2c ee 13 be 6d 91 1c bd a1 a3 4f bd
       0.029034713 -0.14446324 -0.038224626 -0.050693158
0003d0 0a a8 02 be bd 5c a3 3e 9b ed 84 3e 78 bd 93 3e
       -0.12759414 0.3190669 0.2596253 0.2885549
0003e0 97 52 c1 3e e6 73 6c be 92 e4 9c 3d a0 a4 f2 3d
       0.37758324 -0.23091087 0.07660784 0.11847806
0003f0 db df a4 bd 05 28 e8 be 7b f9 49 3f 10 9c 5d 3d
       -0.080505095 -0.45343032 0.788963 0.05410391

linear1.bias f4 [256]
000000 de 6b 4c be 93 dc f9 3c 17 bf e0 bc 9a ac 95 bd
       -0.19963023 0.030500686 -0.027434869 -0.07308312
000010 39 01 2c 3e e8 dd 3a 39 12 83 f9 3e 88 ae b3 bd
       0.16797341 0.00017821009 0.4873281 -0.087735236
000020 03 d2 dc bc 82 a0 8c bd f0 e7 4c 3e 47 57 38 be
       -0.02695561 -0.06866552 0.20010352 -0.18002044
000030 e3 8e ce bd ff 95 93 be 45 66 96 be 37 d3 4b bd
       -0.10085847 -0.28825375 -0.293749 -0.049761977
000040 26 8c 3e bd a9 83 1a be d1 b5 26 3d 01 4d ee bd
       -0.046520375 -0.15089287 0.040700737 -0.11635781
000050 22 78 e5 bc 3d 1b 4e 3e 21 8c b9 be 81 45 aa bd
       -0.028011385 0.20127578 -0.36239722 -0.08314038
000060 64 3b 67 bd 3c 84 0f 3d 01 61 c5 3c e6 bb c3 bd
       -0.056453124 0.035038218 0.024094107 -0.09557323
000070 d5 db 40 be 52 9c 43 b9 5a 20 e2 bd 90 a7 bf bd
       -0.1883386 -0.00018654883 -0.11041327 -0.09358132
000080 1f 2b 0f 3e ab 57 1c be fd 49 26 bd 50 94 06 be
       0.13981293 -0.15267818 -0.040597904 -0.13142514
000090 6e 2d f8 3c 3e a1 9d 3b 46 de a4 be 83 b5 be 3d
       0.0302951 0.0048104813 -0.3220083 0.09311964
0000a0 f2 0a 2c be 17 a1 5f 3d 0d 63 98 3e 38 b9 90 bd
       -0.1680105 0.054596987 0.2976307 -0.07066578
0000b0 0a 31 84 be 82 fc 00 3e f2 35 af 3d 95 68 c4 3e
       -0.25818664 0.12596324 0.08555211 0.3836104
0000c0 3e db 8e be 7d 5e b8 3e f7 05 d6 3c a1 83 b7 bc
       -0.27901644 0.3600959 0.026125891 -0.022401633
0000d0 f8 59 95 be 7c 35 81 be 61 80 99 3e 43 0a 83 bd
       -0.29170203 -0.25236118 0.29980758 -0.06398442
0000e0 83 35 d8 bc a1 61 78 be d8 6d 71 3e d2 90 46 3e
       -0.026392704 -0.24255992 0.23577058 0.19391182
0000f0 02 9a 4b bd d3 95 12 be 70 3b 46 be 3a 34 a7 be
       -0.04970742 -0.14314966 -0.19358611 -0.32657033
000100 a4 b6 35 be 9c 44 90 bd a6 80 01 be f7 e1 08 3d
       -0.17745453 -0.07044336 -0.12646732 0.033418622
000110 1c 00 f5 bd fa 34 6a 3f 97 50 5f bd 1c 64 a6 bd
       -0.119629115 0.91487086 -0.054520216 -0.08124563
000120 e1 d1 67 be 79 6a c7 bd 42 46 44 be a4 8d 58 be
       -0.22638656 -0.09737105 -0.19167426 -0.21147782
000130 78 fe 3d 3e 45 76 d7 3d 7d d2 c7 3d 3e fa d2 39
       0.18554103 0.10520605 0.09756944 0.00040240766
000140 bc d2 ea 3d 19 74 1d 3e 7d 5d 7d 3d d9 25 40 be
       0.11465976 0.15376319 0.061856735 -0.18764438
000150 b8 93 6b 3a 36 73 6b be 6a 9c 80 be 2f 2e 12 3e
       0.00089865504 -0.22993168 -0.25119334 0.1427543
000160 6a 4f f4 3d a7 bb ea bd a6 2f 85 3c ba 65 21 be
       0.119292095 -0.11461573 0.016258072 -0.15761462
000170 1a c6 83 be 2b 89 c1 3e b8 87 a4 bc 21 db 18 be
       -0.25737077 0.37799963 -0.020084247 -0.14927341
000180 4a 8e 70 bc cd e7 0c 3a f5 3e 4c be 74 2a 36 3e
       -0.014682362 0.0005375117 -0.19945891 0.17789632
000190 2b 56 1a 3d 98 d0 ba 3d 87 62 1e 3d d2 6e 3e be
       0.037679832 0.09121817 0.03866818 -0.18596962
0001a0 fe b3 36 bd f7 d2 0a be 4c a7 39 be 8a 41 92 3e
       -0.044605248 -0.13557039 -0.18130225 0.28565627
0001b0 3b 21 7c be 81 7f b1 be a5 bf 4b be ab 66 7c 3e
       -0.24622051 -0.3466759 -0.19897325 0.2464854
0001c0 e6 92 47 3e 57 46 50 3e 7b 75 a7 3d ae 77 57 be
       0.19489631 0.20339333 0.081767045 -0.21041748
0001d0 26 26 d4 3e 4c 09 53 3e c4 ae 47 3e b9 aa fa 3c
       0.41435355 0.20609015 0.19500262 0.030598985
0001e0 d3 d8 fe bd 6d 34 31 3d 90 f2 11 3e 56 56 3e be
       -0.124437 0.043262888 0.14252687 -0.18587622
0001f0 ef 58 34 be 79 6c 44 be 55 9a 43 3e 5a 73 2b bd
       -0.1761205 -0.19182004 0.19101842 -0.041858055
000200 51 3c fb 3d 29 45 fa 3d 37 f9 4a 3f 95 c4 a8 bd
       0.12267364 0.122202225 0.7928652 -0.0824062
000210 d0 ce 4c be 02 f1 94 3d 2e 07 ac bd 0c d8 38 be
       -0.20000768 0.07272531 -0.08399807 -0.18051165
000220 66 41 e9 3d c4 8e b6 bd e3 f3 0c 3d 5b 74 5a be
       0.11389427 -0.08913949 0.034412276 -0.21333449
000230 28 00 41 be 35 95 7e be df 39 78 be 60 73 96 3d
       -0.18847716 -0.24861605 -0.24240826 0.07346225
000240 cf 56 a4 3d 13 f9 ab 3e b5 b5 28 bd 86 22 78 bd
       0.0802437 0.33588466 -0.041188914 -0.0605798
000250 ee 5a 89 bc 96 b7 27 bc 7f 5d e7 bc a6 35 b8 bd
       -0.016766991 -0.010236641 -0.028242825 -0.089946076
000260 17 c5 1f 3c ac 60 f2 bd 9f 44 1c 3e b8 84 00 bd
       0.00975158 -0.11834845 0.15260552 -0.03137657
000270 f8 df fe ba b2 36 76 3e 04 09 80 3d 6e 20 ca 3d
       -0.001944541 0.24044302 0.062517196 0.09869467
000280 c2 62 45 3d 08 2f 07 be ea ca cd bc 11 79 7d 3e
       0.048189886 -0.13201535 -0.025121171 0.24753214
000290 e1 e3 cf 3c dd d7 0c bd 43 26 c2 3d 20 0d eb 3d
       0.025377216 -0.03438555 0.09479954 0.11477113
0002a0 e7 d7 95 3d ee 14 3a 3d c8 a7 f4 3d d3 46 1b 3e
       0.07316571 0.045430116 0.11946064 0.15163736
0002b0 17 53 21 be fe 69 25 bd 0b f1 c2 bc ae e7 eb bc
       -0.15754353 -0.040384285 -0.023796579 -0.028796997
0002c0 8e 3c a9 bd c9 5a b2 bd c1 b5 44 be 0b 59 9a be
       -0.08263503 -0.08708722 -0.19209959 -0.3014606
0002d0 80 8e ec 3d 9a c4 b2 be b2 ba 13 3d 44 f0 72 bc
       0.11550617 -0.3491562 0.03606672 -0.014827792
0002e0 77 5c 4d 3d af 73 56 be 24 20 0c bd 23 04 86 bb
       0.05013701 -0.20942567 -0.03421034 -0.0040898486
0002f0 40 1b b8 3e a4 a0 a9 3e d7 de 0a 3e 4e a0 9c 3d
       0.3595829 0.33130372 0.13561569 0.07647763
000300 65 a2 70 be 90 62 77 bd 66 c5 24 be 66 94 0b bd
       -0.23499449 -0.06039673 -0.16090927 -0.03407707
000310 02 2d 95 3e 6c 33 79 be 7a 8f bd bc 45 2f b8 bd
       0.291359 -0.24336022 -0.023139704 -0.08993391
000320 70 41 14 3e 68 12 f6 bd 31 f1 04 be c6 cf 7f 3d
       0.14478087 -0.120152295 -0.12982632 0.062454008
000330 f7 bb 61 bd 9c c3 95 3e 7d a7 50 3e b3 a2 66 bd
       -0.055110898 0.292508 0.20376392 -0.056307506
000340 95 7f 87 be bb 28 b4 bd 73 a5 5f bd ff 1b 06 be
       -0.26464525 -0.08796831 -0.054601144 -0.13096617
000350 89 cf 4e 3d 84 bb 60 be 4a a5 59 3e 31 49 16 be
       0.05049089 -0.21946532 0.21254459 -0.14676358
000360 57 63 33 3e 14 d7 4a 3f 88 0f ac bb 54 1a 8d bd
       0.17518364 0.79234433 -0.005250875 -0.06889787
000370 3a e3 ff 3d f4 81 b4 3c 0a 6f 56 bc 00 0a d5 bd
       0.12494512 0.022034623 -0.013087997 -0.10402298
000380 a8 4f 19 be 84 13 eb bd 78 58 7f be 12 8c e7 3d
       -0.14971793 -0.11478332 -0.24936092 0.11306013
000390 f5 f7 bc 3e 2f ea 37 3e 84 14 4a 3e 2f 7b 04 3e
       0.36907926 0.17960428 0.19734389 0.12937616
0003a0 d8 92 1d bd 91 c6 83 bd 9e 98 0b 3e 85 96 2f bd
       -0.03847012 -0.06434358 0.13632438 -0.042868156
0003b0 32 10 83 be 2d a8 39 3e d0 d5 1c 3f 90 fa cb 3d
       -0.25598294 0.1813056 0.6126375 0.099599004
0003c0 66 d6 4c 3e 8b 5e 0b 3e 41 73 06 be 5b 09 8c 3c
       0.20003662 0.13610284 -0.13129903 0.017094305
0003d0 82 02 65 bd 26 6f bb 3d f8 1d 15 be bf d8 9d 3d
       -0.055910595 0.09152059 -0.14562213 0.07707357
0003e0 41 6c 1a be 59 93 95 3c 75 d9 bf bc a8 b2 99 bd
       -0.15080358 0.018258737 -0.023419121 -0.07504779
0003f0 c8 02 3c be 7a d5 07 3e cd 5a de 3c 99 8b 74 bd
       -0.18360436 0.13265029 0.027142907 -0.059703443

linear2.weight f4 [3, 256]
000000 83 18 04 3e 77 b5 d4 bb ac 40 91 3e 0c 81 3c 3e
       0.12899975 -0.006491359 0.28369653 0.18408602
000010 50 cc 09 be ef 88 13 3d c1 7d de 3e bd f9 8b be
       -0.13456845 0.036019262 0.43455318 -0.27338973
000020 b7 3e f7 be ca de 38 3e cf 78 ff be 4e d1 4e be
       -0.48290035 0.18053737 -0.49896857 -0.20197031
000030 67 df b0 bd c0 4b 85 bd 4a f2 2a bf 03 3d 9c 3d
       -0.086363606 -0.06508589 -0.66775954 0.076288246
000040 07 34 e7 be e8 ca 88 be e8 85 d6 3d 69 84 a7 3e
       -0.4515688 -0.26717305 0.10474759 0.32718208
000050 30 5a 8c 3e 79 b4 cb 3e 6d 1a e3 3d a5 42 06 3d
       0.27412558 0.39786127 0.11089025 0.0327784
000060 29 17 8d bd 3c e4 b1 3e 6f 8b 13 3e a9 f7 bb 3e
       -0.06889183 0.34744442 0.14408658 0.36712387
000070 f2 85 03 bf 46 c7 bd 3e 2c 93 f1 3c 77 4b d7 3e
       -0.5137626 0.37066096 0.029489122 0.42049763
000080 1b 8e 02 3f f7 37 ae bd 31 f6 30 3e 82 79 7f be
       0.50998086 -0.08506768 0.17281415 -0.24948695
000090 c6 6a 89 3d 0f c5 1c bf 8e 8c 91 bc f1 62 ba be
       0.067098185 -0.6123819 -0.017767217 -0.3640361
0000a0 9d a3 8a be 15 a3 b4 3e 44 64 44 3e 3b 9c 80 be
       -0.27077952 0.35280672 0.19178873 -0.25119194
0000b0 16 52 83 bb 3f a3 52 3e 2f db 00 be dd eb b6 3e
       -0.004007588 0.20570086 -0.12583612 0.35726824
0000c0 59 f0 5d bc 01 6f bc 3e ba 62 4c 3e 34 65 ac 3e
       -0.013546073 0.3680344 0.19959536 0.33670962
0000d0 8d e0 fa 3c e2 79 09 3e 35 a5 50 3e 22 49 f0 3e
       0.030624652 0.13425401 0.20375521 0.46930796
0000e0 33 67 d6 bd fd 29 f1 bc 1e ad 15 3e 46 af 02 3e
       -0.104689024 -0.029438967 0.1461682 0.12762174
0000f0 65 95 e0 3e a5 3e b0 bc 8e d6 86 3d 40 31 79 3c
       0.4386398 -0.021514246 0.06583892 0.015209496
000100 30 8a d2 3d e5 77 74 3e 4c ec 14 3d 8b 76 e9 3d
       0.102802634 0.23873861 0.036358163 0.113995634
000110 ad 8e 15 bd 86 93 a0 3e 82 ab 7c be 48 70 5b bc
       -0.03651302 0.3136255 -0.246748 -0.013393469
000120 0e ad 02 3e e7 cc c3 bd 0a 57 72 bd 26 08 4b 3d
       0.12761328 -0.095605664 -0.05916504 0.049568318
000130 6b 37 7d 3e ac 1c 2b be 96 ae b0 bd c0 6e 11 be
       0.24728172 -0.16710156 -0.086270496 -0.14202404
000140 4b 0a 32 3f a7 73 6e 3e 14 93 6a 3d 8c df 94 3c
       0.69546956 0.23286305 0.05726917 0.018173002
000150 09 31 21 be 9e 93 98 bc d0 cf ab be ff 18 d0 3e
       -0.15741362 -0.018625077 -0.33556986 0.4064407
000160 ad 1c bc bd 45 c6 99 be 65 6c b0 3e 26 d8 4a bd
       -0.09185157 -0.3003408 0.34457698 -0.04952254
000170 d0 94 23 3e 74 83 81 3e 5a ca da bd af ba 7e be
       0.15974736 0.25295603 -0.10683127 -0.24875902
000180 79 17 b3 3e b5 21 65 bd 33 d5 60 be 90 90 60 3e
       0.34978846 -0.05594035 -0.21956329 0.21930146
000190 91 b4 3a bd b6 10 22 bf 69 78 8e 3b 35 0a 62 bd
       -0.045582358 -0.6330675 0.00434785 -0.055185515
0001a0 80 52 6e be b1 f1 0e bf b8 00 95 be 25 92 8f 3d
       -0.23273659 -0.5583754 -0.2910211 0.07010297
0001b0 14 a8 01 bd 1a 03 b9 be 1c 45 ff bd eb 41 ca 3e
       -0.031654432 -0.3613518 -0.124643534 0.39503416
0001c0 ac 5e 6d bd 00 e2 b8 3e 29 73 de 3d fe d7 5a bd
       -0.057951614 0.36109924 0.10861809 -0.053428642
0001d0 c8 13 b3 3e e0 80 50 3e ff 51 17 be 17 64 17 bd
       0.3497603 0.20361662 -0.14777373 -0.036960687
0001e0 df 54 d3 3d a9 9c 4e be e1 f5 3c 3e 2c d2 49 be
       0.10318922 -0.20176949 0.1845317 -0.1970908
0001f0 44 be 85 3b 06 80 de be bb 47 31 3e 36 4e 59 be
       0.0040815193 -0.4345705 0.17312519 -0.21221241
000200 9e 44 b0 3d b8 00 bf 3d 08 33 91 3e 2a 6a f1 3e
       0.08606838 0.09326309 0.28359246 0.4715131
000210 fa 8c 38 bf d8 99 aa be 20 b2 94 3e 81 0b f9 3e
       -0.72090113 -0.33320498 0.2904215 0.4864159
000220 6d a4 3c 3d d8 0a e3 3b 3e 46 bb be 5b 05 f7 bc
       0.046055246 0.006928783 -0.36577028 -0.03015392
000230 bd 2b 9f bd 27 8c 05 be 30 1f 1c bf 0c 9f 6d 3e
       -0.07772014 -0.13041745 -0.6098509 0.23205203
000240 75 a2 af 3d 57 07 ac 3e 48 ff 80 3e da 24 af be
       0.08575908 0.3359935 0.25194764 -0.34207803
000250 ee 27 b3 3d cd ba e2 3e 2c f5 ef bc b0 bb 87 be
       0.0874785 0.44283143 -0.029291712 -0.26510382
000260 ef 90 1d 3e 71 e8 63 be 85 cc c7 be 34 21 0c be
       0.15387319 -0.22256638 -0.39023224 -0.13684541
000270 55 1e 68 be d6 7c 30 3e ce a7 b4 3e ac 6a a3 3e
       -0.22667821 0.17235121 0.35284275 0.31917322
000280 f0 dc 4d bf 60 58 66 bb eb f1 c4 be 80 f7 1c 3d
       -0.8041525 -0.003514789 -0.3846582 0.038321972
000290 a5 1b 88 3e 8d 8e ba 3e c8 a8 38 3e f2 75 b7 3d
       0.2658359 0.36436883 0.18033135 0.08958043
0002a0 4a 7d f7 bd ae da fe be 68 d8 96 3e 08 cf 02 3e
       -0.12084444 -0.49776214 0.2946198 0.12774289
0002b0 bd 8d 33 3c 98 63 f5 3e 84 18 27 3e 3e 69 bd be
       0.010959086 0.47927547 0.16317946 -0.36994356
0002c0 28 e8 18 bd 3e b3 a7 3e 7a 8f db 3b 5f e5 18 bc
       -0.037330776 0.32753938 0.0067004533 -0.00933203
0002d0 97 8a 4b be ca fe ce bd 2b 9a f7 be 67 58 10 be
       -0.19877087 -0.10107191 -0.48359808 -0.14096223
0002e0 d1 b8 af 3e 75 64 d5 be 9a 4f 5b 3d b2 4c e6 3d
       0.3432069 -0.41678205 0.05354271 0.11245097
0002f0 58 b6 1a 3e 07 4f 55 3e 60 d4 2f 3e 63 95 b6 be
       0.15108621 0.20830928 0.17170858 -0.35660848
000300 3c 98 e6 bc 61 b9 ce be 1e b9 3d bf b9 18 be 3e
       -0.028148763 -0.40375808 -0.7411059 0.37128237
000310 a3 9d 5f 3e 1d d3 59 be c8 b7 22 3d 0c 54 3b be
       0.21837477 -0.2127194 0.03972605 -0.1829378
000320 37 9b 9f bd f7 59 f4 bd c7 24 01 be dc ef 3f 3e
       -0.07793277 -0.11931222 -0.12611686 0.18743843
000330 9e 41 e9 be 2d 6f cd 3e b7 e5 29 be df 88 88 be
       -0.45557874 0.40123883 -0.16591536 -0.26666924
000340 03 17 0a bc e0 66 24 be 79 e7 0c 3c 40 e9 e5 be
       -0.008428338 -0.16054869 0.008600109 -0.44904518
000350 09 df 51 be 68 32 c9 bc 7b 3f 12 3f 71 28 65 3d
       -0.20495237 -0.024560168 0.57128114 0.05594677
000360 31 90 e7 3d 8b a7 52 3e 60 19 a4 3d 32 8c 19 bd
       0.11306799 0.20571725 0.080126524 -0.037487216
000370 73 64 a8 3e 57 0e ce 3d 71 87 8f be 57 30 65 be
       0.32889137 0.10061329 -0.2803302 -0.22381721
000380 e1 1b 05 bf 7f 63 77 3e 75 06 00 3e fb 5d 19 be
       -0.51995665 0.24159048 0.12502463 -0.14977257
000390 02 f3 9d 3e b8 ab 0d 3e da 35 ad 3e 6d e3 9b be
       0.30849463 0.13835037 0.33830148 -0.3044695
0003a0 4d f1 02 bf 84 fe 9d bb 3b 32 08 bd 70 f5 80 bd
       -0.51149446 -0.0048216004 -0.03325103 -0.062968135
0003b0 18 aa 31 bd ee 60 52 be 97 99 20 3e 98 9d 0f 3e
       -0.043375105 -0.20544788 0.1568359 0.14024961
0003c0 f1 8c 98 3e 1d bf a7 3e 3c b2 52 3d c0 02 ed 3e
       0.2979503 0.32762995 0.05143951 0.4629116
0003d0 cd 1a 57 be 4a 6b be bd 08 7f dc bc 0a ce bc bd
       -0.21006317 -0.092978075 -0.026916042 -0.09218986
0003e0 b4 da 70 3e 3d 87 73 be b8 a0 d8 3e 61 6f 14 bf
       0.23520929 -0.23782058 0.4231012 -0.5798245
0003f0 d2 39 66 3d 4e 84 b0 3e bb be 4e be eb f5 03 3f
       0.056207485 0.3447594 -0.20189945 0.51547116

linear2.bias f4 [3]
000000 66 24 80 3e 96 90 1b 3e aa 0f 39 3d
       0.2502777 0.15191874 0.045180954
