model_hybrid/checkpoint_20251029_200809_score18.pth (torch, 21291 bytes, 4 tensors)

linear1.weight f4 [256, 14]
0	0xbd9188de	-0.071061835
1	0xbecbc625	-0.3979961
2	0x3f032801	0.51232916
3	0x3d87de0b	0.06634148
4	0xbd6c19b4	-0.0576417
5	0x3eac0f5f	0.33605477
6	0xbee16825	-0.44024768
7	0xbe891917	-0.26776955
8	0x3eca3b8f	0.39498565
9	0x3c2b2547	0.010445899
10	0xbd8fea3c	-0.070270985
11	0x3e0c7d9b	0.1371979
12	0x3dfde2e1	0.12396789
13	0xbbe3c5b9	-0.0069510606
14	0x3e5efd19	0.21776237
15	0x3f23850c	0.6387489
16	0xbefd9f21	-0.49535468
17	0xbdb45c3f	-0.08806657
18	0x3bdea3e2	0.0067944387
19	0xbe4081a9	-0.18799461
20	0xbcccf8f9	-0.025021063
21	0xbd6bf618	-0.05760774
22	0x3e2b7d38	0.16746986
23	0x3d06e332	0.032931514
24	0xbe1e6064	-0.15466458
25	0xbd5cbd89	-0.053891692
26	0x3da13a9b	0.07872506
27	0xbdc2461a	-0.09486027
28	0xbdb0018f	-0.08594047
29	0x3ee279ba	0.44233495
30	0xbe7e083b	-0.24807827
31	0x3eee4aa6	0.46541327
32	0xbeaf149b	-0.34195408
33	0xbe36d33d	-0.17854019
34	0x3eb8d725	0.36101642
35	0xbe334833	-0.1750801
36	0x3de85b66	0.11345558
37	0xbf022fa6	-0.50853956
38	0x3e952084	0.2912637
39	0x3e225c41	0.15855505
40	0xbabf72ee	-0.0014606395
41	0xbe409b1b	-0.18809168
42	0x3c87ef66	0.016593646
43	0x3edef4f5	0.43546262
44	0xbd714dfb	-0.05891226
45	0xbea93b7d	-0.33053198
46	0x3eeda27b	0.46413025
47	0xbe88812b	-0.26661047
48	0xbe093096	-0.1339744
49	0x3d57f7f6	0.05272671
50	0x3ecbaf02	0.39781958
51	0xbddc2470	-0.107491374
52	0xbed56af4	-0.4168316
53	0xbdc9b237	-0.09848445
54	0x3dbcca7a	0.09218307
55	0x3dcf59f8	0.10124582
56	0x3e96d6d0	0.29460764
57	0x3ede594d	0.43427506
58	0xbe836c47	-0.25668547
59	0x3d12f1db	0.035875183
60	0xbe3f2fea	-0.18670622
61	0xbdcfb177	-0.101412706
62	0x3e5b2374	0.21400243
63	0xbe8854c7	-0.2662718
64	0x3db5ca6f	0.08876502
65	0xbcc6abd5	-0.024251858
66	0x3dc96cf1	0.09835232
67	0xbcccbd2a	-0.024992544
68	0x3de8d4bb	0.113687
69	0xbec137b3	-0.37737808
70	0xbe91b04a	-0.2845481
71	0x3e4c40e5	0.1994663
72	0x3dd5059d	0.10401461
73	0xbe1378d7	-0.14401565
74	0xbe1e5c5e	-0.15464923
75	0xbe850e2b	-0.25987372
76	0x3c784952	0.0151542
77	0xbea8c0e4	-0.32959664
78	0x3d2f8704	0.04285337
79	0xbe2d305d	-0.1691298
80	0x3c6b3f59	0.014358365
81	0x3d9b4525	0.07581548
82	0x3d8b7fd9	0.068114944
83	0xbebce7e6	-0.36895674
84	0x3c8bbae0	0.017056882
85	0xbe2276ae	-0.15865585
86	0xbe25c5ec	-0.16188782
87	0xbdd71332	-0.10501708
88	0x3edc0edd	0.4298009
89	0xbe1272d7	-0.1430162
90	0x3f0d6d6f	0.5524511
91	0xbed8b3e3	-0.42324743
92	0x3d73d1c4	0.05952622
93	0xbf27fa9c	-0.65616775
94	0x3dcf62ce	0.101262674
95	0x3ed09958	0.40741992
96	0xbedeadd3	-0.43491992
97	0x3e1d96a3	0.15389495
98	0x3ee5445a	0.4477871
99	0xbf038ffc	-0.5139158
100	0x3db6cf5f	0.08926272
101	0xbda21986	-0.079150245
102	0x3d3ee152	0.0466016
103	0x3eac83c7	0.33694288
104	0xbee54e99	-0.44786528
105	0x3c978e14	0.018500365
106	0x3e1227b4	0.14272958
107	0xbcaa86ce	-0.020816233
108	0x3ec99cb0	0.39377356
109	0x3e310280	0.1728611
110	0xbe8f1699	-0.27946928
111	0xbd43f34c	-0.047839448
112	0x3d882082	0.066468254
113	0xbeb707fa	-0.35748273
114	0x3e7f4b20	0.24931002
115	0xbed613a6	-0.41811866
116	0x3eca0db4	0.3946358
117	0x3e89ec1d	0.26937953
118	0xbd91bc07	-0.071159415
119	0x3efd4e45	0.49473777
120	0xbec3b76f	-0.38225886
121	0xbeb6162d	-0.35563794
122	0x3ead121f	0.33802888
123	0xbe441b3d	-0.19151016
124	0x3e3df759	0.18551387
125	0x3bec09c7	0.007203314
126	0xbe256485	-0.16151626
127	0xbe8bf7e8	-0.27337575
128	0x3f30ba17	0.6903395
129	0x3ed2e61a	0.4119118
130	0xbd41c798	-0.047309488
131	0x3ebc95ec	0.3683313
132	0xbee1ebda	-0.44125253
133	0xbe853345	-0.26015678
134	0x3ed6d2a8	0.41957593
135	0xbc5962e2	-0.013268204
136	0xbec32746	-0.381159
137	0xbda640bc	-0.08117816
138	0x3d99f392	0.075171605
139	0x3e3d5f3b	0.18493359
140	0x3e1e4947	0.1545764
141	0xbe6195fa	-0.22029868
142	0xbe07037e	-0.13184926
143	0xbb9aeff4	-0.0047283117
144	0x3c152f01	0.009105445
145	0x3ef498c6	0.47772807
146	0xbf10cf34	-0.56566167
147	0xbe075c7c	-0.13218874
148	0xbd980c38	-0.074242055
149	0xbeca5a3c	-0.39521968
150	0x3f0302c0	0.5117607
151	0xbd338afb	-0.043833714
152	0xbe03d627	-0.12874661
153	0xbd907f1f	-0.070554964
154	0x3f01ab28	0.5065179
155	0x3e3d8b31	0.18510129
156	0x3dc81c36	0.09771006
157	0x3d52187a	0.051292874
158	0xbd62b62a	-0.055349506
159	0xbd81b598	-0.063334644
160	0xbda8a81c	-0.08235189
161	0x3da79671	0.08182991
162	0x3e7251a6	0.23663959
163	0x3ec188a4	0.3779956
164	0x3ed17ef6	0.40917176
165	0xbd234005	-0.039855976
166	0x3e06b988	0.13156712
167	0xbc53c3df	-0.012925117
168	0x3eabbd13	0.3354269
169	0x3eb5fca4	0.35544312
170	0x3e0ce2c2	0.13758376
171	0xbe71db11	-0.23618723
172	0xbd09d8d3	-0.033654045
173	0xbd259681	-0.040426735
174	0xbbe59771	-0.0070065786
175	0x3dadf29e	0.08493541
176	0xbdb4deb8	-0.08831543
177	0xbd40d60d	-0.047079135
178	0x3e2802df	0.16407345
179	0xbd583d65	-0.052792925
180	0x3d8451e9	0.064609356
181	0xbe9a6c3c	-0.301607
182	0xbe60dce7	-0.21959268
183	0xbecf8905	-0.40534225
184	0x3f36909f	0.71314424
185	0x3c1e6b38	0.009669118
186	0x3d814a06	0.06312947
187	0x3e890fe7	0.26769945
188	0x3dab1824	0.08354214
189	0x3dc557ba	0.09635873
190	0x3e8dda35	0.2770554
191	0x3c0ce561	0.00859961
192	0x3e82ad8d	0.25523034
193	0xbe5c5e82	-0.21520427
194	0x3daf8120	0.085695505
195	0x3dacc930	0.08436811
196	0x3f0b3e3e	0.5439185
197	0xbd83a141	-0.06427241
198	0x3e634882	0.22195628
199	0xbe487809	-0.1957704
200	0x3f07109f	0.52759737
201	0xbe0e7ab3	-0.13913994
202	0xbd6447a9	-0.055732403
203	0x3e81deaf	0.25365207
204	0xbed4624a	-0.4148124
205	0x3e262a10	0.16226983
206	0x3d547f68	0.051879317
207	0x3e0d11dd	0.13776346
208	0x3d02461f	0.031805154
209	0x3e12b995	0.14328606
210	0xbf0c594e	-0.5482377
211	0x3f45d3f8	0.77276564
212	0x3eafd7cc	0.34344327
213	0x3c653e56	0.013991913
214	0xbdc44316	-0.09583108
215	0x3d5784a4	0.05261673
216	0xbc690a4f	-0.014223649
217	0xbd73aef2	-0.059493013
218	0x3d97661f	0.07392525
219	0x3e061e3c	0.13097471
220	0xbe54a380	-0.20765495
221	0x3d107aa0	0.035273194
222	0xbdf2c622	-0.11854197
223	0xbd847c9a	-0.06469078
224	0xbe535805	-0.20639046
225	0xbe193da0	-0.14964914
226	0x3dad995d	0.08476517
227	0xbe78a63d	-0.24282165
228	0xbeaee8dc	-0.34162033
229	0x3e87ec0f	0.26547286
230	0x3ecb0c06	0.3965761
231	0x3e883024	0.26599228
232	0x3e94b258	0.29042315
233	0xbedde1b2	-0.43336254
234	0xbeafd21d	-0.3433999
235	0xbe161f4b	-0.14660375
236	0x3de4335d	0.11142609
237	0x3e02d681	0.12777139
238	0x3e8288f4	0.25495112
239	0x3f2312f7	0.63700813
240	0x3c9a136d	0.018808091
241	0xbdf3e4cb	-0.11908873
242	0xbc2ed17d	-0.010670063
243	0xbd23a250	-0.039949715
244	0xbe14fcbf	-0.1454954
245	0x3e90994c	0.28241956
246	0x3e86d910	0.2633748
247	0x3e8a57da	0.2702015
248	0x3eccaac1	0.39974025
249	0xbe3c4614	-0.18386108
250	0x3dcfd689	0.10148341
251	0x3e09ee2b	0.1346976
252	0xbd945777	-0.07243245
253	0xbec87f5b	-0.39159665
254	0x3f2f11bd	0.6838644
255	0x3d6ed2f6	0.058306657

linear1.bias f4 [256]
0	0xbe545454	-0.20735294
1	0x3d174c95	0.03693827
2	0xbd1d404e	-0.038391404
3	0xbd580c1b	-0.05274592
4	0x3e365906	0.17807397
5	0x3bf8ffb6	0.0075988425
6	0x3ee157e8	0.4401238
7	0xbd834d7a	-0.06411262
8	0xbc50a4ba	-0.012734586
9	0xbda11db0	-0.078669906
10	0x3e4a78dd	0.19772668
11	0xbe0e7907	-0.13913356
12	0xbda1c17a	-0.07898231
13	0xbe9e8921	-0.30963996
14	0xbe8bc471	-0.2729831
15	0xbd98a827	-0.074539475
16	0xbd4e985e	-0.050438277
17	0xbdd4abc0	-0.10384321
18	0xbd0a095d	-0.033700336
19	0xbdd9d4ed	-0.106363155
20	0xbd96cf78	-0.0736379
21	0x3e22d03b	0.15899746
22	0xbec054b9	-0.37564638
23	0xbdaa4581	-0.08314038
24	0xbd675275	-0.05647512
25	0x3c82fa45	0.015988478
26	0x3cf32f52	0.02968565
27	0xbdca6253	-0.09882035
28	0xbe2af698	-0.1669563
29	0xbca45f27	-0.020064903
30	0xbde2205a	-0.11041327
31	0xbd98c1a9	-0.07458813
32	0x3dee7ba1	0.11644674
33	0xbe1a2a16	-0.15055117
34	0xbd37d03f	-0.044876333
35	0xbdf6b015	-0.12045304
36	0xbc87e8b6	-0.016590457
37	0x3c2eea13	0.010675925
38	0xbea4e1a5	-0.32203403
39	0x3dc12641	0.094311245
40	0xbe4aa70d	-0.19790287
41	0x3cb772ff	0.022393702
42	0x3e847bfc	0.25875843
43	0xbd0eb48b	-0.034840148
44	0xbe84310a	-0.25818664
45	0x3df9845e	0.1218345
46	0x3e032f79	0.12811078
47	0x3ebcef88	0.36901498
48	0xbe8edb3e	-0.27901644
49	0x3e9b28c2	0.30304533
50	0x3cae8f05	0.021308431
51	0xbd0f6721	-0.03501046
52	0xbe9559f8	-0.29170203
53	0xbe7cb402	-0.24678043
54	0x3e8833f3	0.26602134
55	0xbd940365	-0.0722721
56	0x3c70d177	0.014698378
57	0xbe7861a1	-0.24255992
58	0x3e3e6f6f	0.18597196
59	0x3e1c8771	0.15286042
60	0xbdb63453	-0.08896699
61	0xbdedc44e	-0.11609708
62	0xbe463b70	-0.19358611
63	0xbea7343a	-0.32657033
64	0xbe81aa57	-0.2532527
65	0xbd8a58bc	-0.06755206
66	0xbdf359cb	-0.11882361
67	0xbc93f0d3	-0.01805917
68	0xbdf5001c	-0.119629115
69	0x3f49744e	0.7869309
70	0xbd0d90a6	-0.034561776
71	0xbda6641c	-0.08124563
72	0xbe805ba0	-0.25069904
73	0xbd9ac56a	-0.07557185
74	0xbe1675c6	-0.14693365
75	0xbe588da4	-0.21147782
76	0x3e3303f0	0.17481971
77	0x3de1d8c3	0.11027672
78	0x3dd71189	0.105013914
79	0x3cbab204	0.022789963
80	0x3dba0584	0.09083083
81	0x3dd795ca	0.10526617
82	0x3d196b2d	0.037455726
83	0xbe4025d9	-0.18764438
84	0x3d2e7d41	0.04259992
85	0xbe4aec2c	-0.19816655
86	0xbe8a0cda	-0.2696293
87	0x3e0aca91	0.13553835
88	0x3e038c0d	0.12846394
89	0xbda234dc	-0.079202384
90	0x3bba4b7a	0.005685267
91	0xbe2165ba	-0.15761462
92	0xbe956b8a	-0.29183608
93	0x3ebcc951	0.36872342
94	0x3b9c179a	0.0047635557
95	0xbde62857	-0.11238163
96	0xbd1557bf	-0.036460634
97	0x3d43a78d	0.04776721
98	0xbe356790	-0.17715287
99	0x3e288a74	0.16459066
100	0x3d4f6527	0.050633576
101	0x3dc807e5	0.09767131
102	0x3d1e6287	0.03866818
103	0xbe3e6ed2	-0.18596962
104	0xbd4095cc	-0.047017857
105	0xbde87203	-0.11349871
106	0xbe3ac907	-0.18240748
107	0x3e62a3b4	0.2213276
108	0xbe6ac8ab	-0.22928111
109	0xbebc4f12	-0.36779076
110	0xbe2795a2	-0.16365674
111	0x3e4aab28	0.19791853
112	0x3e4c1f30	0.19933772
113	0x3e49ade8	0.19695246
114	0x3d35f38e	0.044421725
115	0xbe49a725	-0.19692667
116	0x3eb9969c	0.36247718
117	0x3e4a226e	0.19739696
118	0x3e5158e6	0.20444068
119	0x3ba101f4	0.004913563
120	0xbe05596f	-0.13022397
121	0x3d2a93af	0.04164475
122	0x3e1ea843	0.15493874
123	0xbe353fae	-0.17700073
124	0xbe40817e	-0.18799397
125	0xbe3585a3	-0.1772676
126	0x3e3d189a	0.18466416
127	0xbd82745d	-0.06369851
128	0x3d79b8b1	0.06096715
129	0x3dfb2e70	0.122647166
130	0x3f2d10d5	0.6760381
131	0xbd9e714c	-0.077364534
132	0xbe5948ea	-0.21219221
133	0x3d74d3b5	0.059772212
134	0xbd70c76c	-0.058783934
135	0xbe4b5aea	-0.198589
136	0x3df4e570	0.11957824
137	0xbddb15be	-0.10697506
138	0x3d3b755b	0.045766216
139	0xbe5a745b	-0.21333449
140	0xbe3be114	-0.18347579
141	0xbe80c65d	-0.2515134
142	0xbe488073	-0.1958025
143	0x3d4e8bd3	0.050426316
144	0x3d93caa4	0.07216385
145	0x3e985c43	0.2975789
146	0xbca0ace3	-0.019613689
147	0xbd659f77	-0.05606028
148	0xbcdffc12	-0.027341876
149	0xbce13a96	-0.027493756
150	0xbce75d7f	-0.028242825
151	0xbdc239d7	-0.09483688
152	0x3c5c2dfb	0.013438697
153	0xbda18a6d	-0.07887731
154	0x3e1b367c	0.15157503
155	0xbd5a687d	-0.053322304
156	0x3d00bbac	0.031428978
157	0x3e618668	0.22023928
158	0x3d66e1dc	0.05636774
159	0x3da977d1	0.08274806
160	0x3d4934be	0.049122564
161	0xbe072f08	-0.13201535
162	0xbccbd080	-0.024879694
163	0x3e5ec64a	0.21755329
164	0x3c5fda91	0.01366295
165	0xbd811ddc	-0.06304523
166	0x3d72c1b4	0.05926676
167	0x3e09954a	0.13435856
168	0x3d91873e	0.071058735
169	0x3d2c9a84	0.042139545
170	0x3df1a454	0.11798921
171	0x3dbc63c0	0.09198713
172	0xbe215317	-0.15754353
173	0xbd8502a2	-0.06494643
174	0xbd24e82f	-0.04026049
175	0xbcd8d4f5	-0.026468733
176	0xbdb24eda	-0.08706446
177	0xbdb5ccbe	-0.08876942
178	0xbe62532f	-0.22102045
179	0xbe9fb2c6	-0.3119108
180	0x3df57b18	0.11986369
181	0xbea13c0b	-0.31491122
182	0x3d528386	0.05139496
183	0x3ba733c8	0.0051026084
184	0x3c9c95e9	0.019114451
185	0xbe5cd204	-0.2156449
186	0xbd0c2024	-0.03421034
187	0xbcf3caaa	-0.029759724
188	0x3e9e0046	0.30859584
189	0x3e9869ac	0.2976812
190	0x3df9c070	0.12194908
191	0x3db223e8	0.08698255
192	0xbe70a265	-0.23499449
193	0xbcf623bc	-0.030046336
194	0xbe222914	-0.15835983
195	0xbd9d90a6	-0.07693605
196	0x3e8c60f2	0.27417713
197	0xbe81ac62	-0.2532683
198	0xbd74db5e	-0.059779517
199	0xbd46a16c	-0.048493788
200	0x3e1351d0	0.14386678
201	0xbdcbb5d9	-0.09946794
202	0xbdd0a0ba	-0.10186906
203	0x3dd01b84	0.10161498
204	0xbd768011	-0.060180727
205	0x3e8bd591	0.27311376
206	0x3e4216ec	0.18954057
207	0xbd58f4e3	-0.052967917
208	0xbe877f95	-0.26464525
209	0xbd7b6f67	-0.06138554
210	0xbd5fa573	-0.054601144
211	0xbe22459a	-0.15846863
212	0x3d7b93d4	0.061420277
213	0xbe60bb84	-0.21946532
214	0x3e3fdb99	0.18736114
215	0xbe04ebcb	-0.12980573
216	0x3e2419c2	0.16025451
217	0x3f2a8909	0.6661535
218	0xbc8fd9ce	-0.017559912
219	0xbd6bb0fc	-0.057541832
220	0x3e003e22	0.12523702
221	0x3b633f82	0.0034675305
222	0xbd488587	-0.048955467
223	0xbe23c952	-0.15994766
224	0xbdee163b	-0.11625334
225	0xbdf54f96	-0.119780704
226	0xbe82b689	-0.25529888
227	0x3e0ee8b2	0.13955954
228	0x3e9f8505	0.31156173
229	0x3e17c921	0.14822818
230	0x3e197cdb	0.14989035
231	0x3dd554cb	0.104165636
232	0xbcec2c00	-0.028829575
233	0xbd83c691	-0.06434358
234	0x3e0a9d6d	0.13536616
235	0xbc83f5ed	-0.016108477
236	0xbe831032	-0.25598294
237	0x3e4eacf8	0.2018317
238	0x3f05710b	0.52125615
239	0x3d66dfc8	0.05636576
240	0x3e184cfa	0.14873114
241	0x3e01e105	0.12683494
242	0xbe067341	-0.13129903
243	0x3c7b50f1	0.015339122
244	0xbd043b2c	-0.032282993
245	0x3dfa7af1	0.122304805
246	0xbe36377c	-0.17794603
247	0x3dc44f82	0.095854774
248	0xbe070495	-0.13185342
249	0x3ca5ff90	0.020263463
250	0xbcd7fecb	-0.026366612
251	0xbd97b97f	-0.074084274
252	0xbe1ba46a	-0.15199438
253	0x3dfb0180	0.122561455
254	0x3c944163	0.018097585
255	0xbd8b2a40	-0.06795168

linear2.weight f4 [3, 256]
0	0x3dcefd10	0.101068616
1	0xb939a7d9	-0.00017705503
2	0x3e8cb9b7	0.2748544
3	0x3e42f5a9	0.19039024
4	0xbdf35fa0	-0.118834734
5	0xbb8f538f	-0.0043739746
6	0x3ecac97a	0.3960684
7	0xbe8e5fea	-0.27807552
8	0xbeefa2ac	-0.46803796
9	0x3e17d512	0.14827374
10	0xbefc54ff	-0.49283597
11	0xbe5e18e5	-0.21689184
12	0xbd91cff2	-0.071197405
13	0xbda681cb	-0.08130225
14	0xbf299c6a	-0.66254294
15	0x3d887155	0.06662241
16	0xbed49501	-0.4151993
17	0xbe85d1d1	-0.2613664
18	0x3d69b994	0.057061747
19	0x3e915b71	0.28390077
20	0x3e613b63	0.2199531
21	0x3ebe330f	0.3714833
22	0x3de31279	0.11087508
23	0x3d0642a5	0.0327784
24	0xbdb055ed	-0.08610139
25	0x3ea69596	0.32536
26	0x3e1de00e	0.15417501
27	0x3eb0885b	0.3447903
28	0xbefe4cf2	-0.4966808
29	0x3eadd45b	0.33951077
30	0x3cf1932c	0.029489122
31	0x3eda97ee	0.42694038
32	0x3eee0842	0.46490675
33	0xbdda6ef6	-0.10665695
34	0x3e0ee888	0.13955891
35	0xbe7de76d	-0.24795313
36	0x3d553602	0.05205346
37	0xbf1ddba2	-0.6166326
38	0xbc918aee	-0.017766442
39	0xbec23b8a	-0.3793605
40	0xbe857376	-0.26064652
41	0x3e9c6546	0.30546016
42	0x3e1f8d1c	0.15581173
43	0xbe87e09e	-0.26538557
44	0xbb835216	-0.004007588
45	0x3e51ee55	0.20501073
46	0xbe1e8ab9	-0.15482606
47	0x3eb361c7	0.35035536
48	0xbc5df059	-0.013546073
49	0x3eab8fc9	0.33508137
50	0x3e152ae3	0.14567141
51	0x3e9bb730	0.30413198
52	0x3cfae08d	0.030624652
53	0x3dd9a2bf	0.106267445
54	0x3e3eb6d8	0.18624437
55	0x3edc4c5f	0.43027017
56	0xbda80409	-0.08203895
57	0xbcf129fd	-0.029438967
58	0x3e0bce8b	0.13653009
59	0x3dde6064	0.10858229
60	0x3ed1b37c	0.40957248
61	0xbb2cf296	-0.002638971
62	0x3d86d68e	0.06583892
63	0x3c793140	0.015209496
64	0x3cd35e5f	0.025801836
65	0x3e62ffc1	0.22167875
66	0x3cecf9c7	0.028927697
67	0x3dab2627	0.08356886
68	0xbd158ead	-0.03651302
69	0x3e955bd3	0.2917162
70	0xbe7cff25	-0.24706705
71	0xbc5b7048	-0.013393469
72	0x3dd6798f	0.10472404
73	0xbdf44040	-0.11926317
74	0xbdc55066	-0.096344754
75	0x3d4b0826	0.049568318
76	0x3e741cce	0.23839113
77	0xbe11cec9	-0.14239039
78	0xbe06e110	-0.13171792
79	0xbe2598a9	-0.16171516
80	0x3f27a274	0.6548226
81	0x3e4e8db2	0.2017124
82	0x3d54f17b	0.051988106
83	0x3c94df8c	0.018173002
84	0xbe2c2324	-0.1681028
85	0x3c5749b8	0.0131401345
86	0xbe8f5815	-0.2799689
87	0x3ecb9c5e	0.39767736
88	0xbdb1f26a	-0.08688815
89	0xbea19f16	-0.31566685
90	0x3ead6f7f	0.33874127
91	0xbd4ad826	-0.04952254
92	0x3e1386cf	0.14406894
93	0x3e66b541	0.2253008
94	0xbdcfa3c5	-0.101386584
95	0xbe657153	-0.22406511
96	0x3eaa4936	0.3325898
97	0xbd2d0672	-0.042242475
98	0xbe75233c	-0.23939222
99	0x3e5040c6	0.20337209
100	0xbcdabc39	-0.02670108
101	0xbf21b0ce	-0.6316041
102	0x3b8e7869	0.00434785
103	0xbd620a35	-0.055185515
104	0xbe72187f	-0.23642157
105	0xbf0e7500	-0.5564728
106	0xbe861199	-0.261853
107	0x3c236951	0.00997384
108	0xbd081b51	-0.033229176
109	0xbea1b119	-0.31580427
110	0xbe0a4387	-0.13502322
111	0x3ebe0ef0	0.3712077
112	0xbd56b422	-0.05241788
113	0x3eb65a47	0.3561575
114	0x3dbf04c2	0.09327079
115	0xbd4f072d	-0.050543953
116	0x3eac5019	0.3365486
117	0x3e2c900d	0.16851826
118	0xbe2be14c	-0.16785163
119	0xbd2e7ad1	-0.042597596
120	0x3dcf066b	0.10108646
121	0xbe5df5c8	-0.2167579
122	0x3e2f7f46	0.17138395
123	0xbe5bbf33	-0.21459655
124	0x3c53be98	0.012923859
125	0xbee06c0b	-0.4383243
126	0x3e31e4c9	0.17372431
127	0xbe26645b	-0.1624922
128	0x3d6f4147	0.058411863
129	0x3dc0f29a	0.094212726
130	0x3e8624d0	0.2619996
131	0x3ee26f4f	0.44225547
132	0xbf2c8472	-0.67389596
133	0xbeab576a	-0.3346513
134	0x3e85c01a	0.26123124
135	0x3ee6eca8	0.4510243
136	0x3d69055c	0.056889877
137	0xbc02ce63	-0.007983777
138	0xbebc3b28	-0.36763883
139	0xbcf7055b	-0.03015392
140	0xbbe264d1	-0.006908991
141	0xbe058c27	-0.13041745
142	0xbf26a94d	-0.6510208
143	0x3e40672f	0.18789361
144	0x3db78b46	0.08962111
145	0x3ea10f04	0.3145677
146	0x3e832944	0.2561742
147	0xbeaecc29	-0.34140137
148	0x3d25b910	0.040459692
149	0x3edab259	0.42714193
150	0xbceff52c	-0.029291712
151	0xbe6d9be7	-0.23204003
152	0x3e0fd37b	0.14045517
153	0xbe7a6e09	-0.24456038
154	0xbeca53e5	-0.3951713
155	0xbda97393	-0.08273997
156	0xbe7151fa	-0.23566428
157	0x3e23b91a	0.1598858
158	0x3ea0e539	0.31424883
159	0x3e920034	0.2851578
160	0xbf45283a	-0.77014506
161	0xbb665860	-0.003514789
162	0xbed04d24	-0.40683854
163	0x3d037b2d	0.03209989
164	0x3e6a4200	0.2287674
165	0x3ea5f94f	0.3241677
166	0x3e2948dd	0.16531701
167	0x3d6fb85f	0.05852544
168	0xbe0f8812	-0.1401675
169	0xbee8e088	-0.45483804
170	0x3e88573b	0.26629052
171	0x3d2d7188	0.0423446
172	0x3c338dbd	0.010959086
173	0x3eed5925	0.46357074
174	0x3e0a56c7	0.13509665
175	0xbebfd976	-0.37470597
176	0xbd0c783d	-0.034294356
177	0x3e91ebab	0.28500113
178	0xbc7ca2be	-0.01541966
179	0x3cd28dc9	0.025702374
180	0xbe3e1c82	-0.18565562
181	0xbdee7d51	-0.11644996
182	0xbefc77f0	-0.49310255
183	0xbe2fda9e	-0.1717324
184	0x3ea09dd1	0.31370404
185	0xbeca1740	-0.39470863
186	0x3d5b4f9a	0.05354271
187	0x3dc6a2a5	0.09698991
188	0x3dffa875	0.124833025
189	0x3e52e753	0.20596056
190	0x3e1a0289	0.1504003
191	0xbec15948	-0.3776343
192	0xbce6983c	-0.028148763
193	0xbede5015	-0.43420473
194	0xbf342de0	-0.703825
195	0x3eb5ef21	0.35534003
196	0x3e5066a4	0.20351654
197	0xbe19c109	-0.15015043
198	0x3cf164d9	0.029467033
199	0xbe4d46b9	-0.2004651
200	0xbd55dfd2	-0.052215405
201	0xbe2044d1	-0.15651251
202	0xbdedba2d	-0.11607776
203	0x3e4940ab	0.19653575
204	0xbed9b3c4	-0.42519963
205	0x3ec1f92a	0.3788541
206	0xbe75273d	-0.2394075
207	0xbe73e925	-0.23819406
208	0xbc0a1703	-0.008428338
209	0xbe32a2e9	-0.17444958
210	0x3c0ce779	0.008600109
211	0xbeda445c	-0.4263028
212	0xbe34b756	-0.17648062
213	0xbcc93268	-0.024560168
214	0x3f0891bc	0.53347373
215	0x3c94de16	0.018172305
216	0x3ddb417b	0.10705849
217	0x3e3b8b65	0.18314894
218	0x3d82ccd1	0.06386722
219	0xbd7bf808	-0.061515838
220	0x3e96d11f	0.29456422
221	0x3d8171d0	0.06320536
222	0xbe8922aa	-0.2678426
223	0xbe310784	-0.17288023
224	0xbf047f79	-0.5175701
225	0x3e7843b6	0.2424458
226	0x3dd4706e	0.10373007
227	0xbe2ed2f9	-0.17072667
228	0x3e90f310	0.28310442
229	0x3e0f23d9	0.13978519
230	0x3e9ed94c	0.3102516
231	0xbe93241b	-0.28738484
232	0xbf0590b8	-0.5217395
233	0xbb9dfe84	-0.0048216004
234	0x3a7630b2	0.00093914114
235	0xbd4c74ae	-0.049915962
236	0xbd31aa18	-0.043375105
237	0xbe4b0135	-0.19824679
238	0x3e0a0d82	0.13481715
239	0x3dd61136	0.104525015
240	0x3e951283	0.29115686
241	0x3e9982d2	0.2998262
242	0x3d52b23c	0.05143951
243	0x3ee63094	0.44958937
244	0xbe4a6c61	-0.19767906
245	0xbdd058d9	-0.10173196
246	0xbd7e9b79	-0.06215999
247	0xbdfd9dad	-0.1238359
248	0x3e5a40ea	0.21313825
249	0xbe3ccc96	-0.18437418
250	0x3ecaba9d	0.395955
251	0xbf0b4c05	-0.5441287
252	0x3d66912c	0.05629079
253	0x3ea08df6	0.31358308
254	0xbe4ba585	-0.1988736
255	0x3eef7a6d	0.4677309

linear2.bias f4 [3]
0	0x3e62c548	0.2214557
1	0x3e091091	0.13385226
2	0x3cc8bd80	0.024504423
