model_hybrid/checkpoint_20251029_195537_score4.pth (torch, 21281 bytes, 4 tensors)

linear1.weight f4 [256, 14]
0	0x3e0d5f3c	0.1380586
1	0xbe2f0fb2	-0.17095831
2	0x3e9de1f7	0.3083646
3	0x3de0586e	0.109543666
4	0xbd832013	-0.06402602
5	0x3e51c700	0.20486069
6	0xbe9a8229	-0.3017743
7	0xbae98478	-0.0017815968
8	0x3e93f23b	0.28895745
9	0x3d54e7f7	0.05197903
10	0x3d29a3fa	0.041416146
11	0x3dca548c	0.09879407
12	0x3dec1ddb	0.11529132
13	0x3d625f5f	0.055266734
14	0x3e0c05cb	0.13674085
15	0x3e916bd1	0.2840257
16	0xbeb3a072	-0.35083348
17	0x3d7678e6	0.06017389
18	0x3e184215	0.14868958
19	0xbd4a537a	-0.049396016
20	0xbdc7de63	-0.09759214
21	0xbd5cf7db	-0.05394731
22	0x3e4b6541	0.19862844
23	0x3da4e27e	0.080510125
24	0xbe33b98b	-0.17551248
25	0x3e3ed079	0.18634214
26	0x3e6550a0	0.22394037
27	0x3e4bd181	0.19904138
28	0xbda3413a	-0.07971425
29	0x3e0dcf7d	0.13848682
30	0xbde5868c	-0.112073034
31	0x3eaf2911	0.3421102
32	0xbe1d45e0	-0.15358686
33	0xbe68ba25	-0.22727259
34	0x3eabdbe0	0.3356619
35	0xbddee8c9	-0.10884244
36	0xbd613d5b	-0.054990154
37	0xbec887d6	-0.39166135
38	0x3e79b718	0.24386251
39	0x3e0fbc8c	0.14036769
40	0x3dbc5674	0.09196177
41	0xbdd820ea	-0.10553153
42	0x3cd47fda	0.02593987
43	0x3e5bbdcd	0.21459122
44	0xbcac7ed0	-0.021056563
45	0xbe7b7c44	-0.24559122
46	0x3e99fa0e	0.3007359
47	0xbd350397	-0.044192877
48	0xbde7ead8	-0.1132409
49	0x3cebfd90	0.028807431
50	0x3e882991	0.26594213
51	0x3b503a82	0.0031773155
52	0xbe9bb6c6	-0.30412883
53	0xbe2cdc79	-0.16880979
54	0x3d30146b	0.042988222
55	0x3e4cdf94	0.20007163
56	0x3dbd5589	0.0924483
57	0x3dea2b13	0.11433997
58	0xbdc3b1d6	-0.09555404
59	0xbc55d29c	-0.0130507015
60	0xbd8c3722	-0.06846453
61	0xbe229687	-0.15877734
62	0x3ea0eb53	0.31429538
63	0xbe94435a	-0.28957635
64	0xbdbd9597	-0.092570476
65	0xbc516528	-0.012780465
66	0x3e1b9ba5	0.15196092
67	0x3d8547df	0.06507849
68	0x3ce8e519	0.028429555
69	0xbe15835e	-0.14600894
70	0xbe3e4261	-0.18580009
71	0x3ca04f3b	0.01956903
72	0x3db8e57c	0.09028146
73	0x3cf5654a	0.029955525
74	0x3d36f85b	0.044670444
75	0xbe9e7bcb	-0.30953822
76	0xbd09f9d6	-0.033685528
77	0xbe71a38c	-0.23597544
78	0x3d88e7aa	0.066848114
79	0xbdb88d1a	-0.09011288
80	0x3cee00a1	0.029053034
81	0x3e2ffe08	0.17186749
82	0x3e075090	0.13214326
83	0xbe592dd1	-0.21208884
84	0x3e036c7a	0.1283435
85	0x3d20621f	0.039156076
86	0xbdbbc980	-0.091692924
87	0x3e453102	0.19256976
88	0x3e8ac41f	0.27102754
89	0xbdd40e04	-0.10354236
90	0x3e2ce056	0.16882452
91	0xbe98907b	-0.2979773
92	0x3e10eccf	0.14152835
93	0xbe7d2700	-0.24721909
94	0x3e094575	0.13405402
95	0x3e30322f	0.17206644
96	0xbda42050	-0.080139756
97	0x3dd53620	0.10410714
98	0x3e1145b2	0.14186743
99	0xbe781b89	-0.24229254
100	0xbd67e730	-0.056616962
101	0xbe16a9ce	-0.14713213
102	0x3d67588a	0.05648092
103	0x3e7cd04c	0.24688834
104	0xbe843ca5	-0.25827518
105	0x3d13bbce	0.036067776
106	0x3e31d3e7	0.1736599
107	0x3d7f98d6	0.062401615
108	0x3e88addc	0.26695144
109	0x3e3da358	0.18519342
110	0xbe4c88bf	-0.1997404
111	0xbd923a04	-0.07139972
112	0xbe2b3d90	-0.16722703
113	0xbe7acce5	-0.24492224
114	0x3e12eec9	0.14348902
115	0xbea327d6	-0.3186633
116	0x3ea50f15	0.3223807
117	0x3e5c4762	0.21511605
118	0xbe08cb7a	-0.1335887
119	0x3e70f3d5	0.23530515
120	0xbe2590d2	-0.16168526
121	0xbe989833	-0.2980362
122	0x3e839ea2	0.25706965
123	0xbe29ff75	-0.16601355
124	0x3e253d81	0.16136743
125	0xbd111959	-0.035424564
126	0x3cd6b2ce	0.026208308
127	0xbe3b9947	-0.1832019
128	0x3ecc784b	0.39935526
129	0x3e97ec71	0.29672578
130	0xbc8b60f7	-0.01701401
131	0x3ebd930c	0.3702625
132	0xbeb6c087	-0.35693762
133	0xbdb7c1a7	-0.08972483
134	0x3e866ccf	0.2625489
135	0x3bd318d4	0.0064421687
136	0xbea636c6	-0.32463664
137	0xbe0dc7d7	-0.13845764
138	0x3d5c24df	0.0537461
139	0x3ea70877	0.32623646
140	0xbd7640a6	-0.060120247
141	0xbe8eb7c1	-0.27874568
142	0xbe7bea76	-0.24601158
143	0xbcfc1ed7	-0.030776424
144	0x3d0df6ce	0.0346592
145	0x3e89f656	0.26945752
146	0xbe8917a9	-0.26775864
147	0x3c2ad5bb	0.010426934
148	0x3ca1ca81	0.019749882
149	0xbe27dd15	-0.1639293
150	0x3e7c32de	0.2462878
151	0xbd5e9256	-0.054338776
152	0xbde74e6d	-0.112942554
153	0xbe12f490	-0.14351106
154	0x3e8c5486	0.27408236
155	0xbd5e40af	-0.054260906
156	0xbe0055a1	-0.12532665
157	0x3e0c99a8	0.1373049
158	0x3d952b74	0.07283679
159	0x3c488ad7	0.012240133
160	0x3d429d1c	0.047513112
161	0xbe23ceab	-0.15996806
162	0x3e1a4f6a	0.15069357
163	0x3e377e10	0.17919183
164	0x3e93acfd	0.28842917
165	0x3e66da17	0.22544132
166	0x3e691bd8	0.22764528
167	0x3de3a90b	0.11116227
168	0x3d65b65c	0.056082115
169	0x3d2b9607	0.041891124
170	0xbceb6b64	-0.028737731
171	0x3c107f23	0.008819374
172	0x3d7cdc33	0.061733436
173	0xbccda9b0	-0.025105327
174	0x3ccde0f6	0.025131684
175	0x3db6935f	0.089148276
176	0xbdc122da	-0.094304755
177	0xbe0a333b	-0.13496105
178	0x3e20323b	0.15644161
179	0x3e97f5ae	0.29679626
180	0x3e005f21	0.12536289
181	0x3e29bc25	0.16575678
182	0xbe6b6416	-0.22987399
183	0xbd1baba7	-0.038005497
184	0x3ecec7f9	0.40386942
185	0xbddc8693	-0.107678555
186	0x3d8b880e	0.0681306
187	0x3e82050b	0.25394472
188	0x3e2ff6cc	0.1718399
189	0x3e264eb1	0.16240956
190	0x3df835b4	0.12119618
191	0x3cde7390	0.027154714
192	0x3e81d361	0.25356582
193	0xbe5f260c	-0.21791857
194	0x3e0f730f	0.14008735
195	0x3e4cbfbb	0.19995014
196	0x3e87834e	0.26467365
197	0xbd0d8796	-0.034553133
198	0x3c9ecb69	0.019384103
199	0xbdb0707f	-0.08615207
200	0x3ec6be88	0.3881724
201	0xbe091429	-0.13386597
202	0xbd7d9ef3	-0.061919164
203	0x3de42c52	0.11141266
204	0xbe4b658a	-0.19862953
205	0xbdd63f22	-0.104612604
206	0x3c3280ca	0.0108949635
207	0x3e16b6fe	0.14718243
208	0xbe279676	-0.1636599
209	0x3dc05225	0.09390668
210	0xbeaaf7b9	-0.33392122
211	0x3ec23620	0.3793192
212	0x3e846d39	0.2586458
213	0x3e20968f	0.15682434
214	0x3d86e97f	0.065875046
215	0x3cb0f8e4	0.021603055
216	0xbd4a8112	-0.049439497
217	0xbd98ab46	-0.07454543
218	0xbaa60fbe	-0.0012669486
219	0x3e2419cb	0.16025464
220	0xbe43ca78	-0.19120204
221	0x3dc26579	0.094920106
222	0xbd697672	-0.056997724
223	0x3ba14920	0.0049220473
224	0xbe5270c3	-0.20550828
225	0xbdbda49b	-0.092599116
226	0x3e3bf9ce	0.18357012
227	0xbe11591a	-0.14194146
228	0xbe51c74c	-0.20486182
229	0x3e8826b1	0.2659202
230	0x3e8921ee	0.267837
231	0xbe01baf3	-0.12668972
232	0x3ca8defa	0.020614136
233	0xbe65192d	-0.22372885
234	0xbe248e01	-0.16069795
235	0xbd86de06	-0.06585316
236	0x3d1acaa1	0.0377909
237	0x3e41f94d	0.18942757
238	0xbd28a267	-0.041170504
239	0x3e4f39d4	0.20236903
240	0xbde66bde	-0.11251043
241	0xbb59e9e7	-0.003325099
242	0x3dca480c	0.09877023
243	0xbd1021df	-0.035188552
244	0xbd89e467	-0.067330174
245	0x3e18764c	0.14888877
246	0x3de219da	0.11040087
247	0xbc6e4a33	-0.014544058
248	0x3e842dcc	0.2581619
249	0x3d6c13bb	0.057636004
250	0x3d0756c2	0.033041723
251	0x3e881b7b	0.26583466
252	0x3dbda30d	0.09259615
253	0xbe4bfa29	-0.19919647
254	0x3ec9b759	0.39397696
255	0x3e136925	0.14395578

linear1.bias f4 [256]
0	0xbe7ba792	-0.24575642
1	0x3e8de977	0.27717182
2	0xbd67bf16	-0.056578718
3	0xbdfc0c91	-0.12307084
4	0x3e894a58	0.26814532
5	0x3dd44679	0.10365004
6	0x3e51af65	0.20477064
7	0xbd5416db	-0.05177961
8	0x3c511de7	0.012763477
9	0xbe0b3650	-0.13594937
10	0x3e3fb6f0	0.18722129
11	0x3e013138	0.12616432
12	0x3e8a8cfd	0.2706069
13	0xbe9fed06	-0.31235522
14	0xbe86f1e5	-0.26356426
15	0xbc73ff18	-0.014892362
16	0x3cf8518c	0.030312322
17	0x3e0cf53e	0.13765427
18	0x3ce57016	0.028007548
19	0xbe2e6256	-0.170297
20	0xbe1a8f94	-0.15093833
21	0x3db07fb7	0.0861811
22	0xbe9d2ac5	-0.30696693
23	0xbacfbc02	-0.0015848877
24	0x3df53fdf	0.11975073
25	0xbe277770	-0.16354156
26	0xbdf20c3b	-0.11818739
27	0xbdeff674	-0.11716929
28	0xbe3758d3	-0.17904978
29	0xbe0da85a	-0.13833752
30	0xbde2205a	-0.11041327
31	0xbde7ba63	-0.11314847
32	0xbd9438b4	-0.07237378
33	0xbda78d8e	-0.08181296
34	0xbdb5c302	-0.088750854
35	0xbe000bbe	-0.1250448
36	0xbcb5bafa	-0.022183884
37	0x3d0c7d55	0.034299213
38	0xbe8c97d0	-0.27459574
39	0x3e1f3c16	0.15550265
40	0xbdd6d010	-0.104889035
41	0x3d559368	0.05214253
42	0x3e772a8c	0.24137324
43	0x3e708333	0.23487549
44	0xbe70549d	-0.23469777
45	0x3e26771a	0.16256371
46	0x3e195770	0.14974761
47	0x3e762f32	0.24041441
48	0xbe7e68d3	-0.24844675
49	0x3e6f42e1	0.23365356
50	0xbcfd82aa	-0.030946095
51	0xbd2a79b2	-0.041619964
52	0xbe9559f8	-0.29170203
53	0xbe85b2af	-0.26112887
54	0x3e466332	0.19373778
55	0xbcfc3b5d	-0.030790025
56	0x3e31dce4	0.1736942
57	0xbe5c0c59	-0.21489085
58	0x3e0af9a8	0.13571799
59	0x3e959dec	0.29222047
60	0xbe553e31	-0.20824505
61	0x3cd0c31e	0.025483664
62	0xbe071469	-0.1319138
63	0xbe8ff2b4	-0.28114855
64	0xbd287d56	-0.041135155
65	0xbd14e4a5	-0.036350865
66	0x3d7322c7	0.059359338
67	0xbd0f13ab	-0.034930866
68	0xbdea0b49	-0.11427934
69	0x3e6201b9	0.2207097
70	0x3d806b06	0.06270413
71	0xbda6641c	-0.08124563
72	0xbe82e723	-0.25566968
73	0x3dfbeb85	0.12300781
74	0xbcfdf0d0	-0.030998617
75	0xbe588da4	-0.21147782
76	0x3d7dc11c	0.06195174
77	0x3db6aacc	0.08919296
78	0x3e4046b5	0.18776973
79	0x3da97fe8	0.08276349
80	0xbe1833a4	-0.1486345
81	0x3e11d712	0.14242199
82	0x3bab2410	0.005222805
83	0xbe29671c	-0.1654324
84	0x3e878669	0.26469734
85	0xbe4adc67	-0.1981064
86	0xbe77f387	-0.24213992
87	0x3da80ce2	0.08205582
88	0x3eb13c03	0.34616098
89	0x3d7f1a06	0.062280677
90	0xbc67d0c0	-0.014148891
91	0xbe2165ba	-0.15761462
92	0xbe50d2b5	-0.20392878
93	0x3e9d05dd	0.30668536
94	0x3e510dd9	0.20415439
95	0xbd8846b7	-0.06654113
96	0xbe28f050	-0.16497922
97	0x3e4c6077	0.19958673
98	0xbe846c8c	-0.25864065
99	0x3e2b2a24	0.16715294
100	0x3e3cc4be	0.18434426
101	0x3db30254	0.087406784
102	0x3d1e6287	0.03866818
103	0xbe321bf8	-0.17393482
104	0x3c4c269f	0.01246038
105	0xbddef1e7	-0.10885983
106	0xbe2f02ca	-0.17090908
107	0x3e9f9530	0.3116851
108	0xbe6726ca	-0.2257339
109	0xbe80ae2a	-0.25132877
110	0xbe088e64	-0.13335568
111	0xbd3842ca	-0.04498557
112	0x3e643621	0.22286274
113	0x3e11069e	0.1416268
114	0xbdd40bd0	-0.103538156
115	0x3d49c3f1	0.04925913
116	0x3e7ada3b	0.24497311
117	0x3e5c0c49	0.21489061
118	0x3e0ca495	0.13734658
119	0x3e04c700	0.12966537
120	0xbe3a9f3a	-0.18224803
121	0x3e5c4192	0.21509388
122	0x3db3b7de	0.08775304
123	0xbd748b65	-0.05970325
124	0xbe3dd123	-0.1853681
125	0xbdf5d152	-0.12002815
126	0x3d780d7a	0.060559727
127	0xbda2140e	-0.079139814
128	0x3d0ed8e5	0.034874815
129	0x3e6f3527	0.2336012
130	0xbcb285ce	-0.021792319
131	0xbdd982c1	-0.106206425
132	0xbe2a2d12	-0.16618755
133	0x3e7250ae	0.2366359
134	0xbe079468	-0.13240206
135	0xbe8f89f2	-0.2803493
136	0x3db7d093	0.08975329
137	0xbe0c3ef9	-0.13695897
138	0x3df307ac	0.11866698
139	0xbde621ad	-0.11236892
140	0xbe52818d	-0.20557232
141	0xbe15e6e0	-0.14638853
142	0xbe6ccaf6	-0.23124298
143	0x3cc983a2	0.0245989
144	0x3c91f150	0.017815262
145	0x3e09d70c	0.1346094
146	0xbd8e9644	-0.06962255
147	0xbd376e40	-0.044782877
148	0x3b20e7cc	0.0024552224
149	0xbc9f7a38	-0.019467458
150	0x3c7e6d40	0.015528977
151	0xbd8a9d2b	-0.06768259
152	0x3d80d3ca	0.062903956
153	0x3d93da11	0.07219327
154	0x3dd62b5e	0.104574904
155	0xbd5f1095	-0.054459173
156	0x3d9f5a49	0.077808924
157	0xbba3c9e6	-0.0049984334
158	0xbdca1bfc	-0.09868619
159	0x3c181a0e	0.009283556
160	0x3d94ed5b	0.072718345
161	0xbe072f08	-0.13201535
162	0x3c1b7f75	0.009490837
163	0x3e8636d2	0.262137
164	0xbcd9896a	-0.026554782
165	0xbe17d608	-0.1482774
166	0x3e00608f	0.12536834
167	0x3de97d63	0.11400869
168	0x3eacdfd1	0.33764508
169	0x3d1dc3d2	0.038516827
170	0x3d4ecc1c	0.050487623
171	0x3e9ce071	0.30639985
172	0xbdd9789e	-0.10618709
173	0xbe82bf3d	-0.25536528
174	0xbdfdffb0	-0.12402284
175	0xbd946095	-0.07244984
176	0xbd82e2fa	-0.063909486
177	0xbe2160c8	-0.15759575
178	0xbd6c1f05	-0.05764677
179	0xbebddfc2	-0.37084776
180	0x3e5b9355	0.21442921
181	0xbe4adde1	-0.19811203
182	0xbd7f96ca	-0.062399663
183	0x3d9e9f3c	0.07745215
184	0xbdacd3d2	-0.08438839
185	0xbe51b261	-0.20478202
186	0xbd0c2024	-0.03421034
187	0xbd8567d0	-0.06513941
188	0x3d8568d8	0.06514138
189	0x3e62c691	0.2214606
190	0x3d9e5586	0.07731156
191	0x3d70df95	0.058806974
192	0xbe70a265	-0.23499449
193	0x3c494a5c	0.012285795
194	0xbdfb095a	-0.12257643
195	0xbcbcd16a	-0.023049075
196	0x3e6c7c26	0.23094234
197	0xbd9d4831	-0.07679785
198	0x3e25eb8a	0.16203132
199	0x3dcc31ec	0.09970459
200	0x3e87c3b9	0.26516512
201	0xbd42d2ef	-0.047564443
202	0xb8b28ce0	-8.5139414e-05
203	0x3d86a885	0.06575111
204	0xbdf16d70	-0.11788452
205	0x3e722ead	0.23650618
206	0x3e7fc8e6	0.2497898
207	0xbb86211b	-0.004093302
208	0xbe652a9e	-0.22379538
209	0x3d6b7de8	0.05749312
210	0x3c6d9ed2	0.014503198
211	0xbdcae826	-0.0990756
212	0x3e96c33e	0.29445833
213	0xbe60bb84	-0.21946532
214	0x3ca5c5cb	0.020235917
215	0xbe616a01	-0.22013094
216	0x3e6b2088	0.22961628
217	0x3e80331f	0.25039002
218	0xbd67d45d	-0.05659901
219	0x3e037605	0.1283799
220	0x3de887af	0.113540046
221	0xbd5d89b1	-0.05408639
222	0xbc09d730	-0.008413121
223	0xbe03f836	-0.12887654
224	0xbe2867f5	-0.16445906
225	0xbde99887	-0.114060454
226	0xbe9728fb	-0.29523453
227	0x3e6bab2f	0.2301452
228	0xbd647fea	-0.05578605
229	0x3e83bf4d	0.25731888
230	0xbd9656dd	-0.073407866
231	0x3de5b8ca	0.11216886
232	0xbd274403	-0.040836345
233	0x3e40ffec	0.18847626
234	0x3e41e503	0.18935017
235	0x3c143b28	0.009047307
236	0xbe831032	-0.25598294
237	0x3e5f7615	0.21822388
238	0x3e41c111	0.18921305
239	0x3dbb5f7b	0.09149071
240	0x3dd3ef3d	0.103483655
241	0x3dbf501f	0.09341454
242	0xbe067341	-0.13129903
243	0xbd9f2155	-0.077700295
244	0xbd9cad84	-0.07650283
245	0x3ea76df5	0.32701078
246	0xbe4a7873	-0.1977251
247	0x3eae263d	0.34013548
248	0xbe01a2da	-0.12659779
249	0xbd221f29	-0.039580498
250	0xbe18fa35	-0.14939196
251	0xbbb6fabe	-0.00558409
252	0xbddd102f	-0.107941024
253	0xbdee5586	-0.11637406
254	0x3e8e973f	0.27849767
255	0xbdfc9ecb	-0.12334975

linear2.weight f4 [3, 256]
0	0xbc1579e6	-0.009123301
1	0xbda9c775	-0.082899965
2	0x3d6c855e	0.057744376
3	0x3c39285c	0.011301126
4	0xbe0e0d6f	-0.13872312
5	0xbce453f2	-0.02787206
6	0xbd07b1d4	-0.033128574
7	0xbdf52328	-0.11969596
8	0xbdcc231a	-0.099676326
9	0xbc50c30d	-0.012741816
10	0xbdeee239	-0.11664242
11	0xbde5b8da	-0.11216898
12	0xbd56072c	-0.052252933
13	0x3d1b7270	0.037950933
14	0xbdb50154	-0.08838144
15	0x3d5fb4d7	0.05461582
16	0xbdf41401	-0.11917878
17	0xbd0fbf58	-0.03509459
18	0x3d918411	0.07105268
19	0xbc1a278d	-0.009408844
20	0x3e0fb328	0.14033186
21	0x3d905ff7	0.07049554
22	0x3d9d5e6a	0.07684024
23	0x3cdd7ab0	0.027036041
24	0xbc97a916	-0.018513244
25	0x3da32f2c	0.07967982
26	0x3c9ed058	0.019386455
27	0x3cd1d9a4	0.025616474
28	0xbde48c55	-0.11159579
29	0x3dccefd7	0.10006683
30	0x3cf1932c	0.029489122
31	0x3da02141	0.07818843
32	0x3e1eaa0f	0.1549456
33	0xbe00d7ed	-0.12582369
34	0x3cbe89af	0.023259012
35	0xbb915a8f	-0.0044358443
36	0x3d47abcc	0.048747823
37	0xbdcd4dcc	-0.10024604
38	0x3d1811b4	0.037126258
39	0xbdcad1af	-0.09903275
40	0xbcac64ab	-0.021044096
41	0x3d37e86b	0.044899385
42	0xbb895654	-0.0041911993
43	0xbd944f8b	-0.07241734
44	0xbce1362c	-0.027491651
45	0x3da856c4	0.08219674
46	0xbbc9427d	-0.006141959
47	0x3caa130b	0.020761034
48	0xbc5df059	-0.013546073
49	0x3bcfaabc	0.006337492
50	0x3e0180c1	0.12646772
51	0xbcc696c3	-0.02424181
52	0x3cfae08d	0.030624652
53	0x3c9d129f	0.019173918
54	0x3c632e6e	0.01386605
55	0x3d880902	0.06642343
56	0xbd8dec0e	-0.069297895
57	0xbd46daaf	-0.048548397
58	0xbdf81fb7	-0.12115424
59	0xbe1ec9db	-0.15506689
60	0x3d6f4311	0.05841357
61	0xbd267bd1	-0.040645424
62	0x3de0adaa	0.10970624
63	0xba373a37	-0.00069895707
64	0xbd41936c	-0.047259733
65	0x3dbef254	0.09323564
66	0xbd5a5765	-0.053306002
67	0xbd64a948	-0.0558255
68	0xbd158ead	-0.03651302
69	0x3c1bef18	0.009517454
70	0xbe0c09e8	-0.13675654
71	0xbc5b7048	-0.013393469
72	0x3c71c16a	0.014755586
73	0xbdc04c1f	-0.09389519
74	0xbdb4d1ea	-0.088291004
75	0x3d4b0826	0.049568318
76	0x3c84e92e	0.01622447
77	0xbbb44472	-0.0055013234
78	0xbda6c8f0	-0.081437945
79	0xbd9abdcb	-0.075557314
80	0x3c9b599a	0.018963624
81	0xbd1d1b41	-0.03835607
82	0x3d0d2094	0.034454897
83	0x3c80f1d5	0.015740314
84	0xbdf9effb	-0.12203976
85	0x3cfd0284	0.030884989
86	0x3ca40bc4	0.020025142
87	0x3c39efa6	0.011348641
88	0xbdbd67c4	-0.09248307
89	0xbe21b99e	-0.15793464
90	0x3cc2d90b	0.023785135
91	0xbd4ad826	-0.04952254
92	0xbdf9dd97	-0.12200468
93	0x3db71190	0.08938897
94	0xbdd5875c	-0.104262084
95	0xbddefb81	-0.10887814
96	0x3dc89af3	0.09795179
97	0x3a5109a3	0.0007974153
98	0xbd219a2d	-0.039453674
99	0x3d5a4fcc	0.053298756
100	0xbd115e52	-0.03549034
101	0xbdf6334e	-0.12021504
102	0x3b8e7869	0.00434785
103	0xbd1e15ef	-0.038595136
104	0xbdc64241	-0.09680606
105	0xbe0a6026	-0.1351324
106	0xbce75ae3	-0.02824158
107	0x3c5f3550	0.0136235505
108	0xbbd1bec9	-0.006400917
109	0xbd94b80c	-0.07261667
110	0x3d746b6c	0.059672758
111	0x3d11ce6d	0.035597254
112	0xbc527251	-0.012844638
113	0x3d1c27b8	0.038123816
114	0x3b6c1bdd	0.003602735
115	0xbde370f4	-0.111055285
116	0x3c6753f2	0.014119135
117	0x3ca3d5cd	0.01999941
118	0xbd06e24d	-0.03293066
119	0xbbbc95dd	-0.00575517
120	0xbc754aa9	-0.014971414
121	0xbd980898	-0.07423514
122	0x3c2db8d2	0.010603147
123	0xbccb92c8	-0.024850264
124	0xbce84071	-0.02835104
125	0xbdddff1a	-0.108396724
126	0x3d7c52a6	0.061602257
127	0xbd949c3f	-0.07256364
128	0xbdc5ca64	-0.096577436
129	0x3d8589d9	0.06520433
130	0x3c25af20	0.010112554
131	0x3d620fc7	0.055190828
132	0xbded4498	-0.11585349
133	0xbdd5089a	-0.10402031
134	0xbcfdcb88	-0.03098084
135	0x3d512bc1	0.051067118
136	0x3d65660b	0.05600552
137	0x3df0f59b	0.117655955
138	0xbdc84458	-0.097786605
139	0xbd74e0f1	-0.059784833
140	0x3cdbe0f6	0.026840668
141	0xbde33a22	-0.11095072
142	0xbdc0a2ff	-0.09406089
143	0x3db805cd	0.089854814
144	0x3dd71260	0.10501552
145	0x3d309c8f	0.043118056
146	0x3d6b485a	0.057442047
147	0x3d0b4da1	0.03400958
148	0x3c3757c8	0.011190362
149	0xbbce0939	-0.0062877205
150	0x3ca29934	0.019848444
151	0xbd81d5c7	-0.06339603
152	0x3d67cb5b	0.05659042
153	0xbdb6a90f	-0.08918964
154	0xbc542ea4	-0.012950573
155	0x3cb8cfbb	0.022559991
156	0xbd5afc62	-0.053463347
157	0x3d6f4f57	0.058425274
158	0x3dc060f2	0.09393491
159	0x3c0e403b	0.008682306
160	0xbddc084d	-0.10743771
161	0xbb665860	-0.003514789
162	0xbda86318	-0.08222026
163	0xbdb9a394	-0.09064403
164	0xbc353e21	-0.011062176
165	0x3df06737	0.11738437
166	0x3da36d40	0.07979822
167	0xbc7038bd	-0.014661965
168	0xbdbce638	-0.09223598
169	0xbd942b3a	-0.07234807
170	0x3d10b8dc	0.035332546
171	0xbd488635	-0.048956115
172	0x3cec7cbc	0.028868072
173	0x3d7b186a	0.06130258
174	0x3ced41e0	0.028962076
175	0xbd855936	-0.06511156
176	0x3b6ffe82	0.0036620204
177	0x3ca398ab	0.019970259
178	0xbb097bd0	-0.002097834
179	0xbbb741c8	-0.0055925585
180	0xbdf9208c	-0.12164411
181	0x3c829320	0.015939295
182	0xbc81e838	-0.0158578
183	0xbc201730	-0.009771153
184	0x3da68f52	0.08132805
185	0xbd72662a	-0.059179462
186	0x3d5b4f9a	0.05354271
187	0x3d17f5f6	0.0370998
188	0xbd537e55	-0.05163415
189	0xbdcd19f4	-0.10014716
190	0xbced1bda	-0.028943945
191	0xbda9f156	-0.08297984
192	0xbce6983c	-0.028148763
193	0xbe2aabd9	-0.16667117
194	0xbd94742f	-0.07248723
195	0x3d37d969	0.044885073
196	0x3dd7a3e1	0.10529304
197	0xbdb72446	-0.089424655
198	0x3c64548d	0.013936174
199	0x3b1e9ee8	0.0024203602
200	0xbd184e67	-0.037184145
201	0xbdb9c0b7	-0.090699606
202	0xbbfcbec5	-0.007713171
203	0x3aeda4d7	0.0018130791
204	0xbd9cb721	-0.076521166
205	0x3d02ba71	0.031916086
206	0xbe1e8ca6	-0.1548334
207	0xbd720c44	-0.05909373
208	0x3cd3d96a	0.025860507
209	0xbc86f7b0	-0.016475528
210	0x3b9474a7	0.0045305076
211	0xbd077547	-0.03307083
212	0xbda628b6	-0.08113234
213	0xbcc93268	-0.024560168
214	0x3d4c69eb	0.0499057
215	0x3cb6d55f	0.02231854
216	0x3c5c6b9e	0.013453392
217	0xbdd5413b	-0.10412832
218	0xbdd0dcd2	-0.10198368
219	0x3c2a9be9	0.010413148
220	0xbb837f4e	-0.0040129786
221	0x3ccdc2fc	0.02511739
222	0xbae0ce68	-0.0017151358
223	0x3aa21558	0.001236598
224	0xbdf87ff4	-0.1213378
225	0x3dc4aded	0.09603486
226	0x3d8a225e	0.06744836
227	0xbd5fa7e8	-0.054603487
228	0xbd078368	-0.033084303
229	0xbd986907	-0.074419074
230	0xbd27e6e7	-0.04099169
231	0xba92f2d2	-0.0011211282
232	0xbd9a04da	-0.075204566
233	0xbcea39ab	-0.028591951
234	0xba8b60a0	-0.0010633655
235	0x3d017d98	0.031613916
236	0xbd31aa18	-0.043375105
237	0xbc2dfbeb	-0.010619144
238	0xbdb7e5f4	-0.08979407
239	0xbb386ec2	-0.0028142189
240	0xbd7cf591	-0.061757628
241	0x3dd0e5b1	0.1020006
242	0x3d52b23c	0.05143951
243	0x3dc8476c	0.09779248
244	0xbd0d906c	-0.03456156
245	0xbcfa4ce7	-0.030554248
246	0x3d7a8299	0.061159704
247	0xbdbd5a73	-0.092457674
248	0xbd436cde	-0.047711246
249	0x3d0d12d1	0.034441773
250	0x3dc43e2b	0.0958217
251	0xbe451eda	-0.1925005
252	0x3df3b401	0.118995674
253	0x3d2bc8d8	0.041939586
254	0xbd7d8743	-0.061896574
255	0x3d8aa52c	0.06769785

linear2.bias f4 [3]
0	0xbd77a71c	-0.060462102
1	0xbd595272	-0.05305714
2	0xbdec350f	-0.115335576
