model_hybrid/checkpoint_20251029_200750_score11.pth (torch, 21291 bytes, 4 tensors)

linear1.weight f4 [256, 14]
-0.027655542 -0.33071008 0.49807262 0.03984679 -0.004857188 0.28840026 -0.4015338 -0.182711
0.3704869 -0.0038688083 -0.010303494 0.11150875 0.12572524 -0.0019518874 0.16379865 0.6379952
-0.44120178 -0.029602213 -0.004417785 -0.13435055 -0.075151496 -0.0018981108 0.15556245 0.054100666
-0.14539658 -0.021945534 0.07915344 -0.045017403 -0.05100677 0.36071482 -0.27990654 0.45029253
-0.2176778 -0.27825055 0.3854518 -0.12326459 0.09259588 -0.44827864 0.2905452 0.18523593
0.017889611 -0.11479743 0.015416092 0.4290638 -0.045233354 -0.27762 0.38709116 -0.23162733
-0.13811773 0.06799075 0.3359849 -0.13804899 -0.3658765 -0.16516772 6.663588e-05 0.065861985
0.24477099 0.45904747 -0.18820113 0.07710786 -0.17998563 -0.11895132 0.15726058 -0.20993029
0.019472908 -0.012222752 0.08947302 -0.036951862 0.07102426 -0.35255468 -0.2845481 0.13090988
0.10263435 -0.047589514 -0.17226395 -0.2802525 -0.020460842 -0.27011883 0.024420923 -0.13583606
-0.003937951 0.062327467 0.051825944 -0.4084921 0.045077264 -0.13921972 -0.119995534 -0.19001761
0.39994457 -0.21013258 0.46745774 -0.43759552 0.010292539 -0.5761187 0.13037798 0.2378573
-0.40682548 0.15337874 0.37273896 -0.4667478 0.06630023 -0.11206874 0.0110978065 0.32520443
-0.40865073 0.07418314 0.11663676 -0.051475767 0.37977868 0.13764451 -0.23785916 -0.074563295
0.034975678 -0.25590488 0.26878873 -0.4163471 0.3415207 0.34345406 -0.103656046 0.48633093
-0.3621879 -0.31106356 0.29229626 -0.2095248 0.17649835 -0.061180636 -0.1231819 -0.23432325
0.65860164 0.3695181 0.0069085453 0.3636198 -0.43072653 -0.2073077 0.3760646 -0.040011164
-0.32274053 -0.092783 0.06945369 0.22042969 0.16412477 -0.09967253 -0.091020316 0.058084086
-0.051824156 0.41593316 -0.5412443 -0.09745915 -0.063875474 -0.38371027 0.51003516 -0.05345853
-0.07624574 -0.09655953 0.43454033 0.21057613 0.08944219 0.05682275 -0.032603156 -0.10206474
-0.06650708 0.068911664 0.18838261 0.28947258 0.3675564 -0.043690864 0.1223559 -0.1457308
0.28531605 0.40674502 0.19771895 -0.2076535 0.039595783 -0.026838833 0.023492368 0.18958318
-0.087883554 -0.025306882 0.21541521 0.025411526 0.06148703 -0.27774465 -0.24892023 -0.3131139
0.66688806 -0.051794432 0.0533517 0.27367836 0.14540197 0.17417312 0.21450768 -0.05162413
0.2601189 -0.21966225 0.10515286 0.10128842 0.47356036 -0.0075197946 0.1435151 -0.21786527
0.5227365 -0.14118798 -0.019670112 0.2509784 -0.42106566 0.10730267 0.029909788 0.13644561
0.057310235 0.09948201 -0.5162093 0.6949542 0.2838017 0.026251577 0.043598406 -0.007009412
-0.043825716 -0.0011663379 0.046170652 0.18740039 -0.26308072 0.06837869 -0.107306644 -0.08989024
-0.17357959 -0.07502771 0.19773038 -0.2208006 -0.25832736 0.23856892 0.3405145 0.20533992
0.29627362 -0.32907814 -0.29917276 -0.15223122 0.14401774 0.108132966 0.18649773 0.62252355
0.032596275 -0.13052966 0.020649336 0.0044047767 -0.124820866 0.28793678 0.21154286 0.20033252
0.34935847 -0.14280467 0.07529217 0.018007088 -0.09644467 -0.44924536 0.6536763 0.09388008
00000000: e08d e2bc d552 a9be 6003 ff3e 6336 233d
00000010: 0c29 9fbb 33a9 933e d795 cdbe 9818 3bbe
00000020: 75b0 bd3e d58b 7dbb fccf 28bc b35e e43d
00000030: 1ebe 003e 79d6 ffba d5ba 273e a753 233f
00000040: 33e5 e1be 5780 f2bc 11c3 90bb 3193 09be
00000050: 07e9 99bd 08ca f8ba c34b 1f3e a998 5d3d
00000060: d7e2 14be 1fc7 b3bc 331b a23d 2b64 38bd
00000070: 7aec 50bd 9daf b83e e94f 8fbe be8c e63e
00000080: eee6 5ebe db76 8ebe f059 c53e 2572 fcbd
00000090: e9a2 bd3d c784 e5be 57c2 943e 7dae 3d3e
000000a0: 3c8d 923c ea1a ebbd c793 7c3c 40ae db3e
000000b0: 9c46 39bd 3524 8ebe d030 c63e b72f 6dbe
000000c0: bc6e 0dbe bc3e 8b3d 3606 ac3e b75c 0dbe
000000d0: 2a54 bbbe ba21 29be debe 8b38 a6e2 863d
000000e0: 3fa5 7a3e 4508 eb3e ccb7 40be baea 9d3d
000000f0: 274e 38be c09c f3bd eb08 213e f7f7 56be
00000100: a685 9f3c f041 48bc a13d b73d d65a 17bd
00000110: 2b75 913d 0c82 b4be 4ab0 91be 3d0d 063e
00000120: f531 d23d 39ed 42bd f665 30be 417d 8fbe
00000130: 7f9d a7bc 044d 8abe 630e c83c 9c18 0bbe
00000140: ed09 81bb 164b 7f3d 7147 543d e025 d1be
00000150: f0a2 383d 9d8f 0ebe 38c0 f5bd fa93 42be
00000160: 89c5 cc3e ff2c 57be 9f56 ef3e 850c e0be
00000170: 0aa2 283c 847c 13bf ce81 053e dd90 733e
00000180: 6e4b d0be 510f 1d3e a4d7 be3e 91f9 eebe
00000190: 6ac8 873d 4c84 e5bd 93d3 353c 3281 a63e
000001a0: ab3a d1be 55ed 973d 41df ee3d 41d8 52bd
000001b0: 5a72 c23e aff2 0c3e 5a91 73be a4b4 98bd
000001c0: a842 0f3d f705 83be ad9e 893e 722b d5be
000001d0: cddb ae3e 36d9 af3e 9f49 d4bd 5e00 f93e
000001e0: b170 b9be b943 9fbe dba7 953e ab8d 56be
000001f0: fcbb 343e 8c98 7abd cb46 fcbd 6ff2 6fbe
00000200: 1e9a 283f 7a31 bd3e 1461 e23b 602c ba3e
00000210: 3088 dcbe 7848 54be 8a8b c03e bfe2 23bd
00000220: 3f3e a5be 0305 bebd bc3d 8e3d 52b8 613e
00000230: 5310 283e 1d21 ccbd dc68 babd 94e9 6d3d
00000240: 9145 54bd 31f5 d43e fd8e 0abf aa98 c7bd
00000250: 25d1 82bd ac75 c4be aa91 023f 55f7 5abd
00000260: ba26 9cbd 01c1 c5bd 127c de3e 45a1 573e
00000270: 782d b73d f9be 683d e38a 05bd 5207 d1bd
00000280: dd34 88bd 8f21 8d3d 5fe7 403e c035 943e
00000290: 5a30 bc3e 31f5 32bd bb95 fa3d 743a 15be
000002a0: f214 923e e240 d03e d676 4a3e 1ea3 54be
000002b0: 302f 223d 1ddd dbbc 1173 c03c 1822 423e
000002c0: 4bfc b3bd 6150 cfbc ce95 5c3e d52b d03c
000002d0: d3d9 7b3d 8c34 8ebe f2e4 7ebe 7750 a0be
000002e0: 2db9 2a3f 6626 54bd 5087 5a3d 921f 8c3e
000002f0: 41e4 143e 705a 323e e7a7 5b3e d373 53bd
00000300: 4e2e 853e 24ef 60be 625a d73d 4e70 cf3d
00000310: 8176 f23e 9c68 f6bb 9ff5 123e 1318 5fbe
00000320: 0fd2 053f 9593 10be 3723 a1bc 3e80 803e
00000330: eb95 d7be 81c1 db3d 5f05 f53c 66b8 0b3e
00000340: 23be 6a3d 39bd cb3d 4b26 04bf 85e8 313f
00000350: 754e 913e 8c0d d73c 3e94 323d 36af e5bb
00000360: 9882 33bd cedf 98ba 701d 3d3d e3e5 3f3e
00000370: 84b2 86be 200a 8c3d 96c3 dbbd 6018 b8bd
00000380: d9be 31be 21a8 99bd d579 4a3e 8d19 62be
00000390: 7c43 84be 694b 743e eb57 ae3e a144 523e
000003a0: 2db1 973e ee7c a8be 2c2d 99be 80e2 1bbe
000003b0: 6379 133e d174 dd3d 43f9 3e3e b45d 1f3f
000003c0: ac83 053d 91a9 05be cc28 a93c f255 903b
000003d0: 15a2 ffbd 736c 933e b19e 583e f823 4d3e
000003e0: 1ddf b23e 633b 12be c832 9a3d 9a83 933c
000003f0: c884 c5bd 7d03 e6be 5457 273f 3344 c03d

linear1.bias f4 [256]
-0.23304188 0.06888437 -0.011710287 -0.11942865 0.16611494 -0.005889322 0.27056116 -0.09932931
-0.03074903 -0.09027477 0.18810213 -0.14296834 -0.00077784364 -0.31409815 -0.27430144 -0.041433927
-0.05606601 -0.06278667 -0.0106424205 -0.112290405 -0.08295036 0.08346606 -0.37581703 -0.08314038
-0.030729512 -0.05490504 -0.030079644 -0.016838726 -0.1893275 -0.05125956 -0.11041327 -0.11820362
0.107842766 -0.17098632 -0.072967686 -0.1608339 0.0070470227 0.009611185 -0.2956759 0.07813584
-0.12670644 0.082743846 0.21465191 -0.009031396 -0.25818664 0.13865587 0.08960269 0.34640396
-0.27901644 0.28852937 0.017740235 -0.048093855 -0.29170203 -0.23304997 0.23518065 -0.042767845
0.06830288 -0.24255992 0.12295552 0.13036208 -0.12912624 -0.04683374 -0.19358611 -0.32657033
-0.13922313 -0.06863046 -0.10707186 -0.10429279 -0.119629115 0.5402402 -0.039077375 -0.08124563
-0.2296094 -0.053731326 -0.15926063 -0.21147782 0.12810805 0.113331236 0.056412008 -0.03339398
0.045401964 0.11472928 0.014148798 -0.18764438 0.087216035 -0.19816655 -0.25914726 0.09443924
0.13172568 -0.0982227 -0.012850134 -0.15761462 -0.23945242 0.37082335 0.033403132 -0.14520091
-0.07464484 0.05827567 -0.21145377 0.18514948 0.06035526 0.09024475 0.03866818 -0.18596962
-0.04454963 -0.12118988 -0.19137155 0.23406406 -0.19778521 -0.33390284 -0.104112186 0.121309906
0.20017757 0.17993507 0.013564997 -0.12369485 0.31456888 0.22021589 0.16843688 0.061292104
-0.0840873 0.056332257 0.16648647 -0.19643019 -0.2110044 -0.1974684 0.079923496 -0.10659897
-0.017906642 0.18648976 0.3959121 -0.09080807 -0.22384256 0.0892602 -0.06442675 -0.16643985
0.15477644 -0.0995845 0.054398887 -0.21333449 -0.20145331 -0.2516398 -0.2331479 0.03892744
0.08427026 0.2446147 -0.063789956 -0.046064373 -0.061308533 -0.075098924 0.0035137737 -0.10492661
0.04399347 -0.0645787 0.13835067 -0.046664536 0.0026229278 0.2200011 0.008758708 0.05993947
0.05864527 -0.13201535 -0.017780116 0.2568649 0.023520542 -0.05211705 0.09805079 0.086767696
0.09692351 0.030612996 0.16791527 0.13668616 -0.13326016 -0.12174485 -0.027222162 -0.050242245
-0.10215919 -0.14930731 -0.18389058 -0.3317099 0.098947525 -0.2866768 0.016440155 0.0012130903
0.032248948 -0.18470186 -0.03421034 -0.04741372 0.18775152 0.21696393 0.13152362 0.071730815
-0.23499449 -0.07674265 -0.16029409 -0.07677906 0.2973186 -0.2045309 0.020991096 -0.0039780485
0.19033389 -0.13337442 -0.08784129 0.09853626 -0.071666196 0.27602053 0.1816097 -0.03375108
-0.26464525 -0.024100397 0.014188223 -0.15570262 0.041088063 -0.21946532 0.15825935 -0.18954073
0.17666471 0.38809 -0.050701335 -0.015884243 0.12891276 0.03304145 0.0075767925 -0.12541844
-0.13130361 -0.13873516 -0.24681458 0.12973657 0.18634957 0.12104678 0.06714222 0.15004233
-0.050058775 -0.06432338 0.13238296 0.017124794 -0.25598294 0.22750537 0.3516251 0.05852622
0.11324162 0.11864259 -0.13129903 -0.010309175 -0.05442485 0.16953841 -0.13613448 0.1213381
-0.0782333 -0.011024203 -0.07880214 -0.0770714 -0.18826213 0.07174359 0.1007055 -0.07416808
00000000: 88a2 6ebe 4013 8d3d 81dc 3fbc 0297 f4bd
00000010: 091a 2a3e 37fb c0bb fe86 8a3e 2a6d cbbd
00000020: 64e5 fbbc fbe1 b8bd d89d 403e 4b66 12be
00000030: 34e8 4bba 79d1 a0be 3d71 8cbe 9fb6 29bd
00000040: 79a5 65bd 4c96 80bd 8c5d 2ebc 83f8 e5bd
00000050: e1e1 a9bd 41f0 aa3d 176b c0be 8145 aabd
00000060: 75bc fbbc 1be4 60bd 9669 f6bc 5ef1 89bc
00000070: 11df 41be 8bf5 51bd 5a20 e2bd bd14 f2bd
00000080: abdc dc3d 0a17 2fbe 1570 95bd a4b1 24be
00000090: b6ea e63b 3b78 1d3c d562 97be af05 a03d
000000a0: 55bf 01be 9b75 a93d b6cd 5b3e 6cf8 13bc
000000b0: 0a31 84be cefb 0d3e 9d81 b73d dc5b b13e
000000c0: 3edb 8ebe 1fba 933e f853 913c 10fe 44bd
000000d0: f859 95be a7a4 6ebe 32d3 703e 562d 2fbd
000000e0: 61e2 8b3d a161 78be 1bd0 fb3d a37d 053e
000000f0: ab39 04be bcd4 3fbd 703b 46be 3a34 a7be
00000100: 8290 0ebe 208e 8cbd 7e48 dbbd 7597 d5bd
00000110: 1c00 f5bd 2f4d 0a3f 990f 20bd 1c64 a6bd
00000120: ba1e 6bbe 6115 5cbd 3815 23be a48d 58be
00000130: c22e 033e 351a e83d 4710 673d 20c8 08bd
00000140: 69f7 393d 2ff7 ea3d 5cd0 673c d925 40be
00000150: 529e b23d 2cec 4abe f3ae 84be 5c69 c13d
00000160: 19e3 063e fc28 c9bd 5e89 52bc ba65 21be
00000170: 0433 75be 8fdc bd3e b9d1 083d 8caf 14be
00000180: 65df 98bd 78b2 6e3d 5687 58be d397 3d3e
00000190: 1437 773d 3dd2 b83d 8762 1e3d d26e 3ebe
000001a0: ac79 36bd 6632 f8bd e7f6 43be 7dae 6f3e
000001b0: 3588 4abe 50f5 aabe c538 d5bd 5471 f83d
000001c0: 59fb 4c3e e640 383e b93f 5e3c ba53 fdbd
000001d0: 2c0f a13e 4680 613e b87a 2c3e 6e0d 7b3d
000001e0: f635 acbd a7bc 663d 6e7b 2a3e ff24 49be
000001f0: 8a11 58be 2835 4abe eeae a33d 9050 dabd
00000200: f3b0 92bc 2cf7 3e3e feb4 ca3e 95f9 b9bd
00000210: fc36 65be 0dce b63d 2cf2 83bd 356f 2abe
00000220: b77d 1e3e f5f2 cbbd 5ed1 5e3d 5b74 5abe
00000230: c749 4ebe efd6 80be 53be 6ebe 6172 1f3d
00000240: e395 ac3d 477c 7a3e 4fa4 82bd ffad 3cbd
00000250: a81e 7bbd 77cd 99bd 5747 663b c3e3 d6bd
00000260: 7f32 343d d641 84bd ccab 0d3e 5023 3fbd
00000270: 6de5 2b3b f847 613e af80 0f3c 1783 753d
00000280: 0636 703d 082f 07be 9ba7 91bc cc83 833e
00000290: 27ae c03c b078 55bd dace c83d 43b3 b13d
000002a0: d57f c63d 1bc8 fa3c fbf1 2b3e 75f7 0b3e
000002b0: 5a75 08be 5d55 f9bd 0301 dfbc d0ca 4dbd
000002c0: d638 d1bd 04e4 18be d04d 3cbe e1d5 a9be
000002d0: 00a5 ca3d 4dc7 92be 81ad 863c 8e00 9f3a
000002e0: 7917 043d 7c22 3dbe 2420 0cbd e434 42bd
000002f0: ef41 403e cb2b 5e3e 21ae 063e 9be7 923d
00000300: 65a2 70be 402b 9dbd 2224 24be 573e 9dbd
00000310: 253a 983e 8c70 51be 85f5 ab3c 4a5a 82bb
00000320: e3e6 423e 4e93 08be 22e6 b3bd 61cd c93d
00000330: bac5 92bd 9052 8d3e e5f7 393e 933e 0abd
00000340: 957f 87be 326e c5bc b875 683c 8270 1fbe
00000350: f54b 283d 84bb 60be bd0e 223e f716 42be
00000360: 98e7 343e bcb3 c63e 34ac 4fbd ac1f 82bc
00000370: b501 043e 7956 073d be46 f83b b16d 00be
00000380: 7474 06be 9710 0ebe f6bc 7cbe aad9 043e
00000390: 6cd2 3e3e 60e7 f73d dc81 893d b2a4 193e
000003a0: 6e0a 4dbd fabb 83bd 668f 073e 4c49 8c3c
000003b0: 3210 83be 2bf7 683e 3508 b43e 31b9 6f3d
000003c0: 39eb e73d e3fa f23d 4173 06be d0e7 28bc
000003d0: 97ec 5ebd 7a9b 2d3e d666 0bbe 1c80 f83d
000003e0: c838 a0bd dc9e 34bc 0463 a1bd 9cd7 9dbd
000003f0: cac7 40be 4eee 923d af3e ce3d 6fe5 97bd

linear2.weight f4 [3, 256]
0.10354091 -0.032722235 0.22545014 0.1693961 -0.13914683 -0.027439134 0.35830474 -0.21483555
-0.46269757 0.14159308 -0.47516194 -0.21765159 -0.14942928 -0.06440723 -0.6302024 0.07971291
-0.40264818 -0.24768035 0.06493046 0.25800705 0.23036806 0.31347647 0.071464464 0.0327784
-0.07516317 0.2740257 0.08301814 0.30661118 -0.47390643 0.3255549 0.029489122 0.31583002
0.4530805 -0.07884891 0.1392933 -0.21335034 0.024516415 -0.50486034 0.025868693 -0.34485996
-0.30366743 0.25431204 0.13805583 -0.24254811 -0.004007588 0.19098891 -0.10189347 0.28163067
-0.013546073 0.26969787 0.1417468 0.2267985 0.030624652 0.080883324 0.15957674 0.36226442
-0.09829561 -0.029438967 0.07756564 0.09290956 0.3426765 -0.017377034 0.06583892 0.015209496
0.04471253 0.1464843 -0.027682636 0.07223072 -0.03651302 0.24820596 -0.21924768 -0.013393469
0.13522293 -0.124393515 -0.05967949 0.049568318 0.20465064 -0.13733575 -0.084939525 -0.12760861
0.5918961 0.19061655 -0.008941215 0.018173002 -0.15621948 0.0131401345 -0.33586785 0.3000885
-0.13953422 -0.28065413 0.28206438 -0.04952254 0.06699887 0.19795349 -0.08488027 -0.21969555
0.278075 -0.096339114 -0.15692148 0.1694693 -0.10896856 -0.60767615 0.00434785 -0.055185515
-0.21892038 -0.5104015 -0.30623904 0.010886554 -0.051296666 -0.3128569 -0.11489036 0.3172243
-0.09580216 0.26893255 0.060153183 -0.08671113 0.25136164 0.16549669 -0.13491642 -0.03891726
0.059496813 -0.18566231 0.13882433 -0.18035866 -0.036647916 -0.3779547 0.13107109 -0.11007114
0.021203358 0.066498116 0.19751658 0.3798244 -0.6305178 -0.30581486 0.20277055 0.3891457
0.03236841 0.0015606389 -0.35959283 -0.03015392 -0.08328802 -0.13041745 -0.5475316 0.18289362
0.055730883 0.24875839 0.15489507 -0.33666575 0.0195462 0.3180595 0.002466443 -0.25875062
0.17577352 -0.23133135 -0.35035568 -0.107257165 -0.1806242 0.1262423 0.27465013 0.26291373
-0.6986411 -0.003514789 -0.32907218 0.063117884 0.2092944 0.29558513 0.13843094 0.044961963
-0.12182613 -0.41795394 0.26909432 0.060424704 0.011693635 0.40640908 0.17046478 -0.34343833
-0.0688292 0.2513336 -0.0271416 -0.09859398 -0.19283643 -0.11389855 -0.46821803 -0.13566418
0.3070213 -0.43922123 0.05354271 0.05920058 0.10197101 0.14123997 0.12179179 -0.35171336
-0.028148763 -0.4109463 -0.66933775 0.3255016 0.1568332 -0.09968437 0.024776418 -0.16837886
-0.09335511 -0.12660965 -0.16809328 0.20973283 -0.45669645 0.2968548 -0.24175668 -0.2729272
-0.008428338 -0.14522617 0.003772862 -0.39265847 -0.16158918 -0.024560168 0.4259301 0.022632377
0.08397531 0.13393363 0.017152956 -0.031268984 0.24251507 0.033823226 -0.25171402 -0.26077232
-0.4869826 0.2106572 0.060605466 -0.15129168 0.25270078 0.06167445 0.24542546 -0.3358531
-0.48148978 -0.0048216004 -0.029354323 -0.06328101 -0.043375105 -0.19985206 0.086328276 0.06979214
0.2135685 0.2398714 0.05143951 0.36851105 -0.2281296 -0.07452882 -0.061137564 -0.076542735
0.20370144 -0.20581515 0.3489166 -0.54987806 0.02466873 0.2829182 -0.19101454 0.40360957
00000000: 420d d43d c007 06bd 67dc 663e 2c76 2d3e
00000010: 827c 0ebe 09c8 e0bc b873 b73e dafd 5bbe
00000020: b2e6 ecbe c7fd 103e 6d48 f3be 0fe0 5ebe
00000030: fd03 19be f0e7 83bd f254 21bf 8640 a33d
00000040: e727 cebe eb9f 7dbe 43fa 843d 8019 843e
00000050: 9be5 6b3e fd7f a03e f65b 923d a542 063d
00000060: 26ef 99bd 194d 8c3e 6a05 aa3d 24fc 9c3e
00000070: dda3 f2be 22af a63e 2c93 f13c 79b4 a13e
00000080: 2bfa e73e 8a7b a1bd e7a2 0e3e 8378 5abe
00000090: a6d6 c83c 873e 01bf 95ea d33c 7c91 b0be
000000a0: 4c7a 9bbe 3035 823e 825e 0d3e 885e 78be
000000b0: 1652 83bb 9992 433e 86ad d0bd e531 903e
000000c0: 59f0 5dbc d715 8a3e 1326 113e de3d 683e
000000d0: 8de0 fa3c 28a6 a53d 1668 233e b97a b93e
000000e0: 354f c9bd fd29 f1bc bcda 9e3d 5e47 be3d
000000f0: 4b73 af3e 485a 8ebc 8ed6 863d 4031 793c
00000100: 7c24 373d fbff 153e b2c6 e2bc b3ed 933d
00000110: ad8e 15bd b429 7e3e 7782 60be 4870 5bbc
00000120: e177 0a3e 07c2 febd 7b72 74bd 2608 4b3d
00000130: f08f 513e bea1 0cbe c6f4 adbd d5ab 02be
00000140: 8186 173f fc30 433e 2d7e 12bc 8cdf 943c
00000150: 00f8 1fbe b849 573c dff6 abbe 33a5 993e
00000160: 0fe2 0ebe e6b1 8fbe be6a 903e 26d8 4abd
00000170: b436 893d 52b4 4a3e b5d5 adbd dff7 60be
00000180: d95f 8e3e 714d c5bd 06b0 20be 5c89 2d3e
00000190: e92a dfbd aa90 1bbf 6978 8e3b 350a 62bd
000001a0: aa2c 60be aca9 02bf 5dcb 9cbe 845d 323c
000001b0: 741c 52bd c82e a0be a34b ebbd 396b a23e
000001c0: ec33 c4bd 87b1 893e 2f63 763d 9b95 b1bd
000001d0: 79b2 803e f777 293e 8827 0abe b467 1fbd
000001e0: eeb2 733d 431e 3ebe f727 0e3e f1af 38be
000001f0: 201c 16bd 4783 c1be 8037 063e fa6c e1bd
00000200: aab2 ad3c 2a30 883d c941 4a3e 5878 c23e
00000210: 9d69 21bf c493 9cbe 15a3 4f3e 1b3e c73e
00000220: bd94 043d 5a8e cc3a 8d1c b8be 5b05 f7bc
00000230: e992 aabd 278c 05be 082b 0cbf 7748 3b3e
00000240: 1146 643d 85ba 7e3e d09c 1e3e 745f acbe
00000250: 5a1f a03c b2d8 a23e 0ca4 213b f67a 84be
00000260: f9fd 333e 20e2 6cbe d261 b3be a5a9 dbbd
00000270: 8df5 38be a945 013e f19e 8c3e a19c 863e
00000280: 25da 32bf 6058 66bb 267c a8be f343 813d
00000290: 4551 563e ef56 973e d7c0 0d3e 092a 383d
000002a0: fa7f f9bd 0ffe d5be bbc6 893e e57f 773d
000002b0: a996 3f3c da14 d03e 528e 2e3e 26d7 afbe
000002c0: 53f6 8cbd ccae 803e 1058 debc a4eb c9bd
000002d0: ea76 45be a543 e9bd 46ba efbe 8deb 0abe
000002e0: e531 9d3e 9be1 e0be 9a4f 5b3d 4f7c 723d
000002f0: 2dd6 d03d 36a1 103e f96d f93d c613 b4be
00000300: 3c98 e6bc 8e67 d2be b859 2bbf 25a8 a63e
00000310: e298 203e 5227 ccbd eaf7 ca3c 826b 2cbe
00000320: f730 bfbd f6a5 01be a520 2cbe 34c4 563e
00000330: 1ed4 e9be 5afd 973e 108f 77be 1dbd 8bbe
00000340: 0317 0abc 2bb6 14be 1f42 773b 880a c9be
00000350: a277 25be 6832 c9bc 8313 da3e 8967 b93c
00000360: 3ffb ab3d e625 093e 5b84 8c3c e813 00bd
00000370: df55 783e 398a 0a3d a9e0 80be f383 85be
00000380: c955 f9be 85b6 573e 703d 783d 35ec 1abe
00000390: ff61 813e 599e 7c3d d050 7b3e f0f4 abbe
000003a0: d485 f6be 84fe 9dbb 7a78 f0bc 7999 81bd
000003b0: 18aa 31bd 05a6 4cbe e1cc b03d 2eef 8e3d
000003c0: b3b1 5a3e d9a0 753e 3cb2 523d 7bad bc3e
000003d0: ce9a 69be 91a2 98bd 626b 7abd 70c2 9cbd
000003e0: 1c97 503e 35c1 52be 32a5 b23e cfc4 0cbf
000003f0: 1416 ca3c a8da 903e 5199 43be eaa5 ce3e

linear2.bias f4 [3]
0.17851529 0.0479658 -0.02035975
00000000: b6cc 363e c977 443d 7ec9 a6bc
