model_hybrid/checkpoint_20251029_195903_score11.pth (torch, 21291 bytes, 4 tensors)

linear1.weight f4 [256, 14]
0	0x3d1954a0	0.03743422
1	0xbe809a94	-0.25117934
2	0x3ed3af3a	0.41344625
3	0x3d4433b5	0.047900874
4	0x3d149e87	0.036283996
5	0x3e80c3ab	0.25149283
6	0xbebc2485	-0.36746612
7	0xbdb6b37b	-0.08920952
8	0x3eb74e2e	0.35801834
9	0x3d5c32f6	0.053759538
10	0xbc4bb4e3	-0.0124332635
11	0x3de91e9c	0.113827914
12	0x3e04a4da	0.12953511
13	0x3cae6871	0.021290036
14	0x3e84c35e	0.25930303
15	0x3ef6c549	0.48197392
16	0xbe9d96b7	-0.3077905
17	0x3d29b8e4	0.04143609
18	0x3daa0d04	0.08303264
19	0xbdd048d5	-0.101701416
20	0xbdc8f164	-0.098116666
21	0x3d8d6e5e	0.069058165
22	0x3e029730	0.12752986
23	0x3dbd45c2	0.09241821
24	0xbe249197	-0.16071163
25	0x3daa9991	0.08330072
26	0x3e5ab026	0.21356258
27	0x3d82ec5c	0.06392738
28	0xbd542c45	-0.05180003
29	0x3e8f82d5	0.28029504
30	0xbe600c16	-0.2187961
31	0x3ee5bbd7	0.44869873
32	0xbe5b91d8	-0.21442354
33	0xbe6fac8d	-0.23405667
34	0x3eaa51fc	0.33265674
35	0xbe116c88	-0.14201558
36	0xbc7ca63f	-0.0154204955
37	0xbec8a835	-0.39190832
38	0x3e64044c	0.22267264
39	0x3e252e51	0.1613095
40	0x3e019061	0.12652732
41	0xbddc2e27	-0.1075099
42	0x3dec5eb5	0.115415014
43	0x3ecf10f7	0.4044263
44	0x3d21c0b8	0.03949043
45	0xbe907bde	-0.28219503
46	0x3ebd4d67	0.36973116
47	0xbdf0fb3f	-0.117666714
48	0xbdf5463e	-0.11976288
49	0x3e09c7e2	0.13455155
50	0x3e962da4	0.29331696
51	0xbc9726b5	-0.018451074
52	0xbe94394a	-0.28949958
53	0xbe08d56b	-0.13362662
54	0x3d541b81	0.051784042
55	0x3e41c4c3	0.18922715
56	0x3e4291f6	0.19000992
57	0x3e96152e	0.29313034
58	0xbdf43d09	-0.11925704
59	0x3d3f37fd	0.046684254
60	0xbe255c23	-0.16148429
61	0xbe21c526	-0.15797862
62	0x3e8c40ce	0.27393192
63	0xbe789c34	-0.24278337
64	0xbcd65a97	-0.026166243
65	0x3d33119a	0.043717958
66	0x3d9a4c59	0.075340934
67	0x3cbe23b8	0.023210391
68	0x3deec0a1	0.11657835
69	0xbe7a3716	-0.24435076
70	0xbe8f728d	-0.28017083
71	0x3de9a622	0.114086404
72	0x3e1f2849	0.15542711
73	0xbabf2b09	-0.0014584969
74	0xbdcef6b3	-0.10105648
75	0xbea287b6	-0.31744164
76	0x3d279736	0.04091569
77	0xbe42c958	-0.19022119
78	0x3d2db43c	0.042408213
79	0xbdf53ec7	-0.119748645
80	0x3d0a8e3b	0.033827048
81	0x3e0cb53f	0.13741015
82	0x3e38ea60	0.18058157
83	0xbea4e877	-0.32208607
84	0x3e0044ff	0.1252632
85	0x3c4ece71	0.012622462
86	0xbcaf4dbe	-0.021399375
87	0xbcb3360c	-0.021876357
88	0x3ea0d0d8	0.31409335
89	0xbe07b7af	-0.13253663
90	0x3e5928cd	0.2120697
91	0xbead43bd	-0.33840743
92	0x3ba54f86	0.0050448803
93	0xbeaa8a2f	-0.3330855
94	0x3de0c15a	0.10974379
95	0x3dd21f71	0.10259903
96	0xbe887a81	-0.26655963
97	0x3d6145a4	0.054998055
98	0x3e4d04e6	0.200214
99	0xbebf1627	-0.37321588
100	0xbcd4472c	-0.025912844
101	0xbddfb63a	-0.10923429
102	0x3d486422	0.04892362
103	0x3e7d0f40	0.24712849
104	0xbe8f9709	-0.28044918
105	0x3d5beb79	0.05369136
106	0x3dfd58a6	0.12370424
107	0xbd210823	-0.0393144
108	0x3e9ed4c2	0.31021696
109	0x3e1f4837	0.15554892
110	0xbe760397	-0.24024807
111	0xbdf22da0	-0.118251085
112	0xbdfcd40a	-0.12345131
113	0xbe9ba24d	-0.30397263
114	0x3e3b94bc	0.18318456
115	0xbebfeecf	-0.37486884
116	0x3e968f6c	0.29406297
117	0x3e914b73	0.28377876
118	0xbdeb08e8	-0.11476308
119	0x3ed2646e	0.41092247
120	0xbe945187	-0.2896845
121	0xbe9194bd	-0.2843379
122	0x3e8be507	0.27323171
123	0xbe45eaeb	-0.19327895
124	0x3e228b26	0.15873393
125	0xbd6645f6	-0.056219064
126	0xbd8aab30	-0.06770933
127	0xbe2b61d9	-0.16736545
128	0x3f0c9b3c	0.5492437
129	0x3e9e5b3c	0.3092898
130	0x3c05e1e6	0.008171534
131	0x3ed0cae5	0.40779796
132	0xbec99054	-0.39367926
133	0xbe0132fa	-0.12617102
134	0x3ea46ef5	0.32115903
135	0xbc5a21bf	-0.01331371
136	0xbea247f1	-0.31695512
137	0xbdd2db92	-0.10295786
138	0x3d28db0f	0.041224536
139	0x3e987fd8	0.29785037
140	0x3da4dac2	0.08049537
141	0xbe58b7bf	-0.21163844
142	0xbe78de5d	-0.24303575
143	0xbcae5d30	-0.02128467
144	0x3c9ef75b	0.019405058
145	0x3eb766d5	0.35820642
146	0xbedd48d8	-0.43219638
147	0xbd2b256c	-0.041783735
148	0xbd3750b5	-0.044754703
149	0xbea0d79a	-0.3141449
150	0x3eb42788	0.3518641
151	0xbd88d158	-0.06680554
152	0xbdbcbec7	-0.092160754
153	0xbde1a346	-0.1101747
154	0x3ea12fff	0.3148193
155	0x3df78e99	0.12087745
156	0x3cdea06e	0.027176108
157	0x3de61cef	0.112359874
158	0xbcd3af5a	-0.02584045
159	0xbdda9e37	-0.10674708
160	0x3d15ff6b	0.03662054
161	0x3cbe0c1b	0.023199132
162	0x3dbc709d	0.09201167
163	0x3e7d2fd5	0.24725278
164	0x3e9f7eef	0.3115153
165	0x3d2965fd	0.04135703
166	0x3e4d1fc3	0.20031647
167	0xbe11c871	-0.14236619
168	0x3dd0d668	0.10197145
169	0x3e8bac9e	0.27280134
170	0x3e18f216	0.14936098
171	0xbd25af8c	-0.040450618
172	0xbca358e2	-0.019939844
173	0xbdc28678	-0.09498304
174	0x3c987066	0.018608283
175	0x3e85594e	0.26044697
176	0xbe375744	-0.17904383
177	0xbd4dce0b	-0.050245326
178	0x3e14d846	0.14535627
179	0x3d8cb54c	0.06870517
180	0x3dbf0500	0.093271255
181	0xbe761755	-0.24032338
182	0xbeb70130	-0.35743093
183	0xbe1bc4e1	-0.15211822
184	0x3f103934	0.56337285
185	0xbdada314	-0.0847837
186	0xbd1ae410	-0.037815154
187	0x3e8509b7	0.25983974
188	0x3e5faaf6	0.2184256
189	0x3e25f7c9	0.16207804
190	0x3dd37a78	0.103260934
191	0x3dc6a0df	0.096986525
192	0x3e587dbd	0.21141715
193	0xbe4ac74c	-0.19802588
194	0x3e265c6d	0.16246195
195	0x3e06b1e2	0.13153794
196	0x3ea66d46	0.32505244
197	0xbdbc01d9	-0.0918004
198	0x3d43ea97	0.047831144
199	0xbe29ea75	-0.16593345
200	0x3ed370db	0.4129704
201	0xbe175dc2	-0.1478186
202	0x3a26c968	0.00063624093
203	0x3e50afc9	0.20379557
204	0xbec4de35	-0.3845078
205	0x3b511a6c	0.0031906618
206	0x3d30b796	0.04314383
207	0x3e0939b8	0.13400924
208	0xbc584473	-0.013199913
209	0x3d55fcb0	0.052242935
210	0xbeb18803	-0.3467408
211	0x3f2019c9	0.62539345
212	0x3e9441ef	0.28956553
213	0x3dc96059	0.0983283
214	0x3d3b4960	0.045724273
215	0x3d394ff2	0.045242257
216	0xbcf4984b	-0.029857775
217	0x3b8c46f5	0.0042809197
218	0x3c0fa364	0.008766983
219	0x3e2bac60	0.16764975
220	0xbe45e05e	-0.1932387
221	0x3de37b61	0.11107517
222	0xbce8bef8	-0.028411373
223	0xbd6bab8f	-0.057536658
224	0xbe5f1637	-0.21785818
225	0xbda71515	-0.08158318
226	0x3e8b8577	0.27250263
227	0xbe1c70cd	-0.15277405
228	0xbe76759c	-0.24068302
229	0x3e5702ba	0.20997134
230	0x3e95042a	0.2910474
231	0x3e043a7b	0.12912934
232	0x3e0d4d07	0.13798915
233	0xbe7b4f6c	-0.24542016
234	0xbe855d6e	-0.26047844
235	0xbdf7e21d	-0.121036746
236	0x3df6ae96	0.120450184
237	0x3dbb0c97	0.09133261
238	0x3d410684	0.047125354
239	0x3ee5419c	0.44776618
240	0x3cfcac98	0.030844018
241	0xbda01f90	-0.0781852
242	0x3cfc6a10	0.030812293
243	0xbdc44553	-0.09583535
244	0xbda09dd6	-0.07842605
245	0x3e9cf7c3	0.30657777
246	0x3da41d73	0.080134295
247	0x3da364df	0.07978224
248	0x3e809b71	0.25118592
249	0xbdfb3931	-0.12266768
250	0x3d435c01	0.047695164
251	0xbd477880	-0.048698902
252	0xbd1ff5f5	-0.039052922
253	0xbe9dfa2e	-0.30854934
254	0x3f0d6ba0	0.5524235
255	0x3dd21497	0.102578335

linear1.bias f4 [256]
0	0xbe6c428a	-0.23072258
1	0x3e324f47	0.17413054
2	0xbd11f80c	-0.035636947
3	0xbdb3fe69	-0.08788759
4	0x3e67b542	0.22627738
5	0x3d8db552	0.0691935
6	0x3e0a8cdf	0.135303
7	0xbda6c1c2	-0.08142425
8	0xbc6d9a78	-0.01450216
9	0xbdcdb88a	-0.10044964
10	0x3e32f2ce	0.17475435
11	0xbd6d3dc1	-0.05792022
12	0x3d2e2506	0.042515777
13	0xbe95bd81	-0.29246143
14	0xbe8db0b1	-0.27673867
15	0x3aa57c84	0.001262561
16	0xbccbbeec	-0.024871312
17	0xbd2eb12b	-0.04264943
18	0x3d5ccde5	0.053907294
19	0xbe1211c8	-0.14264596
20	0xbd97d183	-0.07413008
21	0x3dc0fae2	0.09422852
22	0xbea11c89	-0.31467083
23	0xbd529a1b	-0.051416498
24	0x3dac7bb1	0.0842203
25	0xbe0981d4	-0.13428432
26	0xbd4f1b5a	-0.050563194
27	0xbd93d984	-0.07219222
28	0xbe53284f	-0.20620845
29	0xbdfa45f4	-0.12220374
30	0xbde2205a	-0.11041327
31	0xbdf2b7d0	-0.11851466
32	0x3cab090a	0.020878334
33	0xbe1abbaf	-0.15110658
34	0xbd537407	-0.051624324
35	0xbe06af68	-0.1315285
36	0x3d6fd6c8	0.05855444
37	0x3d2520d0	0.040314496
38	0xbe8af7ac	-0.27142084
39	0x3dbdb5e7	0.09263211
40	0xbdcef0a3	-0.101044916
41	0x3d94c38d	0.07263861
42	0x3e368662	0.178247
43	0x3d18cd74	0.03730531
44	0xbe70549d	-0.23469777
45	0x3e23bc1d	0.15989728
46	0x3e18d8f7	0.14926516
47	0x3e8c848b	0.27444872
48	0xbe8edb3e	-0.27901644
49	0x3e57569a	0.2102913
50	0x3ce56af9	0.02800511
51	0xbd615b38	-0.055018634
52	0xbe9559f8	-0.29170203
53	0xbe7276d2	-0.23678139
54	0x3e3d99ec	0.18515748
55	0xbcd4a64f	-0.025958208
56	0x3d94305c	0.07235786
57	0xbe7861a1	-0.24255992
58	0x3d9d9f8f	0.07696449
59	0x3e4f00da	0.20215169
60	0xbe3bafb8	-0.1832875
61	0xbc9549bd	-0.018223638
62	0xbe1a8042	-0.15087989
63	0xbe98b2f9	-0.29824045
64	0xbd5085a1	-0.05090869
65	0xbd6df4a3	-0.058094632
66	0xbc4e3cc3	-0.012587729
67	0xbdf7c97e	-0.120989785
68	0xbdf5001c	-0.119629115
69	0x3e649d60	0.22325659
70	0xbd29657a	-0.04135654
71	0xbda6641c	-0.08124563
72	0xbe770cb6	-0.24125943
73	0x3c625927	0.013815201
74	0xbddfc883	-0.109269165
75	0xbe588da4	-0.21147782
76	0x3d94507b	0.07241913
77	0x3d819bb0	0.06328523
78	0x3e0124d2	0.12611702
79	0x3c28deab	0.010306994
80	0xbce17447	-0.027521266
81	0x3e11a52c	0.14223164
82	0x3c832363	0.016008085
83	0xbe4025d9	-0.18764438
84	0x3e03945e	0.12849566
85	0xbe4aec2c	-0.19816655
86	0xbe663c20	-0.22483873
87	0x3d60bc4d	0.054867078
88	0x3e5dd1ae	0.21662018
89	0xbd5872d6	-0.05284389
90	0xbd5465e4	-0.051854983
91	0xbe2165ba	-0.15761462
92	0xbe40abd2	-0.18815544
93	0x3eaaa229	0.33326843
94	0x3ddcec34	0.1078724
95	0xbde0a8ff	-0.109697334
96	0xbe082d7f	-0.13298605
97	0x3e12a5aa	0.14321008
98	0xbe404c0d	-0.18779011
99	0x3e2b3074	0.16717702
100	0x3ddb6eef	0.10714518
101	0x3d989b62	0.07451512
102	0x3d1e6287	0.03866818
103	0xbe3e6ed2	-0.18596962
104	0xbd194128	-0.037415653
105	0xbe30dabd	-0.17270942
106	0xbe422154	-0.18958026
107	0x3eb02376	0.34402055
108	0xbe6c6d8a	-0.23088661
109	0xbe9d3e98	-0.30711818
110	0xbd0c98e2	-0.034325488
111	0xbc91a023	-0.017776554
112	0x3e88af0c	0.2669605
113	0x3e1d4a11	0.15360285
114	0xbd834ea3	-0.06411483
115	0xbd62fea6	-0.055418633
116	0x3e73d326	0.23811015
117	0x3e6a8284	0.2290135
118	0x3e131b22	0.14365819
119	0x3de95667	0.11393433
120	0xbe3a27fc	-0.18179315
121	0x3e0aad96	0.1354278
122	0x3e153558	0.1457113
123	0xbdff995b	-0.12480422
124	0xbe53709e	-0.20648429
125	0xbe2986d2	-0.16555336
126	0x3dbf8b02	0.093526855
127	0xbd8545b7	-0.06507438
128	0xbc7a85db	-0.015290703
129	0x3e7cb8bc	0.24679846
130	0x3cf535ed	0.02993294
131	0xbd8aa13c	-0.06769034
132	0xbe41ba39	-0.18918695
133	0x3dc3ad66	0.095545575
134	0xbdbd928d	-0.09256468
135	0xbe402553	-0.18764238
136	0x3dded461	0.10880352
137	0xbd36327a	-0.044481732
138	0x3d932f98	0.07186812
139	0xbe3a6d12	-0.1820567
140	0xbe668c41	-0.2251444
141	0xbe62dfd2	-0.22155693
142	0xbe6ca6d9	-0.23110522
143	0x3dc93df2	0.09826268
144	0x3d9b4a4a	0.07582529
145	0x3e322ea9	0.17400612
146	0xbd869266	-0.06570892
147	0xbd5f00bc	-0.05444406
148	0xbc9a05ab	-0.01880153
149	0xbdca213e	-0.09869622
150	0x3b664757	0.0035137737
151	0xbdef2612	-0.11677183
152	0x3cee3159	0.029076265
153	0x3c4b60df	0.012413233
154	0x3e111c49	0.14170946
155	0xbd1a1436	-0.03761693
156	0x3d0bc648	0.034124643
157	0x3d355831	0.04427356
158	0xbd67bfa5	-0.05657925
159	0x3c1945b9	0.009355002
160	0x3d8e4f59	0.06948728
161	0xbe072f08	-0.13201535
162	0x3ca0798b	0.019589206
163	0x3e976dae	0.29575866
164	0xbbc42f50	-0.0059870854
165	0xbde9c2e4	-0.114141256
166	0x3e131e5c	0.1436705
167	0x3e00a7f4	0.12564069
168	0x3e46cab7	0.19413267
169	0x3cf92385	0.030412445
170	0x3dc61b8a	0.096732214
171	0x3e81f574	0.25382578
172	0xbde85e74	-0.113461405
173	0xbe2cc7db	-0.16873114
174	0xbd766f69	-0.060164843
175	0xbccc3e29	-0.024931984
176	0xbd3303fe	-0.04370498
177	0xbe1923ad	-0.14955015
178	0xbddc8c68	-0.10768968
179	0xbec8a2d7	-0.39186737
180	0x3e32be50	0.17455411
181	0xbe506fdc	-0.20355171
182	0x3a0b46df	0.000531299
183	0x3dceac3a	0.10091443
184	0xbd438ca5	-0.04774155
185	0xbe350d08	-0.17680752
186	0xbd0c2024	-0.03421034
187	0xbda40868	-0.08009416
188	0x3d553887	0.05205586
189	0x3e40c0ec	0.18823594
190	0x3d5e4418	0.054264158
191	0x3d2484bc	0.040165648
192	0xbe70a265	-0.23499449
193	0xbd379a22	-0.044824727
194	0xbe105a56	-0.1409696
195	0xbbd5cde7	-0.0065247896
196	0x3e856731	0.2605529
197	0xbd7b543d	-0.061359633
198	0x3dd4f374	0.103979975
199	0x3d69c45e	0.057072036
200	0x3e47c656	0.19509253
201	0xbda37b32	-0.07982482
202	0xbdbf84e7	-0.09351521
203	0x3db14d99	0.08657379
204	0xbdca42ae	-0.098759994
205	0x3e410d72	0.18852785
206	0x3e4234a5	0.18965395
207	0xbd0ef65d	-0.03490292
208	0xbe877f95	-0.26464525
209	0x3d146da4	0.036237374
210	0xbc25c7a7	-0.010118402
211	0xbe0e3476	-0.138872
212	0x3de0b2f7	0.10971635
213	0xbe60bb84	-0.21946532
214	0x3d4c9780	0.04994917
215	0xbe5a841f	-0.21339463
216	0x3e4cf5c0	0.20015621
217	0x3e24da8d	0.16098996
218	0xbcbdc0c4	-0.023163207
219	0x3dc39a62	0.095509306
220	0x3e0371d6	0.12836394
221	0x3ccab053	0.024742281
222	0xbc26e373	-0.010186064
223	0xbdfc04f6	-0.12305634
224	0xbe261495	-0.16218789
225	0xbda7ac15	-0.08187119
226	0xbe8d297e	-0.2757072
227	0x3e3c84a6	0.18409976
228	0xbced7eda	-0.028991152
229	0x3e2402c2	0.16016677
230	0xbdac6652	-0.084179536
231	0x3e2ab292	0.16669682
232	0xbd68c323	-0.056826722
233	0x3cd6c57c	0.026217215
234	0x3e422c94	0.18962318
235	0xbb1f7b8e	-0.002433512
236	0xbe831032	-0.25598294
237	0x3e64824b	0.22315328
238	0x3e0f353a	0.13985148
239	0x3b3ef11d	0.0029135414
240	0x3d6837f9	0.056694005
241	0x3da1dca2	0.079034105
242	0xbe067341	-0.13129903
243	0xbd805587	-0.06266313
244	0xbd6b70d8	-0.057480663
245	0x3e7443ad	0.23853941
246	0xbdbfb627	-0.09360915
247	0x3e7e5884	0.24838454
248	0xbe0d272c	-0.13784474
249	0xbbe74ff9	-0.007059094
250	0xbe0fdac9	-0.14048304
251	0xbd5773a3	-0.052600514
252	0xbe2906d9	-0.16506518
253	0xbd85198a	-0.06499012
254	0x3e01731d	0.12641568
255	0xbdc99b9a	-0.09844132

linear2.weight f4 [3, 256]
0	0x3da01dc1	0.07818175
1	0xbd21d745	-0.039511938
2	0x3e0ae8d5	0.13565381
3	0x3dfc3671	0.123150714
4	0xbde79496	-0.113076374
5	0xbc48c74b	-0.012254546
6	0x3dd78e53	0.10525193
7	0xbde85070	-0.11343467
8	0xbeaae25a	-0.33375818
9	0x3db1e7c2	0.086867824
10	0xbea470e4	-0.3211738
11	0xbde36ec1	-0.11105109
12	0xbd9084db	-0.0705659
13	0xbce9ae89	-0.028525608
14	0xbeaefe10	-0.3417821
15	0x3cf6f8d4	0.030147947
16	0xbe6ff827	-0.23434506
17	0xbde3aa89	-0.111165114
18	0x3c357164	0.011074398
19	0x3d8cf3a4	0.06882408
20	0x3e0e0321	0.13868381
21	0x3e380b03	0.1797295
22	0xbbc0ec70	-0.0058875605
23	0xbc7aa5f3	-0.015298354
24	0xbd96e703	-0.07368281
25	0x3dca8a65	0.09889678
26	0x3d823ee9	0.063596554
27	0x3e424f9a	0.18975678
28	0xbe935b14	-0.28780425
29	0x3e1f36a9	0.15548195
30	0x3cf1932c	0.029489122
31	0x3e1b21a4	0.15149552
32	0x3e995fc0	0.29955864
33	0xbd5cdcb6	-0.053921424
34	0x3dcd6b1c	0.10030195
35	0xbe290200	-0.16504669
36	0xbd2af615	-0.04173859
37	0xbe9fa087	-0.3117716
38	0x3d1eec8b	0.038799804
39	0xbe41b78a	-0.18917671
40	0xbe3965d0	-0.18105245
41	0x3dc66d82	0.09688856
42	0x3a7c3249	0.000962053
43	0xbdfe289c	-0.124100894
44	0xbce1362c	-0.027491651
45	0x3dc6e675	0.09711925
46	0xbd246727	-0.040137436
47	0x3de0e4e5	0.10981158
48	0xbc5df059	-0.013546073
49	0x3df52f08	0.11971861
50	0x3d5ad31a	0.05342398
51	0x3d4f2ae7	0.050578024
52	0x3cfae08d	0.030624652
53	0x3a970331	0.0011521337
54	0x3d7dadda	0.061933376
55	0x3e5c5935	0.21518405
56	0xbd938a6d	-0.07204137
57	0xbcf129fd	-0.029438967
58	0xbcab0dc8	-0.020880595
59	0xbd84f32e	-0.06491695
60	0x3e2e7dc4	0.17040163
61	0xbd320d0c	-0.043469474
62	0x3d86d68e	0.06583892
63	0x3c793140	0.015209496
64	0xbb934b1e	-0.0044950387
65	0x3d9ee4ab	0.07758459
66	0xbc0a59ed	-0.008444292
67	0xbcac04cc	-0.020998381
68	0xbd158ead	-0.03651302
69	0x3dc73fb4	0.09728947
70	0xbdb0befe	-0.08630179
71	0xbc5b7048	-0.013393469
72	0x3ce2f232	0.027703378
73	0xbd906ab4	-0.07051602
74	0xbdc061c0	-0.09393644
75	0x3d4b0826	0.049568318
76	0x3dafc0dd	0.085817076
77	0xbd2ae1c6	-0.04171922
78	0xbdefe2b3	-0.11713161
79	0xbd508531	-0.05090827
80	0x3e9e2c54	0.30893195
81	0x3d4368e5	0.047707457
82	0xbb84bfeb	-0.0040511987
83	0x3c94df8c	0.018173002
84	0xbda27cea	-0.07933982
85	0x3c5749b8	0.0131401345
86	0xbe3e4ba2	-0.18583539
87	0x3e25dead	0.16198225
88	0xbd792c74	-0.06083341
89	0xbe2653e4	-0.16242939
90	0x3e14a992	0.14517811
91	0xbd4ad826	-0.04952254
92	0xbd34538f	-0.044025
93	0x3d8f2b90	0.06990731
94	0xbd7f3087	-0.06230214
95	0xbe059a66	-0.1304718
96	0x3e1ba83e	0.15200898
97	0xbd124edf	-0.03571975
98	0xbdbf793a	-0.09349294
99	0x3da05599	0.078288265
100	0xbc8ecde7	-0.017432166
101	0xbeb694f2	-0.3566051
102	0x3b8e7869	0.00434785
103	0xbd620a35	-0.055185515
104	0xbe068f03	-0.13140492
105	0xbe814acc	-0.25252378
106	0xbe4026f8	-0.18764865
107	0xbd68b1f3	-0.05681033
108	0xbcb240b0	-0.021759361
109	0xbe0aa8a9	-0.13540901
110	0xbd8ca34f	-0.06867086
111	0x3e0c4b86	0.13700685
112	0xbd886ace	-0.066609964
113	0x3e090822	0.13382009
114	0x3d09fc7d	0.033688057
115	0xbd79ea69	-0.061014567
116	0x3def75f5	0.116924204
117	0x3d4492e9	0.047991667
118	0xbd9cb767	-0.07652169
119	0xbd351919	-0.044213388
120	0x3d06cec6	0.03291204
121	0xbdebee0d	-0.11520014
122	0x3d3868ee	0.045021944
123	0xbdb89617	-0.09013002
124	0xbd1cfaf7	-0.038325276
125	0xbe5f2ddd	-0.21794839
126	0x3db4e0a5	0.0883191
127	0xbd855415	-0.06510178
128	0xbd065a24	-0.03280081
129	0x3cb08cdd	0.021551544
130	0x3d2cc27c	0.042177662
131	0x3e710f5f	0.2354102
132	0xbec63f2b	-0.38720068
133	0xbd99b7f6	-0.07505791
134	0x3cd296a1	0.025706591
135	0x3e827124	0.25476944
136	0x3d561baf	0.052272495
137	0xbbec8a1d	-0.007218613
138	0xbe5b7b7c	-0.21433824
139	0xbcf7055b	-0.03015392
140	0xbdcdb48d	-0.10044203
141	0xbdc6ccb5	-0.097070135
142	0xbeb27f0d	-0.34862557
143	0x3d571680	0.052511692
144	0x3d76a26c	0.06021349
145	0x3de55a46	0.11198859
146	0x3ddec126	0.10876684
147	0xbe1c32ca	-0.1525375
148	0xbd355929	-0.044274483
149	0x3e0c9d28	0.13731825
150	0x3b21a40c	0.002466443
151	0xbe45c152	-0.19312027
152	0x3dcf18eb	0.101121746
153	0xbe221acf	-0.15830539
154	0xbe13312c	-0.14374226
155	0xbd82e479	-0.06391234
156	0xbdb0f1e7	-0.08639889
157	0x3dab7316	0.0837156
158	0x3e00f538	0.12593544
159	0x3dbd1c75	0.092339434
160	0xbeb472a8	-0.35243726
161	0xbb665860	-0.003514789
162	0xbe6d1519	-0.2315258
163	0x3d15e58d	0.03659587
164	0x3ddb4a64	0.10707548
165	0x3e3a75c3	0.18208985
166	0x3d2616c1	0.040549044
167	0xbd6d4f7f	-0.05793714
168	0xbdb8cf51	-0.090239175
169	0xbe709e4f	-0.2349789
170	0x3e229070	0.15875411
171	0xbd0f72c3	-0.035021555
172	0x3d1476c7	0.036246087
173	0x3e8bb02d	0.2728285
174	0x3e280c77	0.16411005
175	0xbe7ed686	-0.24886522
176	0xbd8de466	-0.06928329
177	0x3dafcb62	0.08583714
178	0xbbe4b090	-0.0069790557
179	0x3c4042d9	0.011734688
180	0xbdf71fd7	-0.1206662
181	0xbdbc6b60	-0.09200168
182	0xbe569556	-0.20955405
183	0xbda58ae3	-0.08083131
184	0x3e6021be	0.21887872
185	0xbe924a6c	-0.28572404
186	0x3d5b4f9a	0.05354271
187	0x3c418d03	0.011813405
188	0x3a94447f	0.0011311917
189	0xbc2e60e5	-0.010643219
190	0x3d879b1a	0.0662138
191	0xbe702b55	-0.2345403
192	0xbce6983c	-0.028148763
193	0xbe93ceb6	-0.28868645
194	0xbeb6f8a6	-0.3573658
195	0x3e53025b	0.20606367
196	0x3d9ef46a	0.07761462
197	0xbde11f76	-0.10992329
198	0xbcaa0b23	-0.020757264
199	0xbdc1be8f	-0.09460174
200	0xbd7745f0	-0.060369432
201	0xbe03ecf8	-0.12883365
202	0xbd3726ea	-0.044714846
203	0x3e0af610	0.13570428
204	0xbe4bef6b	-0.1991555
205	0x3de43d8a	0.1114455
206	0xbdf4d5cf	-0.11954843
207	0xbe3cd1fb	-0.18439476
208	0xbc0a1703	-0.008428338
209	0xbdbb1b14	-0.09136024
210	0xbc24a898	-0.0100499615
211	0xbe207afd	-0.15671916
212	0xbd86442e	-0.06555973
213	0xbcc93268	-0.024560168
214	0x3dd0b0ff	0.10190009
215	0xbca6b715	-0.020350972
216	0x3d096c25	0.0335504
217	0x3c11e0b7	0.008903674
218	0xbd77fda4	-0.060544625
219	0xbd23f524	-0.040028706
220	0x3db43463	0.087990545
221	0xbdb9bf3d	-0.09069679
222	0xbd939996	-0.072070286
223	0xbe147f78	-0.1450175
224	0xbe89b51c	-0.26895988
225	0x3dcd0a16	0.10011689
226	0x3d92a51d	0.07160399
227	0xbde109ea	-0.10988219
228	0x3d0a6a68	0.033792883
229	0xbc26a495	-0.010171075
230	0x3d7b9704	0.061423317
231	0xbe5204d3	-0.20509653
232	0xbe763c0a	-0.2404634
233	0xbc525d0a	-0.012839565
234	0xbca20d0d	-0.019781614
235	0xbc19a298	-0.009377144
236	0xbd31aa18	-0.043375105
237	0xbdb99b14	-0.09062782
238	0xbcb29f2a	-0.021804411
239	0xbc28fb20	-0.010313779
240	0x3dbcdab2	0.092214
241	0x3de5eb56	0.112265274
242	0x3d52b23c	0.05143951
243	0x3e388cf3	0.18022518
244	0xbe0e205a	-0.13879529
245	0xbd496114	-0.049164847
246	0xbce90626	-0.028445315
247	0xbd8b1f5e	-0.06793092
248	0x3dea6c78	0.1144647
249	0xbe2a2ab2	-0.1661785
250	0x3e1cf92a	0.15329424
251	0xbeb14a05	-0.34626785
252	0x3d52310b	0.051316302
253	0x3d742ab4	0.059611037
254	0xbd8f456f	-0.06995665
255	0x3e23ea72	0.16007403

linear2.bias f4 [3]
0	0x3ca2db2e	0.019879904
1	0xbd22e34e	-0.039767556
2	0xbe07b02a	-0.13250795
