model_hybrid/checkpoint_20251029_200836_score18.pth (torch, 21291 bytes, 4 tensors)

linear1.weight f4 [256, 14]
00000000: fa4c ebbd 4b4b ddbe 23e2 173f c253 223d
00000010: 3c7c 86bd f228 d03e a976 febe 32d1 b8be
00000020: 26dc db3e 8b59 043d 3804 d1bd 6420 193e
00000030: 5461 cc3d 2650 0cbd df1f 583e 4978 2c3f
00000040: 7d57 02bf 968e 08be 73a6 6abb a021 01be
00000050: a10a 923c a2d8 31bd 81bc 443e 4a62 133d
00000060: 97dc 49be 9ea4 4fbd c299 d63d eddf c9bd
00000070: 37bf 4abd e6c3 033f 45cd 89be 0983 fe3e
00000080: 4691 bfbe fcd2 3dbe 980c c33e b02e 43be
00000090: 7d1b 0d3e 8e61 02bf 5f93 913e 84af 333e
000000a0: 2e47 b8bd c738 5abe d95b f03b 34b5 c93e
000000b0: a48a 8bbd 5dca a5be bd43 f63e c9c1 a1be
000000c0: 30f0 eebd 428b a8bc 8a2f c93e 4e5f eebd
000000d0: 18b3 dcbe 7474 c9bd fd65 bd3d 9afe eb3d
000000e0: 5ed7 a83e 0bcb f03e 2b2c 86be 845f 2e3c
000000f0: 6410 3bbe 8b00 b8bd b55b 6a3e 2e91 66be
00000100: f0b1 f43d e6ca 02bd 04f2 c83d 6883 13bd
00000110: 25e0 3b3e 3529 ccbe 0f05 9fbe f163 983e
00000120: a2aa 083e 72b8 0abe 9725 78be ffae 94be
00000130: c45b 733d 2832 90be f790 3a3d 4599 7dbe
00000140: e1b3 143d 3c15 dc3d 9163 b33d 2f35 adbe
00000150: 28dd 183a fa15 81be fa2c 45be 4480 66bd
00000160: 6982 fd3e 6c2e 4ebe d46a 1b3f 715d ccbe
00000170: 277b 873d 2495 51bf bfeb ff3d e513 083f
00000180: 71ad 12bf 350b 023e 3f74 013f ec9a 06bf
00000190: 2a78 ca3d 8cc8 d2bd 1660 f83c bc60 b73e
000001a0: a58b 04bf aaf5 0e3d a167 ec3d e13d 0abd
000001b0: 36d8 bd3e 9182 223e 697e 98be 55a7 b1bd
000001c0: f041 2c3d 5dba d5be c60f 2e3e a3fd e9be
000001d0: eab4 c73e 1312 693e 0823 1dbd f6ed 003f
000001e0: 5a40 e7be b80e cabe 7662 ab3e 72c5 54be
000001f0: b47b 603e 2945 c0b9 5e56 3dbe 19d6 91be
00000200: 9831 483f 7118 d73e 4ca4 a4bd adb9 d23e
00000210: 58d9 e3be bf99 9dbe 45b0 e63e a260 2d3d
00000220: 2e76 ddbe dfd6 9abd 3e04 bc3d d72e 063e
00000230: f658 1a3e f935 52be bb7b 7cbe 8212 433b
00000240: 0dc4 f7bc 6713 0b3f 3c7f 25bf a5ac cfbd
00000250: 8f97 c4bd ef36 c1be b0ab 013f 983b 30bd
00000260: 093d 13be 871f abbd 6e18 053f 1d2b 7d3e
00000270: b181 423e bc7b 063d 5c82 ebbd e556 84bd
00000280: 757d 77bd 66b7 193e aec8 903e cf93 d13e
00000290: 0835 c43e 8d2e b3bd 002c ef3d a7b9 d83c
000002a0: 8c01 ab3e 51fb b83e ba1b d23d 906e 95be
000002b0: 6fcd b8bd 80cc 8bbd 7916 1c3d 12d5 343d
000002c0: 51d4 0bbd 5385 97bd 48ef e83d 46af e5bd
000002d0: 3c06 173d 69be babe 560c 37be 756a d1be
000002e0: 64b6 5b3f 96d8 c2bb b305 a13c 2885 9d3e
000002f0: c786 e13d 1a0f 193d d52b a23e 51ff ba3d
00000300: da42 903e bcc6 42be 47c7 e83d cc53 bf3d
00000310: 10a2 193f 867e 10bd 94ca 5f3e 7031 2fbe
00000320: 864c 073f c2ae 40be 2fe4 87bd 3d52 8b3e
00000330: 9e58 d8be 9c50 503e 583c b23c ac53 033e
00000340: a614 e33b 9e97 193e 5bb5 10bf 2fa3 5e3f
00000350: a7dd dd3e 02f6 b33c 7b50 46bd 6a5d 613d
00000360: 4822 1e3d 0c1d 36bc c67b 163e 2495 153e
00000370: 0423 abbd bba8 a93d 6058 46bd bc1d bcbb
00000380: a8a0 2cbe 4b5c 27be 7f37 2d3d 7103 90be
00000390: 89a7 c1be dd27 933e e438 e33e c468 883e
000003a0: 02ab a43e 75a9 07bf 7d34 afbe 9b8e 02be
000003b0: f740 123e 0ee5 193e 4165 8c3e ffeb 363f
000003c0: a094 c33d 7f80 97bd 585a 41bd ff41 babd
000003d0: 3e5e 00be 3239 a93e b15a a03e 0c47 ad3e
000003e0: 41a8 c33e afb1 5ebe aebc e43d 3e32 3e3e
000003f0: 2e13 b4bd 8347 02bf 2da7 4e3f d346 c93d
-0.114892915 -0.43221506 0.5932943 0.03963066 -0.065666646 0.4065624 -0.49699906 -0.36097103
0.42941397 0.032311957 -0.10205883 0.14953762 0.09979501 -0.034256123 0.21105908 0.6737104
-0.50914747 -0.13335642 -0.0035804778 -0.12610483 0.017827334 -0.043419488 0.19212534 0.035982408
-0.19713055 -0.0506941 0.10478546 -0.098571636 -0.049498763 0.5147079 -0.2691442 0.49709347
-0.37415522 -0.18537515 0.38095546 -0.19060779 0.13780017 -0.50930107 0.28432748 0.17547423
-0.089979514 -0.21310721 0.007335168 0.3939606 -0.06813553 -0.32380953 0.48098555 -0.3159316
-0.11666906 -0.020574216 0.39294082 -0.11639272 -0.43105388 -0.09836665 0.09247968 0.11523171
0.32976812 0.4702991 -0.26205572 0.01064289 -0.18267971 -0.089844786 0.22886546 -0.22516319
0.119480014 -0.03193178 0.09811786 -0.03601399 0.18347223 -0.39875188 -0.31058547 0.2976375
0.13346341 -0.13546923 -0.2423309 -0.2903976 0.059413686 -0.28163266 0.045548405 -0.24765499
0.03630436 0.10746238 0.08759225 -0.33829638 0.00058312947 -0.2521208 -0.19255438 -0.056274667
0.49513558 -0.20134896 0.6070988 -0.3991504 0.06615286 -0.81868196 0.12496137 0.53155357
-0.572959 0.12699588 0.50568 -0.5258014 0.09886201 -0.102921575 0.030319255 0.3581599
-0.5177558 0.034902252 0.11543203 -0.03375042 0.37079018 0.1587012 -0.29783943 -0.08674494
0.04205507 -0.41743746 0.16998205 -0.45701322 0.39005214 0.22760801 -0.038363487 0.503631
-0.45166284 -0.39464355 0.33473557 -0.20778444 0.21922189 -0.00036672622 -0.18489978 -0.28483656
0.78200674 0.42010835 -0.0803915 0.41157284 -0.44501758 -0.3078136 0.45056358 0.042328484
-0.43254226 -0.07560515 0.09180497 0.13103805 0.15072998 -0.20528401 -0.24656574 0.002976567
-0.030244851 0.5432648 -0.6464727 -0.10140351 -0.0959922 -0.37737224 0.506526 -0.043025583
-0.14378752 -0.08355623 0.519904 0.24723478 0.18994786 0.032832846 -0.114994735 -0.06461886
-0.06042238 0.15011367 0.28278106 0.40933082 0.3832171 -0.08749113 0.11678314 0.026455713
0.33399618 0.3612924 0.10259195 -0.29185915 -0.09023558 -0.06826115 0.03810737 0.044148512
-0.034138028 -0.073984765 0.11373764 -0.112150714 0.03687118 -0.36473396 -0.178758 -0.40901533
0.8582518 -0.005946229 0.019656038 0.30765653 0.11012035 0.037367918 0.31674066 0.09130729
0.28176004 -0.19021124 0.11366134 0.09342155 0.6001291 -0.035276912 0.21854621 -0.17108703
0.5285114 -0.18816665 -0.066353194 0.2721118 -0.4225511 0.2034325 0.02175729 0.12824887
0.0069299517 0.14999244 -0.56526726 0.8696775 0.4333317 0.021967892 -0.048416596 0.055020727
0.038606912 -0.011115324 0.14695653 0.14607674 -0.08356288 0.08284136 -0.048424125 -0.0057408493
-0.1685816 -0.163438 0.042289253 -0.28127626 -0.37823132 0.2874135 0.44379342 0.2664243
0.3216172 -0.52992946 -0.34219733 -0.12749712 0.14282595 0.15028784 0.27421 0.7145385
0.09549832 -0.073975556 -0.0472053 -0.09094619 -0.1253595 0.3305145 0.31319192 0.33843267
0.38214305 -0.21747468 0.111688 0.18573853 -0.08792721 -0.5089037 0.8072384 0.09827962

linear1.bias f4 [256]
00000000: 8cb1 47be 8665 243d b4e7 afbc 5890 57bd
00000010: e20f 2b3e 3dc0 203d 3373 103f 834d a0bd
00000020: bea4 edbc dab3 95bd a94c 4b3e 5740 3fbe
00000030: fba8 0dbe 5cbd 91be b6a3 90be d6f2 dcbc
00000040: e655 00bd 71c1 0cbe 1c82 713d f889 cebd
00000050: da85 48bd 0a58 333e b427 cabe 8145 aabd
00000060: 0519 96bd fb74 ad3d a45a a43c cedc 96bd
00000070: cff8 32be aa3d d03c 5a20 e2bd 500c 86bd
00000080: c5b4 0f3e cb56 04be bd14 64bd 3156 dabd
00000090: abf2 6b3d 0dfc 8d3c 7dbb a4be ed66 a63d
000000a0: 6ed0 2dbe 817b 213d 0142 b13e dc2b d1bd
000000b0: 0a31 84be 3f4a de3d b4ec b03d e250 d03e
000000c0: 3edb 8ebe 0804 c83e 6271 553d e2ea 7fbd
000000d0: f859 95be b46c 7bbe 9ff0 b03e 0e8c abbd
000000e0: 309c cebc a161 78be 1e65 a53e bb57 a33e
000000f0: eccd 06bd 5fcd f8bd 703b 46be 3a34 a7be
00000100: e22e 21be 9fa8 73bd 5680 f3bd b59f e73d
00000110: 1c00 f5bd b84c 8d3f 8fcf 85bd 1c64 a6bd
00000120: 00dd 58be 7836 97bd 4c56 40be a48d 58be
00000130: 9c5d 653e 8e6f d03d 0077 e93d 2ba7 053c
00000140: 490c 2f3e 68fe 093e 32ad e73c d925 40be
00000150: 3423 b1bb 3673 6bbe 787b 8dbe cc62 2c3e
00000160: 685f 093e 3d1e e2bd 0d57 483d ba65 21be
00000170: 34a4 80be d631 ca3e 6d56 88bc be46 22be
00000180: 189d adba 8468 dabc 18af 4fbe aa0c 3e3e
00000190: 72a1 2d3d f08b de3d 8762 1e3d d26e 3ebe
000001a0: 7f17 65bd 594f 1dbe 26eb 3dbe 4954 893e
000001b0: 5c91 78be 1150 bebe 5a59 59be 83d5 943e
000001c0: f326 2c3e 6808 613e 32c8 0a3e 24e0 52be
000001d0: 7d91 f03e 2884 243e d5bb 683e c6e4 08bc
000001e0: fc73 a1bd cbea 3c3d 33e3 2a3e 8d70 53be
000001f0: 3195 39be 70ce 40be a4d3 443e 099b 29bd
00000200: af7c 683e 07d2 a53d 9c61 773f eefb c0bd
00000210: 7702 4abe a66a 833d 83d1 04bd 5781 17be
00000220: 36b2 023e 474d b9bd 7441 4d3d 5b74 5abe
00000230: 3ec9 44be e48e 87be 8b59 6ebe 7896 813d
00000240: ca84 8f3d 5741 a43e e456 01bd 6288 5dbd
00000250: 60d7 b3bc 8e18 1a3c 7f5d e7bc aa90 a5bd
00000260: 1e7e 0d3d 1354 08be 594b 263e 471a 20bd
00000270: e1b7 74bc 2613 b33e f4eb 8b3d 8490 d83d
00000280: e3b6 9f3d 082f 07be b8a1 0cbd 0923 733e
00000290: f4df e83c 3b74 c1bc 6c98 663d 4df9 0b3e
000002a0: 0e34 2b3d e896 353d 003e 073e d4cb 123e
000002b0: 1753 21be 9d0c 37bc cdf5 15bd 2119 93bc
000002c0: d194 d9bd fc8e 7cbd ec3a 37be 0354 8dbe
000002d0: b48f bf3d d242 b6be 9940 1a3d 629d 5ebd
000002e0: 3b56 383d 81a3 80be 2420 0cbd 26b2 103d
000002f0: 1514 e63e e09b d43e 091b 543e 13d3 a83d
00000300: 65a2 70be a36c 1ebd 9ef1 24be 0c92 65bd
00000310: 6d65 853e 9944 5abe c98b 87bd 30af f2bd
00000320: 446f f23d d43e d0bd f09b c6bd 5e1f 933d
00000330: ef05 8cbd 6855 9c3e 8606 773e 9f8d 97bd
00000340: 957f 87be 1a9b f7bd 73a5 5fbd 061d 0bbe
00000350: 1975 563d 84bb 60be 8345 983e a878 14be
00000360: 50da 3b3e 99d5 793f 566d 87bc c20c d6bd
00000370: 70e5 043e 008e 9f3c 981a f2bc ebe8 e0bd
00000380: 4714 32be 21fb d7bd 78fd 84be cae1 c83d
00000390: 8f18 0f3f 4e61 793e 3ec2 823e fbb1 b83d
000003a0: edca 21bd 91c6 83bd dfa1 f93d 8d58 2ebd
000003b0: 3210 83be c581 423e 00a4 3f3f a239 fd3d
000003c0: b316 7e3e b7f4 2f3e 4173 06be 5319 023d
000003d0: 0c56 9cbd 2be3 9d3d 602c 02be 3158 dc3d
000003e0: dea2 0abe f8a2 de3c 4632 38ba fd1d 76bd
000003f0: f649 2ebe d827 323e 7328 d93c 01fb 8abd
-0.19501323 0.040135883 -0.02147279 -0.05262789 0.16705278 0.039245833 0.5642578 -0.07827284
-0.02900922 -0.073096946 0.19853462 -0.18676887 -0.13833992 -0.28464782 -0.28249902 -0.026971262
-0.03133192 -0.13745667 0.058961973 -0.10084909 -0.048955776 0.17514053 -0.39483416 -0.08314038
-0.07328991 0.08469578 0.020062752 -0.07366334 -0.17477725 0.025420029 -0.11041327 -0.06545317
0.14033802 -0.12923734 -0.05568384 -0.10660971 0.057604473 0.017332101 -0.32174292 0.081251
-0.16974041 0.039424423 0.3462067 -0.10213444 -0.25818664 0.10854005 0.086388975 0.4068671
-0.27901644 0.39065576 0.052110083 -0.06247986 -0.29170203 -0.24553186 0.3455858 -0.08376323
-0.02522096 -0.24255992 0.3230371 0.3190287 -0.032911226 -0.121485464 -0.19358611 -0.32657033
-0.1574054 -0.05948698 -0.118897125 0.113097586 -0.119629115 1.1039038 -0.06533729 -0.08124563
-0.21178055 -0.07383436 -0.1878292 -0.21147782 0.2239899 0.10177527 0.113996506 0.008157532
0.1709453 0.13475955 0.028280828 -0.18764438 -0.005405808 -0.22993168 -0.27633262 0.16834563
0.13415301 -0.11040924 0.048911143 -0.15761462 -0.25125277 0.39491147 -0.016642774 -0.15847299
-0.001324567 -0.026661165 -0.20281637 0.18559518 0.042390294 0.10866535 0.03866818 -0.18596962
-0.05593061 -0.153623 -0.18546733 0.26822117 -0.242742 -0.3717046 -0.21225491 0.29069147
0.16811733 0.21975863 0.13552931 -0.20593315 0.46986 0.16066039 0.22727902 -0.008355325
-0.078834504 0.046122354 0.16688232 -0.20648403 -0.18123318 -0.1882875 0.1922136 -0.04140762
0.22703813 0.080967 0.96633315 -0.09423052 -0.19727503 0.06416826 -0.03242637 -0.14795433
0.12763295 -0.090479426 0.05011125 -0.21333449 -0.19217393 -0.26476204 -0.23276345 0.06327528
0.070077494 0.320811 -0.031577006 -0.054085143 -0.021953285 0.009405268 -0.028242825 -0.08084233
0.034544103 -0.13313322 0.1623968 -0.03908756 -0.014936418 0.34975547 0.06832114 0.10574439
0.07798555 -0.13201535 -0.034333915 0.23743834 0.028427102 -0.023614993 0.056297705 0.1366932
0.04179769 0.04433337 0.13207245 0.14335567 -0.15754353 -0.011172441 -0.036611367 -0.017956318
-0.106240876 -0.061659798 -0.1789357 -0.27603158 0.09353581 -0.35597855 0.03765926 -0.05434931
0.04500411 -0.25124744 -0.03421034 0.035326146 0.44937196 0.41525173 0.20713438 0.08243384
-0.23499449 -0.038677823 -0.16107795 -0.056047484 0.26053944 -0.2131523 -0.06618459 -0.118498206
0.118376285 -0.101682335 -0.096977115 0.07183717 -0.06837069 0.3053391 0.24123582 -0.07400059
-0.26464525 -0.1209013 -0.054601144 -0.1358529 0.052357767 -0.21946532 0.29740533 -0.14499152
0.18344998 0.9759155 -0.016531628 -0.10451652 0.12978148 0.01947689 -0.029553697 -0.109819256
-0.17390548 -0.10545946 -0.2597463 0.09808691 0.5589685 0.24353525 0.2553882 0.09018322
-0.039500166 -0.06434358 0.121890776 -0.042564917 -0.25598294 0.18994816 0.7485962 0.12364508
0.24813347 0.17183195 -0.13129903 0.031762432 -0.076336 0.077093445 -0.1271224 0.10759009
-0.13538691 0.027177319 -0.00070265343 -0.060087193 -0.17020401 0.17398012 0.026508546 -0.067861564

linear2.weight f4 [3, 256]
00000000: b66a 053e f788 1f3d 11b3 9f3e 716c 4a3e
00000010: 2538 06be 6c93 ac3c 649a f93e 3bba 9abe
00000020: fb5b f7be a436 313e 3485 04bf c09f 7ebe
00000030: 5a34 86bd 381a afbd 16d3 33bf a2fd 9d3d
00000040: 6899 dfbe c06b 99be eff2 773d dff6 c03e
00000050: cbc9 8c3e 9b07 da3e 04fe a53d a542 063d
00000060: f429 f4bd cdfe bf3e bef9 323e 7c86 d83e
00000070: 9582 11bf 5a73 c63e 2c93 f13c 172e f13e
00000080: afa3 0c3f 49fd e0bd dcbc 2a3e e9e7 aabe
00000090: 64bd bb3c 9e98 2cbf 6271 91bc e47b d1be
000000a0: 5454 47be 8cae ba3e 8b10 5d3e 06b4 99be
000000b0: 1652 83bb 34ee 523e 7e77 1dbe a6c5 ca3e
000000c0: 59f0 5dbc 7aba d33e 4fd5 4f3e a88e b23e
000000d0: 8de0 fa3c 5be0 0f3e ea4f 6d3e 04d4 003f
000000e0: ff7b edbd fd29 f1bc c813 463e 8e8f 173e
000000f0: f4ea f13e fe96 423c 8ed6 863d 4031 793c
00000100: 4769 663d 8cd5 7d3e d26e 0a3d 4870 023e
00000110: ad8e 15bd c956 af3e b325 83be 4870 5bbc
00000120: bfff 163e 55b3 11be 938b d3bd 2608 4b3d
00000130: ab9a 893e b6e8 6dbe 6e79 05be 803f 2dbe
00000140: eae5 353f 9490 623e f119 c03d 8cdf 943c
00000150: 4b5f 48be 9e93 98bc 66c9 b1be 98f5 e93e
00000160: 4935 01be 3a68 a8be 7909 c43e 26d8 4abd
00000170: bd2b 233e 9c70 8b3e 06d5 f1bd 8206 95be
00000180: 9032 c23e b282 3bbc 7e48 71be 60b1 713e
00000190: 2cec 44bd a2ab 29bf 6978 8e3b 350a 62bd
000001a0: 655b 84be d3a4 18bf d9a7 90be e1e5 fb3c
000001b0: 132a 0bbd caef bbbe 93f9 26be 65fa de3e
000001c0: 4772 a3bc e5f5 cf3e 964e 113e bf54 46bd
000001d0: ad3f d03e ffb3 3e3e 7150 23be d310 84bd
000001e0: dbd4 0c3e ba19 7bbe c6a6 663e b85c 6dbe
000001f0: 8893 b53c 8650 edbe 19d6 5b3e 6073 8dbe
00000200: 22dd dd3d d5b2 c93d 55a3 a13e 15ff 013f
00000210: 8da4 33bf 162d acbe 75ab a33e 040a 0f3f
00000220: cef9 8e3d 2674 08bd d52d c9be 5b05 f7bc
00000230: 6e6e c6bd b890 0abe 9c2a 28bf 1bcd 4b3e
00000240: b0b3 d53d 45e7 bd3e 0934 993e 3f22 cbbe
00000250: 46b1 793d d28d fb3e 2cf5 efbc f57d 94be
00000260: be38 173e 79e6 88be cc5e ccbe 8eaa 11be
00000270: 1371 8ebe 397d 4f3e d3d1 bf3e 411d ae3e
00000280: 1c42 54bf 6058 66bb 420e dabe 1ab9 443c
00000290: eaf3 853e f304 c63e fca9 2b3e d069 d83d
000002a0: a810 2ebe 18f0 03bf 959e 9d3e 334a 133e
000002b0: bd8d 333c 121c 083f b8ec 173e 04f1 bebe
000002c0: 4573 0bbd 111b b03e 1a94 18bd 7e48 323d
000002d0: 711a 44be 4915 08be 2f9f 02bf 15be 40be
000002e0: cc0c c03e a580 cdbe 9a4f 5b3d 55e9 333e
000002f0: f7c2 283e ed86 843e f064 3c3e ec58 c0be
00000300: 3c98 e6bc e5a4 e2be 1a29 33bf e72d c53e
00000310: 23b2 873e f18a 92be f7a5 943c 088e 68be
00000320: fb79 96bd 4605 35be 75b4 0cbe 8d70 3a3e
00000330: eacc fabe 7da4 ef3e 8c62 47be 5c52 98be
00000340: 0317 0abc c238 4dbe 79e7 0c3c 9083 ebbe
00000350: 9b70 8cbe 6832 c9bc 7052 283f dbab df3c
00000360: 8100 ee3d 6af8 703e 261e c63d 856b a9bd
00000370: c8dd b73e 1550 b93d 7fb5 99be de86 27be
00000380: 0d0c 0ebf b46a 853e f80e fc3d c78f 48be
00000390: df97 ab3e a60a 433e f5f2 c33e 5f4f a0be
000003a0: aec8 09bf 84fe 9dbb 69b9 debc d4f9 9ebd
000003b0: 18aa 31bd 679c 57be b589 3c3e 1436 503e
000003c0: 7d40 b33e bef2 c03e 3cb2 523d 521e ff3e
000003d0: 1828 4fbe 3436 fabd 7680 9bbd 3abe 12be
000003e0: a640 723e 568e 6dbe bcac e63e e45f 10bf
000003f0: b411 d23c 34dc c63e e5ad 4ebe 46cc 103f
0.13028988 0.03894898 0.31191304 0.1976793 -0.13107355 0.02106639 0.48750603 -0.30220208
-0.48312363 0.17306 -0.5176575 -0.24865627 -0.06552954 -0.08549923 -0.70243967 0.07714392
-0.43671727 -0.2996502 0.060534414 0.37688348 0.27497706 0.42583928 0.0810509 0.0327784
-0.119220644 0.37499085 0.17478082 0.42290103 -0.5683988 0.3875988 0.029489122 0.47105476
0.5493726 -0.1098581 0.16673607 -0.33380058 0.022917457 -0.67420375 -0.01775426 -0.40914834
-0.19465762 0.36461294 0.21588342 -0.3002016 -0.004007588 0.2059868 -0.15377614 0.3960392
-0.013546073 0.41353208 0.20296215 0.34874463 0.030624652 0.14050429 0.23175016 0.5032351
-0.11595916 -0.029438967 0.19343483 0.14800856 0.47249568 0.01187682 0.06583892 0.015209496
0.056252744 0.24788493 0.033797093 0.12738144 -0.03651302 0.342459 -0.256147 -0.013393469
0.14745997 -0.14228566 -0.10329356 0.049568318 0.26875815 -0.23233303 -0.13034603 -0.16918755
0.71053946 0.22125465 0.09379948 0.018173002 -0.19567601 -0.018625077 -0.34723967 0.45695186
-0.12617983 -0.3289202 0.38288477 -0.04952254 0.15934654 0.27234352 -0.11808209 -0.29106528
0.379292 -0.011444734 -0.2356281 0.2360282 -0.048076794 -0.66277516 0.00434785 -0.055185515
-0.25850978 -0.596265 -0.28253058 0.030749263 -0.033975672 -0.36706382 -0.16306143 0.4355041
-0.019951953 0.4061729 0.14190134 -0.048420664 0.4067358 0.1862335 -0.15948655 -0.064485215
0.13753073 -0.24521533 0.22524557 -0.231799 0.022165075 -0.46350497 0.2146839 -0.27627087
0.10833193 0.09848563 0.31569925 0.5077985 -0.7017296 -0.33628148 0.3196675 0.5587466
0.0698124 -0.033313893 -0.3929278 -0.03015392 -0.096890315 -0.13531768 -0.65690017 0.1990246
0.10434663 0.37090507 0.29922512 -0.39674565 0.060960077 0.49131638 -0.029291712 -0.29002348
0.14767739 -0.26738337 -0.39916074 -0.14225218 -0.27820644 0.20262612 0.3746477 0.34006694
-0.82913375 -0.003514789 -0.42589003 0.012007022 0.26162654 0.3867565 0.16764063 0.10567057
-0.16998541 -0.5153823 0.3078505 0.14383774 0.010959086 0.5316783 0.14836395 -0.37293255
-0.034045476 0.3439565 -0.037250616 0.043526165 -0.19150712 -0.1328937 -0.51024145 -0.1882251
0.37509763 -0.4013721 0.05354271 0.17569478 0.16480623 0.2588419 0.1839788 -0.37567842
-0.028148763 -0.4426643 -0.6998459 0.38511583 0.26503095 -0.2862163 0.018145544 -0.2271043
-0.07347485 -0.17677793 -0.13740714 0.18206997 -0.48984462 0.46805182 -0.19471186 -0.29750335
-0.008428338 -0.20041183 0.008600109 -0.45998812 -0.2742966 -0.024560168 0.6575079 0.027303627
0.1162119 0.23532262 0.09673719 -0.08272461 0.35911393 0.090484776 -0.30021283 -0.16360041
-0.5548714 0.2605797 0.123075426 -0.19586097 0.33514306 0.19047031 0.382713 -0.31310555
-0.5382184 -0.0048216004 -0.02718802 -0.07762495 -0.043375105 -0.21055757 0.18411906 0.20333129
0.35010138 0.37685198 0.05143951 0.4982782 -0.20230138 -0.1221737 -0.07592861 -0.14330378
0.23657474 -0.23198828 0.4505366 -0.5639632 0.025643207 0.38839877 -0.20183523 0.56561697

linear2.bias f4 [3]
00000000: c8c7 8c3e b449 443e b1c6 993d
0.2749617 0.1916874 0.075086005
