model_hybrid/checkpoint_20251029_195857_score11.pth (torch, 21291 bytes, 4 tensors)

linear1.weight f4 [256, 14]
0.052839026 -0.25329342 0.35856205 0.05826846 -0.007965914 0.22644335 -0.40374726 -0.112545095
0.34589523 0.020831125 -0.022810962 0.073772684 0.11708982 -0.009082208 0.21383932 0.45488864
-0.309906 0.051967923 0.09641127 -0.1018263 -0.09306947 0.06638332 0.11220794 0.08429008
-0.15603718 0.10142311 0.19355205 0.08283776 -0.086389616 0.2664073 -0.23421155 0.4425347
-0.19663438 -0.24432538 0.32538638 -0.13780124 -0.012674535 -0.38752604 0.2149272 0.15881968
0.13546836 -0.10986663 0.035015985 0.38014397 0.032471444 -0.2620436 0.36954415 -0.12132128
-0.14491087 0.11536105 0.27764055 -0.027780266 -0.2841958 -0.14161722 0.049811285 0.1790141
0.14894533 0.2672203 -0.08697187 0.044967506 -0.153062 -0.17311293 0.29493517 -0.2591651
-0.06538227 0.026054673 0.10216415 0.041701358 0.083303064 -0.23055714 -0.2708369 0.09731845
0.2011221 -0.003663655 -0.078379616 -0.31817922 0.06479251 -0.17869952 0.038731508 -0.1116496
0.048289973 0.16463774 0.17574754 -0.2980041 0.14835288 0.06684082 -0.08108352 0.04026553
0.2627586 -0.1347933 0.15178704 -0.29512903 0.0055350927 -0.30653128 0.10073966 0.05975099
-0.14890729 0.00020770244 0.2203786 -0.37350968 -0.05494345 -0.09322341 0.047668107 0.24138361
-0.27150428 0.06712062 0.14380117 -0.043257866 0.31168437 0.16354652 -0.23777957 -0.111917466
-0.095851734 -0.3269898 0.20017917 -0.3356616 0.27720094 0.2747534 -0.090350136 0.4106321
-0.28741026 -0.282477 0.30131826 -0.17023684 0.16097933 -0.034886282 -0.042277522 -0.1748849
0.49927986 0.3051605 -0.028002825 0.3810666 -0.4281876 -0.15583603 0.30955502 -0.04061714
-0.3341714 -0.14455992 0.027172636 0.2671109 0.08757148 -0.2474885 -0.289005 -0.024598088
0.032895777 0.34312734 -0.4093538 -0.04612782 -0.020113619 -0.27767104 0.35028014 -0.056955416
-0.09292844 -0.10990653 0.30397558 0.09628023 0.05657971 0.12688027 -0.028385924 -0.093844324
0.07139039 0.021514498 0.07004318 0.23208246 0.3437164 0.08908129 0.17874074 -0.09542946
0.08290289 0.24278884 0.17506742 -0.027192147 -0.015311432 -0.09567925 0.0567827 0.25714916
-0.19803253 -0.06762024 0.18409108 0.11601105 0.08506577 -0.19455111 -0.33766225 -0.14567125
0.5495235 -0.09019242 -0.029265603 0.25064868 0.24210767 0.15632908 0.112941585 0.10884362
0.21506737 -0.18127774 0.17209329 0.15718238 0.34293422 -0.095556565 0.05963816 -0.15445775
0.37854806 -0.13499501 0.02919814 0.20275436 -0.38435712 -0.015960764 0.072294205 0.14865774
-0.024411825 0.069339596 -0.40567017 0.59970564 0.3027395 0.11069922 0.068898395 0.045999587
-0.016149404 0.003035297 0.020371836 0.15456863 -0.15955067 0.13575427 -0.027421826 -0.034655947
-0.21523818 -0.15891977 0.28187293 -0.14215311 -0.24068183 0.2078009 0.29948285 0.12343665
0.08653642 -0.23267692 -0.24256314 -0.11081229 0.09432691 0.109095335 0.007886495 0.4146098
0.06550636 -0.06036053 0.03234398 -0.09294737 -0.056406587 0.30541453 0.030346017 0.06124238
0.27887732 -0.09228369 0.018017782 -0.018535782 -0.016399384 -0.2983738 0.525375 0.112172686
00000000: bc6d 583d adaf 81be 7295 b73e e9aa 6e3d
00000010: 7783 02bc c4e0 673e f6b7 cebe 0b7e e6bd
00000020: 2e19 b13e 09a6 aa3c 0ede babc 2216 973d
00000030: cacc ef3d 8bcd 14bc b2f8 5a3e 2ae7 e83e
00000040: 00ac 9ebe 51dc 543d 4673 c53d 4f8a d0bd
00000050: 359b bebd faf3 873d 47cd e53d 47a0 ac3d
00000060: 36c8 1fbe ebb6 cf3d 8232 463e d8a6 a93d
00000070: 0aed b0bd 8a66 883e 27d5 6fbe e893 e23e
00000080: 865a 49be 6f30 7abe 0b99 a63e c51b 0dbe
00000090: daa8 4fbc d069 c6be e015 5c3e a0a1 223e
000000a0: 38b8 0a3e c101 e1bd ec6c 0f3d 3ba2 c23e
000000b0: c700 053d 942a 86be e434 bd3e 4b77 f8bd
000000c0: 8463 14be 6a42 ec3d e726 8e3e 7193 e3bc
000000d0: 1d82 91be 1b04 11be eb06 4c3d 794f 373e
000000e0: 2085 183e 19d1 883e 4f1e b2bd d92f 383d
000000f0: 49bc 1cbe 8444 31be be01 973e 4ab1 84be
00000100: 24e7 85bd 9c70 d53c 703b d13d 0bcf 2a3d
00000110: cc9a aa3d 2c17 6cbe 22ab 8abe e54e c73d
00000120: f4f2 4d3e ee19 70bb 7e85 a0bd 63e8 a2be
00000130: efb1 843d 02fd 36be eea4 1e3d 8ca8 e4bd
00000140: b5cb 453d cc96 283e 2af7 333e fe93 98be
00000150: d1e9 173e d7e3 883d 1e0f a6bd 78ed 243d
00000160: 4c88 863e 4107 0abe 106e 1b3e 271b 97be
00000170: b95f b53b abf1 9cbe 9850 ce3d 74bd 743d
00000180: 277b 18be b3ca 5939 edaa 613e a93c bfbe
00000190: 620c 61bd eaeb bebd a23f 433d 442d 773e
000001a0: 9c02 8bbe 8976 893d 9d40 133e 292f 31bd
000001b0: 1895 9f3e bd78 273e 7d7c 73be fc34 e5bd
000001c0: ea4d c4bd 356b a7be c5fb 4c3e d6db abbe
000001d0: 48ed 8d3e 7aac 8c3e 7e09 b9bd 5f3e d23e
000001e0: 7027 93be d3a0 90be 6346 9a3e 9152 2ebe
000001f0: c4d7 243e ebe4 0ebd 322b 2dbd 0715 33be
00000200: 9ca1 ff3e ff3d 9c3e 2e66 e5bc 291b c33e
00000210: 683b dbbe 7b93 1fbe ff7d 9e3e 285e 26bd
00000220: 8418 abbe 8407 14be 2699 de3c c3c2 883e
00000230: ad58 b33d a06d 7dbe 77f8 93be ee81 c9bc
00000240: b9bd 063d 63ae af3e d296 d1be 86f0 3cbd
00000250: 51c5 a4bc e62a 8ebe eb57 b33e 154a 69bd
00000260: 4451 bebd ad16 e1bd b0a2 9b3e 922e c53d
00000270: 20c0 673d e7ec 013e 9989 e8bc 7431 c0bd
00000280: 2035 923d 2c3f b03c cc72 8f3d 06a7 6d3e
00000290: 99fb af3e 4070 b63d d007 373e 8570 c3bd
000002a0: fec8 a93d a39d 783e e044 333e 11c2 debc
000002b0: cddc 7abc 7cf3 c3bd fa94 683d 0ea9 833e
000002c0: 0ac9 4abe 7b7c 8abd 5f82 3c3e 3497 ed3d
000002d0: f636 ae3d 6838 47be 11e2 acbe d82a 15be
000002e0: 92ad 0c3f ceb6 b8bd 6bbe efbc 0655 803e
000002f0: 13eb 773e bb14 203e eb4d e73d 67e9 de3d
00000300: 9f3a 5c3e dfa0 39be 3939 303e 6bf4 203e
00000310: 1395 af3e 29b3 c3bd 2547 743d 2c2a 1ebe
00000320: 0dd1 c13e 223c 0abe f030 ef3c d79e 4f3e
00000330: 75ca c4be 26c0 82bc fc0e 943d bc39 183e
00000340: 4ffb c7bc eb01 8e3d 00b4 cfbe 4f86 193f
00000350: ac00 9b3e 46b6 e23d 9a1a 8d3d 106a 3c3d
00000360: c14b 84bc d5eb 463b d6e2 a63c 3d47 1e3e
00000370: 4061 23be 2b03 0b3e bda3 e0bc 65f3 0dbd
00000380: 6667 5cbe ddbb 22be a651 903e 9690 11be
00000390: 4c75 76be c2c9 543e d155 993e 5bcc fc3d
000003a0: 023a b13d dc42 6ebe 7962 78be 8ef1 e2bd
000003b0: 782e c13d 606d df3d 5c36 013c bc47 d43e
000003c0: 3328 863d 9a3c 77bd 1f7b 043d 315b bebd
000003d0: 980a 67bd 4b5f 9c3e 3698 f83c 4ad9 7a3d
000003e0: 02c9 8e3e 3bff bcbd 079a 933c 5ad8 97bc
000003f0: 0058 86bc 73c4 98be fa7e 063f cbba e53d

linear1.bias f4 [256]
-0.2707778 0.19225302 -0.03812671 -0.095878415 0.24476817 0.096420944 0.09245502 -0.07342649
0.008540083 -0.14205171 0.18460444 -0.01019598 0.08982162 -0.27571347 -0.2620899 0.02594167
-0.014646911 -0.012265337 0.04587156 -0.16171679 -0.09407104 0.10066254 -0.31213236 -0.052389897
0.098354645 -0.14694196 -0.05396432 -0.08160449 -0.18303941 -0.111902535 -0.11041327 -0.1340169
-0.020627715 -0.13384266 -0.05817045 -0.11521573 0.05857407 0.05605138 -0.29452294 0.10684399
-0.0854706 0.080243975 0.17831081 0.05650575 -0.23469777 0.1739245 0.14979753 0.26055366
-0.27901644 0.2021456 0.014047384 -0.056044642 -0.29170203 -0.20875666 0.18279123 -0.044365272
0.09686574 -0.24255992 0.08469865 0.22575215 -0.1929308 -0.001205905 -0.13438767 -0.29824045
-0.03911815 -0.06577869 0.007791436 -0.10507899 -0.119629115 0.2155967 -0.018914424 -0.08124563
-0.25588602 0.043285325 -0.08871745 -0.21147782 0.083609164 0.05547054 0.13645697 0.032930877
-0.09137377 0.13042443 0.020512091 -0.18764438 0.16606432 -0.19816655 -0.2542054 0.05551551
0.27488318 -0.046676785 -0.049185716 -0.15761462 -0.16146427 0.33106822 0.12912245 -0.06320229
-0.14285645 0.16836086 -0.19771925 0.16333514 0.11598853 0.08052405 0.03866818 -0.18596962
-0.03711033 -0.15254246 -0.18466873 0.3435579 -0.22349988 -0.29857862 -0.020872958 -0.048524268
0.2677323 0.14345698 -0.06434467 -0.0543717 0.23946652 0.21661554 0.16136895 0.11536235
-0.17485973 0.15776384 0.13582915 -0.09949931 -0.20162939 -0.16328928 0.11196381 -0.07269278
-0.007989274 0.25906312 0.024878345 -0.081197925 -0.17272277 0.112306625 -0.08748196 -0.20078295
0.10118356 -0.060854465 0.05419699 -0.18207182 -0.21587811 -0.23713958 -0.21043594 0.09410851
0.072650656 0.16008663 -0.06788803 -0.03794531 -0.016282646 -0.07984817 0.0035168969 -0.116577186
0.061949942 0.051280927 0.1519645 -0.022412365 0.056236397 0.044541135 -0.070448235 -0.011693906
0.074817896 -0.13201535 0.0524063 0.29159045 -0.017849563 -0.11459168 0.15082742 0.12346003
0.2448607 0.025016302 0.09362382 0.26938826 -0.1136707 -0.17823169 -0.11497169 -0.03598584
-0.039289184 -0.1463911 -0.09041791 -0.38989767 0.1902405 -0.17826635 -0.008618173 0.114832796
-0.07391124 -0.1610773 -0.03421034 -0.07217962 0.047451563 0.19957004 0.046839397 0.04139949
-0.23499449 -0.039683282 -0.12667124 -0.036147445 0.26333004 -0.029446468 0.12494518 0.07000864
0.20999432 -0.0664646 -0.07556528 0.073061116 -0.09979044 0.19715759 0.17006798 -0.017101444
-0.26464525 0.062674865 -0.011847024 -0.11090786 0.15421048 -0.21946532 0.011050677 -0.20821875
0.19366713 0.16417779 -0.02023809 0.11584888 0.13072145 0.02267256 0.011833889 -0.14911494
-0.1513841 -0.08553638 -0.2614094 0.19818325 -0.041552823 0.18037757 -0.09641701 0.18432537
-0.057656407 0.045907572 0.19597265 0.0015140896 -0.25598294 0.2266792 0.14662163 0.0024619838
0.03841073 0.079996005 -0.13129903 -0.054473706 -0.04750337 0.26862642 -0.085137986 0.27737087
-0.14214718 -0.051563453 -0.15350378 -0.052416243 -0.1547787 -0.061933786 0.16371869 -0.11156262
00000000: 63a3 8abe fadd 443e c12a 1cbd e75b c4bd
00000010: 82a4 7a3e 5878 c53d 0f59 bd3d a160 96bd
00000020: b4eb 0b3c 0176 11be f208 3d3e 0a0d 27bc
00000030: 66f4 b73d 512a 8dbe a630 86be a083 d43c
00000040: 99f9 6fbc 8df4 48bc d1e3 3b3d 1699 25be
00000050: 51a8 c0bd 2928 ce3d d0cf 9fbe ca96 56bd
00000060: 296e c93d f477 16be b109 5dbd 4120 a7bd
00000070: af6e 3bbe 282d e5bd 5a20 e2bd ba3b 09be
00000080: 74fb a8bc 0d0e 09be 2344 6ebd 3af6 ebbd
00000090: 5deb 6f3d 2296 653d b6cb 96be 06d1 da3d
000000a0: 360b afbd f456 a43d 1c97 363e 9372 673d
000000b0: 9d54 70be 4419 323e 8664 193e 4a67 853e
000000c0: 3edb 8ebe 42ff 4e3e 0027 663c 118f 65bd
000000d0: f859 95be 4ec4 55be a02d 3b3e 5cb8 35bd
000000e0: 8c61 c63d a161 78be 7c76 ad3d 922b 673e
000000f0: a78f 45be 750f 9eba ec9c 09be f9b2 98be
00000100: 5a3a 20bd fab6 86bd 4d4f ff3b a733 d7bd
00000110: 1c00 f5bd 62c5 5c3e 6cf2 9abc 1c64 a6bd
00000120: 7e03 83be f44b 313d 7fb1 b5bd a48d 58be
00000130: 483b ab3d 1435 633d 60bb 0b3e 87e2 063d
00000140: 2c22 bbbd fb8d 053e f908 a83c d925 40be
00000150: c40c 2a3e 2cec 4abe 3627 82be 3b64 633d
00000160: 7dbd 8c3e 2830 3fbd f676 49bd ba65 21be
00000170: e456 25be c681 a93e ad38 043e 3470 81bd
00000180: f648 12be ca66 2c3e ea76 4abe 5441 273e
00000190: 658b ed3d cbe9 a43d 8762 1e3d d26e 3ebe
000001a0: 0001 18bd 1734 1cbe cd19 3dbe d2e6 af3e
000001b0: 27dd 64be 4cdf 98be c4fd aabc 62c1 46bd
000001c0: 3514 893e 63e6 123e 23c7 83bd dcb4 5ebd
000001d0: b636 753e 77d0 5d3e e73d 253e 1943 ec3d
000001e0: 6e0e 33be d88c 213e cc16 0b3e 4bc6 cbbd
000001f0: ef77 4ebe 4e35 27be 484d e53d f4df 94bd
00000200: 72e5 02bc eca3 843e accd cb3c 194b a6bd
00000210: 3dde 30be 0401 e63d be29 b3bd 0c9a 4dbe
00000220: 5439 cf3d 8842 79bd aafd 5d3d 0971 3abe
00000230: 270f 5dbe b8d4 72be 857c 57be f6bb c03d
00000240: dec9 943d c0ed 233e e108 8bbd 8b6c 1bbd
00000250: 2f63 85bc 7087 a3bd bd7b 663b 05c0 eebd
00000260: 39bf 7d3d f30b 523d 959c 1b3e 239a b7bc
00000270: 2358 663d c470 363d 2a47 90bd cc97 3fbc
00000280: 203a 993d 082f 07be fda7 563d 584b 953e
00000290: 3f39 92bc 0baf eabd 8172 1a3e 9dd8 fc3d
000002a0: c3bc 7a3e fdee cc3c d8bd bf3d 42ed 893e
000002b0: 2fcc e8bd 5e82 36be 4776 ebbd e365 13bd
000002c0: b2ed 20bd 8ce7 15be 062d b9bd aba0 c7be
000002d0: 68ce 423e 748b 36be 3d33 0dbc 752d eb3d
000002e0: c75e 97bd 73f1 24be 2420 0cbd e9d2 93bd
000002f0: 925c 423d 175c 4c3e abda 3f3d 8392 293d
00000300: 65a2 70be f08a 22bd 1bb6 01be 580f 14bd
00000310: 32d3 863e b839 f1bc 42e3 ff3d b160 8f3d
00000320: c008 573e 981e 88bd f8c1 9abd 11a1 953d
00000330: ee5e ccbd aee3 493e 4d26 2e3e 5418 8cbc
00000340: 957f 87be ae5b 803d 051a 42bc a923 e3bd
00000350: 5ae9 1d3e 84bb 60be e60d 353c 4c37 55be
00000360: ad50 463e 391e 283e 5aca a5bc 2d42 ed3d
00000370: d8db 053e cebb b93c eee2 413c 96b1 18be
00000380: 6f04 1bbe b32d afbd 74d7 85be 8df0 4a3e
00000390: 4b33 2abd e6b4 383e 4876 c5bd cabf 3c3e
000003a0: 2029 6cbd 9409 3c3d 0ead 483e 6b74 c63a
000003b0: 3210 83be 981e 683e fb23 163e 3c59 213b
000003c0: 9254 1d3d f2d4 a33d 4173 06be d21f 5fbd
000003d0: e592 42bd 6789 893e d35c aebd 8e03 8e3e
000003e0: 088f 11be 3334 53bd 1830 1dbe 6ab2 56bd
000003f0: 4f7e 1ebe 48ae 7dbd dfa5 273e f17a e4bd

linear2.weight f4 [3, 256]
0.06835279 -0.04025807 0.11819313 0.11356803 -0.13267753 -0.0043452703 0.041123115 -0.14472187
-0.3241713 0.06943042 -0.3196299 -0.11500462 -0.0826312 -0.03698631 -0.31911594 0.03990806
-0.21587789 -0.10158916 -0.005173669 0.021605095 0.10615674 0.14896585 1.8653505e-05 -0.005397682
-0.09324277 0.06436198 0.06273086 0.16783614 -0.27768353 0.14071658 0.029489122 0.15243582
0.24991393 -0.0694971 0.087230064 -0.15749025 -0.044342227 -0.28338876 -0.00095861155 -0.19975951
-0.17201069 0.074684784 -0.03689147 -0.11946642 -0.027491651 0.09059118 -0.04685079 0.09510029
-0.013546073 0.07509304 0.044298273 0.039107982 0.030624652 -0.0013349598 0.053729992 0.18632561
-0.07364476 -0.029438967 -0.03514345 -0.087021045 0.12793182 -0.059292432 0.10080825 0.015209496
-0.012538435 0.06831125 -0.005857018 -0.03852326 -0.03651302 0.07965421 -0.0832 -0.013393469
0.03447498 -0.081919454 -0.12369126 0.049568318 0.072684415 -0.033976242 -0.13248725 -0.07561339
0.23150681 0.030179 -0.009030112 0.018173002 -0.087806046 0.0131401345 -0.103797704 0.1265697
-0.066792585 -0.1468898 0.12599333 -0.04952254 -0.06636967 0.04253809 -0.070466846 -0.14168884
0.13221046 -0.04162538 -0.0895434 0.05865496 -0.018372854 -0.32398027 0.00434785 -0.055185515
-0.11537647 -0.24358816 -0.16919379 -0.072568804 -0.01761541 -0.100103796 -0.05854847 0.11001426
-0.07143794 0.12831008 0.030480333 -0.062226627 0.11664919 0.024514709 -0.09038043 -0.037029378
0.06675046 -0.13549367 0.04216199 -0.09419752 -0.034923404 -0.19070089 0.09715178 -0.07196169
-0.045584444 0.010285903 0.050771147 0.2067682 -0.36841947 -0.07283206 -0.011880878 0.21470332
0.063272275 -0.0029119775 -0.16219555 -0.03015392 -0.079406604 -0.09275402 -0.3386735 0.03815774
0.0663947 0.08437678 0.125734 -0.12826654 -0.0664434 0.120361194 0.0024964556 -0.17337118
0.09774426 -0.16231768 -0.13832876 -0.06958081 -0.099260114 0.08077901 0.10610691 0.06724578
-0.31511393 -0.003514789 -0.21652977 0.018108534 0.078961305 0.16386536 0.020120079 -0.054114193
-0.08800307 -0.18140234 0.13945779 -0.063562855 0.03600626 0.23370492 0.13776256 -0.19902553
-0.07440113 0.07194782 -0.022553006 0.006319708 -0.120989725 -0.08479613 -0.18420966 -0.0919928
0.18595552 -0.26476377 0.05354271 0.0098164305 -0.024228953 -0.0072526503 0.0574095 -0.20638408
-0.028148763 -0.28881365 -0.31947634 0.18900578 0.06385799 -0.13211714 -0.03672411 -0.09684239
-0.04980068 -0.12260454 -0.041363593 0.11836852 -0.17335409 0.0959281 -0.10755463 -0.17390612
-0.008428338 -0.08587272 -0.019108048 -0.14949572 -0.09028311 -0.024560168 0.078904 -0.030510068
0.016547808 -0.0014846824 -0.093837515 -0.05357144 0.059509117 -0.0847855 -0.07096864 -0.06294976
-0.26657158 0.09213507 0.06428473 -0.109170526 0.0062758503 -0.01394433 0.03134208 -0.18631454
-0.2106025 -0.010242576 -0.021627003 -0.013451093 -0.043375105 -0.081376456 -0.038537763 -0.021085048
0.06444241 0.086376466 0.05143951 0.17053692 -0.13964553 -0.04315191 -0.030994825 -0.07680843
0.09210425 -0.07336917 0.10367048 -0.32291207 0.058325965 0.021903249 -0.07848955 0.122837976
00000000: 8cfc 8b3d a5e5 24bd 3d0f f23d 5b96 e83d
00000010: 9edc 07be c562 8ebb b670 283d f831 14be
00000020: c8f9 a5be 8931 8e3d 88a6 a3be 8b87 ebbd
00000030: 8c3a a9bd f57e 17bd 2a63 a3be a276 233d
00000040: 180f 5dbe fa0d d0bd e287 a9bb 2bfd b03c
00000050: b468 d93d 818a 183e 197a 9c37 0adf b0bb
00000060: 11f6 bebd 37d0 833d 0a79 803d 3ddd 2b3e
00000070: 892c 8ebe 0218 103e 2c93 f13c 2318 1c3e
00000080: 70e9 7f3e 7f54 8ebd ada5 b23d 2045 21be
00000090: 32a0 35bd 5518 91be 554b 7bba c28d 4cbe
000000a0: 9223 30be 56f4 983d 831b 17bd cfaa f4bd
000000b0: 2c36 e1bc de87 b93d 9de6 3fbd f1c3 c23d
000000c0: 59f0 5dbc 61ca 993d 1b72 353d b12f 203d
000000d0: 8de0 fa3c d1f9 aeba fb13 5c3d 24cc 3e3e
000000e0: 10d3 96bd fd29 f1bc 94f2 0fbd 1738 b2bd
000000f0: 8f00 033e 9fdc 72bd 8e74 ce3d 4031 793c
00000100: 026e 4dbc c5e6 8b3d 3aec bfbb 91ca 1dbd
00000110: ad8e 15bd bf21 a33d c364 aabd 4870 5bbc
00000120: a335 0d3d 63c5 a7bd d851 fdbd 2608 4b3d
00000130: 91db 943d ac2a 0bbd bdaa 07be 31db 9abd
00000140: 1f10 6d3e f339 f73c 09f3 13bc 8cdf 943c
00000150: a8d3 b3bd b849 573c e493 d4bd 7d9b 013e
00000160: 8dca 88bd 486a 16be 6504 013e 26d8 4abd
00000170: d2ec 87bd 6c3c 2e3d ec50 90bd e116 11be
00000180: 2e62 073e 607f 2abd 8862 b7bd 2f40 703d
00000190: ab82 96bc bee0 a5be 6978 8e3b 350a 62bd
000001a0: 804a ecbd 2d6f 79be 2341 2dbe f49e 94bd
000001b0: 314e 90bc 3803 cdbd 85d0 6fbd 284f e13d
000001c0: 0e4e 92bd b863 033e e4b1 f93c 59e1 7ebd
000001d0: c5e5 ee3d 12d3 c83c 6019 b9bd 1eac 17bd
000001e0: 77b4 883d dabe 0abe 0db2 2c3d a1ea c0bd
000001f0: d80b 0fbd 1847 43be 83f7 c63d a760 93bd
00000200: c1b6 3abd 3486 283c 68f5 4f3d 0bbb 533e
00000210: 7aa1 bcbe fa28 95bd 04a8 42bc 30db 5b3e
00000220: e594 813d e0d6 3ebb 9716 26be 5b05 f7bc
00000230: ee9f a2bd d2f5 bdbd 9d66 adbe 4a4b 1c3d
00000240: f2f9 873d bccd ac3d 6ac0 003e 4e58 03be
00000250: 7a13 88bd ee7f f63d 939b 233b 3788 31be
00000260: 252e c83d 9b36 26be 0ea6 0dbe 6280 8ebd
00000270: e348 cbbd 776f a53d 944e d93d 28b8 893d
00000280: 9d56 a1be 6058 66bb fbb9 5dbe 5958 943c
00000290: 77b6 a13d 52cc 273e ddd2 a43c d8a6 5dbd
000002a0: f43a b4bd 89c1 39be 06ce 0e3e 3e2d 82bd
000002b0: 4d7b 133d 5850 6f3e a111 0d3e 59cd 4bbe
000002c0: 9f5f 98bd 6159 933d 15c1 b8bc 8e15 cf3b
000002d0: 76c9 f7bd 98a9 adbd 75a1 3cbe b966 bcbd
000002e0: 206b 3e3e 1e8f 87be 9a4f 5b3d 18d5 203c
000002f0: cc7b c6bc a4a7 edbb 3926 6b3d 5956 53be
00000300: 3c98 e6bc 62df 93be 6792 a3be bb8a 413e
00000310: fac7 823d b749 07be 056c 16bd 4e55 c6bd
00000320: ccfb 4bbd 1718 fbbd df6c 29bd 326b f23d
00000330: bc83 31be f475 c43d 9a45 dcbd 7214 32be
00000340: 0317 0abc 09de afbd 7b88 9cbc 6815 19be
00000350: 5ae6 b8bd 6832 c9bc 6c98 a13d 40f0 f9bc
00000360: 458f 873c ad99 c2ba e22d c0bd ba6d 5bbd
00000370: d5bf 733d 05a4 adbd 0258 91bd ceeb 80bd
00000380: 127c 88be 50b1 bc3d b6a7 833d cc94 dfbd
00000390: a6a5 cd3b c276 64bc 8e60 003d 3dc9 3ebe
000003a0: 2fa8 57be 7ad0 27bc 1d2b b1bc f961 5cbc
000003b0: 18aa 31bd b3a8 a6bd c6d9 1dbd 8dba acbc
000003c0: 62fa 833d 25e6 b03d 3cb2 523d 3ba1 2e3e
000003d0: 3dff 0ebe 0fc0 30bd dce8 fdbc bd4d 9dbd
000003e0: 27a1 bc3d 9342 96bd 3051 d43d bb54 a5be
000003f0: 35e7 6e3d 716e b33c 21bf a0bd 7a92 fb3d

linear2.bias f4 [3]
-0.012488039 -0.04902367 -0.12912995
00000000: a29a 4cbc 0bcd 48bd a43a 04be
