model_hybrid/model.pth (torch, 20681 bytes, 4 tensors)

linear1.weight f4 [256, 14]
00000000: 85ba 11be 3f46 dabe be61 233f bf58 563d
00000010: dda7 22bd afda cd3e d42b 0fbf d73e babe
00000020: b414 df3e f812 203d d6f3 89bd 5bcd 193e
00000030: fbab ab3d f279 1ebd c859 563e 7fca 2d3f
00000040: 8427 00bf d11c 09be 5315 7d3c 9209 fbbd
00000050: abfa f03c 7165 9fbd 861a 6d3e 08af 023d
00000060: b0f6 63be c69d 10bd c881 0c3e 86df d0bd
00000070: b887 afbd c5bb 023f e5e1 85be 5538 fb3e
00000080: 90b2 d4be e4c7 3abe 5837 ce3e 5ad9 52be
00000090: e575 1f3e 23eb dbbe 2fd6 873e d716 353e
000000a0: 42a0 efbd b4ee 5dbe 04b0 2d3c 74a8 c33e
000000b0: 0fe9 60be 07cc a5be 7915 e63e 3a4c a9be
000000c0: 8932 e3bd 59db 8b3c 2141 b13e 51b9 05be
000000d0: da45 fbbe 4155 febd 9807 ca3d 87b7 aa3d
000000e0: f4e3 c03e e66b 003f eca4 8abe 378f 88bc
000000f0: ffc0 17be dce4 c4bd 7a06 7d3e dc5c 84be
00000100: 8b52 013e 140a febc e93a 883d 230c 2abd
00000110: 3195 553e 1547 d5be ae0e b1be 70bb 8a3e
00000120: 6c5f e33d 080e 23be 7919 84be 8d9f 94be
00000130: 60d8 3d3d 4440 93be 91c3 88bc 2615 7fbe
00000140: 6490 003c 4b9f a43d edd8 853d c6af b3be
00000150: 2999 07bd 399c 8dbe a58f 44be 698c 8abd
00000160: e99a 033f 526d 51be 49e6 183f 5de2 e1be
00000170: ab46 9d3d 2ac4 50bf e557 0b3e 490e 063f
00000180: 8613 21bf f261 ac3d 0d0f 0e3f a4e8 fdbe
00000190: 4846 e93d e1fc fdbd bf95 bb3d 4180 b23e
000001a0: 362b 16bf 8fb3 a03c 67cf 1c3e bdc9 42bd
000001b0: 2663 bf3e db77 263e 300c 97be a097 dabd
000001c0: 06e4 3d3d baf1 cdbe 96c7 3f3e 9adb ecbe
000001d0: 124f c33e d4d5 593e 4323 e9bc e9aa 013f
000001e0: 6357 dbbe 88c0 e3be 54d5 b03e c2e5 5bbe
000001f0: 9441 7e3e 9cb2 62bc b158 58be 5b52 9fbe
00000200: 8de1 583f 7734 dc3e 228d 88bd 4ecc cc3e
00000210: 26dc f2be e404 9ebe 23e7 e63e 7e53 383d
00000220: e192 c9be 44ec a4bd 4a35 a23d 2082 fa3d
00000230: d288 4a3e cbaf 24be 0d01 58be 1aee 6abb
00000240: dbaa 65bc 3c46 0b3f 3c7f 25bf 7d74 b1bd
00000250: d2c5 c2bd 0625 c3be e1ae 013f 40b1 33bd
00000260: b930 25be 641f c3bd 7842 093f 6f30 7c3e
00000270: fa2d 223e 4a93 31bc ae6d f8bd cfc8 67bd
00000280: 8309 4ebd 15cb 283e 0902 803e 10f3 b63e
00000290: dbad bb3e 80be f1bd c247 ea3d a1e6 ad3d
000002a0: ed4a ae3e 7d05 c43e 21e1 123e dbc5 8cbe
000002b0: c98b 0dbe cd33 8cbd 0c1f 8c3d 75b8 693d
000002c0: 2e56 92bb f9ad f1bc 10fe cb3d 6b87 c7bd
000002d0: 5a5a 103d 21d4 b9be 8b51 2dbe 998c e0be
000002e0: b31e 5d3f a9bf 65bd 5ad3 ed3c 841e a03e
000002f0: c11d 8a3d a3a4 d13c c0a6 8d3e ac5c 313d
00000300: 55fb 883e 0acc 76be 91cd 633d 536d cb3d
00000310: 28f6 223f 67fe 1bbd 5365 7d3e 7d4b 2cbe
00000320: d1d5 033f 466a 4fbe e36e acbc 9b25 873e
00000330: 2ba5 c9be 10b1 423e 4ed4 313c f9cc 063e
00000340: d55f 303c f02e 2c3e 6f41 21bf b901 543f
00000350: 66fa c93e aae7 083b 9f0c efbd 5a99 6d3d
00000360: 557c 853c f792 13bd db17 dd3d a39c e83d
00000370: 24eb eebd 1568 1b3d 8387 a1bd f489 37bc
00000380: bef6 2abe e1a3 3fbe ef29 3c3d c5b3 93be
00000390: ce51 c7be 0c18 8e3e e96c eb3e 3305 8d3e
000003a0: 170d a43e d48b 0abf 3b0e b5be 5c72 04be
000003b0: 899a 1b3e 66c2 0f3e fd5c 913e c1b8 353f
000003c0: 51c1 673d 476e bdbd 8f10 86bd 7223 b7bd
000003d0: 3b31 12be 8ccd ab3e 3a91 8d3e a338 963e
000003e0: c8c8 b63e 03c4 89be 8d44 b43d d38b 603e
000003f0: 963d 1bbe 06cd 08bf 6ce9 573f b034 d03d
-0.14231308 -0.4263172 0.6382102 0.05233073 -0.03971087 0.40205905 -0.5592625 -0.36376068
0.43570483 0.03908059 -0.06735961 0.15019743 0.08382412 -0.038690515 0.20932686 0.6788711
-0.50060296 -0.13389899 0.015446979 -0.12257685 0.029416403 -0.0778302 0.23154649 0.031905204
-0.22262073 -0.035306714 0.13721383 -0.10198884 -0.08570808 0.51067764 -0.26148906 0.49066415
-0.41542482 -0.18240315 0.402766 -0.20590726 0.15572317 -0.42952833 0.26530597 0.17684494
-0.117004886 -0.2167309 0.010601047 0.38214457 -0.21963905 -0.32382223 0.44938257 -0.3306597
-0.11093623 0.017072367 0.34620002 -0.13058974 -0.4907673 -0.12418605 0.0986473 0.08335786
0.37673914 0.5016464 -0.2707895 -0.016669853 -0.14819716 -0.09613964 0.24709502 -0.25852096
0.12629144 -0.031010665 0.06651861 -0.04151548 0.20857693 -0.41655794 -0.34581512 0.27096128
0.11102185 -0.15923321 -0.25800684 -0.29027978 0.04634893 -0.28759968 -0.016694816 -0.24910411
0.007846925 0.08038195 0.06535516 -0.35095042 -0.03310505 -0.2765825 -0.19195421 -0.06765062
0.5140825 -0.20451859 0.5972639 -0.44118014 0.076794945 -0.8154932 0.13607748 0.5236555
-0.62920415 0.08417119 0.55491716 -0.49591553 0.11390358 -0.124017484 0.09159421 0.34863475
-0.58659685 0.01961687 0.15313493 -0.047555674 0.37380332 0.16256659 -0.29501486 -0.106734514
0.04636004 -0.40223485 0.1872848 -0.46261293 0.38146263 0.21272975 -0.028459197 0.50651413
-0.42840108 -0.44482827 0.34537756 -0.21474364 0.24829704 -0.013836529 -0.21127583 -0.3111752
0.84719163 0.43008777 -0.06667544 0.39999622 -0.47433585 -0.30863106 0.45098218 0.0450015
-0.39369872 -0.080528766 0.0792032 0.122318506 0.19778755 -0.16082685 -0.21094151 -0.0035847486
-0.014017786 0.54404044 -0.6464727 -0.086647965 -0.095103875 -0.38114184 0.5065747 -0.04387021
-0.16131867 -0.09527472 0.5361705 0.24627851 0.15837851 -0.010838339 -0.12130295 -0.05658799
-0.05030204 0.1648372 0.25001553 0.35732317 0.3665608 -0.11803913 0.11439468 0.084912546
0.3404154 0.38285437 0.14343692 -0.27494702 -0.13822855 -0.06845818 0.06841859 0.057060678
-0.00446584 -0.029501902 0.09960568 -0.09742626 0.035242416 -0.36294654 -0.16925637 -0.43857267
0.8637497 -0.056090984 0.029031444 0.31273282 0.06743956 0.0255912 0.27666283 0.04330127
0.2675425 -0.24101272 0.055615965 0.09932961 0.63656855 -0.038084414 0.24745683 -0.16825671
0.5149813 -0.20255384 -0.021048969 0.26395878 -0.39383826 0.19012856 0.01085384 0.13164128
0.010765036 0.1681478 -0.6299047 0.8281513 0.3944885 0.0020890036 -0.11672329 0.058007576
0.016294638 -0.03602883 0.10795566 0.11358001 -0.11665943 0.037941057 -0.07887175 -0.011202324
-0.16695687 -0.18714859 0.04593843 -0.2884809 -0.389296 0.2775272 0.4598153 0.2754303
0.32041237 -0.5411961 -0.3536242 -0.1293425 0.15195669 0.14039001 0.28391257 0.7098504
0.056580845 -0.09249549 -0.06546127 -0.089423075 -0.14276592 0.33555257 0.27649862 0.29340085
0.3570006 -0.26907358 0.088021375 0.21928339 -0.15160212 -0.5343784 0.8434055 0.10166299

linear1.bias f4 [256]
00000000: 9504 47be 5e6c 633d 34ad a4bc 16a9 a0bd
00000010: b86d 253e 8951 473c a56d 0e3f 0163 98bd
00000020: 9e53 13bd 3ec9 9fbd 206f 4a3e 3d88 5ebe
00000030: 2c2a fdbd edbf abbe 21e7 8ebe 6231 93bd
00000040: eae4 07bd e197 41be 8345 6a3d 6c9e c5bd
00000050: c300 29bd 8b8c 363e d609 d7be 8145 aabd
00000060: 480b f7bd d895 dd3d 54c3 e3bc 1447 efbc
00000070: 75d8 29be b821 ed3c 5a20 e2bd 5b76 b9bd
00000080: d45c 2f3e f5ea 15be d214 4cbd b288 0bbe
00000090: 4219 bfbb 7c09 bcbb 00be a4be abd3 7f3d
000000a0: 1683 eebd 3bc6 c43c a4be bf3e 59d9 0fbe
000000b0: 0a31 84be 69f6 d93d a8ce 0f3d 5a5f d23e
000000c0: 3edb 8ebe 3631 c93e 0375 153d f0b5 89bd
000000d0: f859 95be 8c58 59be f3bb b13e 0060 98bd
000000e0: 2d44 85bd a161 78be 8c97 aa3e ff1d a43e
000000f0: e5b1 c7bc 47ee 16be 703b 46be 3a34 a7be
00000100: b553 41be 3810 acbd 93e3 08be 49e9 0f3e
00000110: 1c00 f5bd 11a9 933f bd29 97bd 1c64 a6bd
00000120: 6a11 1bbe dcd9 efbd 1dd7 62be a48d 58be
00000130: cb10 653e d1af e63d 31ca d33d 4508 f0bb
00000140: 459a 273e 0d8b 093e c000 4b3d d925 40be
00000150: 3b15 4bbd 3673 6bbe 656e 86be 8cba 203e
00000160: 208f a33d 08ed 0abe 902b 083d ba65 21be
00000170: 55f9 8ebe 2074 d93e 2c31 33bd a51b 3abe
00000180: dbb0 59bc e57e 7fbd 3a2e 60be 9a46 443e
00000190: 700a 583d 4d87 993d 8762 1e3d d26e 3ebe
000001a0: 6ad8 75bd 21c4 29be 3908 50be c9d9 883e
000001b0: 6043 7cbe ca16 bebe 9c6c 81be 7a38 9d3e
000001c0: 5bee 163e a5f6 653e 51a5 123e afe6 6bbe
000001d0: 15b2 f83e be0d 563e f7ff 683e 0495 11bd
000001e0: 1055 98bd 96fb dc3b d373 203e 47e0 68be
000001f0: e645 3dbe 5e03 40be b869 163e 8f94 38bd
00000200: 9ed8 6c3e d9c1 1f3d fb4a 823f ce5f d2bd
00000210: 76d4 48be 9cca bc3d e64e 32bd 1f0f 06be
00000220: ac7a f33d 8785 17be a592 2d3d 5b74 5abe
00000230: f442 40be 8956 87be 4e20 80be 6f0a 373d
00000240: 1521 543d 0aef a23e fa2f 4bbd d138 81bd
00000250: 6bb2 b5bb 1443 853a 7f5d e7bc cc52 ebbd
00000260: c5fe f33c aedc 24be b647 123e b394 1fbd
00000270: 6ba4 34bd 14cd bb3e 385a a03d 89fd ee3d
00000280: 1dd8 8b3d 082f 07be 521b 33bd 17dc 673e
00000290: 035b eb3b 70e5 5abd e53a 493d f0a1 e03d
000002a0: 0ff7 953b 0251 403d 200c f03d 6b1c 313e
000002b0: 1753 21be a661 0ebd c66c e4bc b232 78bd
000002c0: 8c17 05be 5335 4bbd 810f 6ebe 605b 8dbe
000002d0: 14c4 bf3d 3493 c9be c615 b23c 6908 c9bd
000002e0: 796f 7b3d 8a6d 70be 2420 0cbd 112b 5d3d
000002f0: c54e ee3e 6d96 d53e 5aec 473e 2c72 763d
00000300: 65a2 70be a73f 75bd 6468 1ebe fa0b 6bbd
00000310: e85c 8f3e e3dd 6abe 00e2 eabd ac3d 15be
00000320: 6227 053e 57a8 fcbd 3cb0 0abe 3422 b33d
00000330: f664 b0bd dd41 993e b2b8 623e 3b10 cdbd
00000340: 957f 87be 6159 28be 73a5 5fbd 3d63 0fbe
00000350: b63c 023d 84bb 60be f8fd 9f3e d8e4 14be
00000360: 5a16 233e 8e43 833f 0ca5 b13c 061d 0ebe
00000370: bc3e e33d 18c6 553c 9588 14bd 9907 19be
00000380: 3280 47be 534f 15be 12d0 92be 62e4 853d
00000390: 0a60 143f ea0f 813e 3c29 8e3e b19f 993d
000003a0: 5b16 57bd 91c6 83bd 8018 f93d e0e5 86bd
000003b0: 3210 83be 15ee 4c3e 8049 483f 343d eb3d
000003c0: e88d 823e 1bf1 283e 4173 06be eb17 783c
000003d0: 7f58 e6bd 8b8f 173d cb6b 30be eeea 2d3d
000003e0: 528b 26be 0991 f03c 5404 0b3c 4b65 71bd
000003f0: b8a9 3ebe 70f5 533e 58fb 523d 5f55 48bd
-0.19435342 0.05552327 -0.020102121 -0.078447506 0.16155136 0.012165436 0.55636054 -0.074407585
-0.035968415 -0.07802056 0.19768953 -0.21731658 -0.12361559 -0.33544865 -0.27910712 -0.071871534
-0.033177294 -0.18905593 0.057195198 -0.09649357 -0.041260492 0.1782705 -0.41999692 -0.08314038
-0.120626986 0.10819596 -0.0278031 -0.029208697 -0.16586478 0.028946742 -0.11041327 -0.09055778
0.17125255 -0.1464041 -0.049824543 -0.13626364 -0.0058318684 -0.0057384353 -0.32176208 0.06245772
-0.116460964 0.024020305 0.37450135 -0.14047755 -0.25818664 0.10642702 0.035109192 0.41088372
-0.27901644 0.39295357 0.036488544 -0.06724155 -0.29170203 -0.21225184 0.34713706 -0.074401855
-0.06507144 -0.24255992 0.33318746 0.32054135 -0.024376819 -0.14739333 -0.19358611 -0.32657033
-0.18879588 -0.08401531 -0.13368063 0.14053835 -0.119629115 1.153597 -0.07381008 -0.08124563
-0.15143362 -0.11711475 -0.22152372 -0.21147782 0.22369687 0.11264003 0.10341299 -0.0073252046
0.16367443 0.1343195 0.049561262 -0.18764438 -0.049580794 -0.22993168 -0.262561 0.15696162
0.07986283 -0.13566983 0.03324467 -0.15761462 -0.279246 0.4247141 -0.043748066 -0.18174608
-0.013286795 -0.062376875 -0.21892634 0.19167557 0.05274433 0.0749651 0.03866818 -0.18596962
-0.06002084 -0.16578723 -0.20315637 0.26728657 -0.24635077 -0.37126762 -0.25278175 0.3070715
0.14739363 0.22457369 0.14320876 -0.23037218 0.48573366 0.2090368 0.22753893 -0.035542503
-0.074380994 0.0067438586 0.15669183 -0.22741805 -0.18483695 -0.18751284 0.14688766 -0.04506355
0.23129508 0.039003227 1.0179132 -0.102721795 -0.19612297 0.09218332 -0.043532275 -0.13091706
0.11888632 -0.1479703 0.04237618 -0.21333449 -0.1877554 -0.2643321 -0.25024647 0.044687685
0.051789362 0.31822997 -0.0496063 -0.06309665 -0.0055449507 0.0010167086 -0.028242825 -0.114904016
0.02978457 -0.16099808 0.14285168 -0.03896017 -0.044102114 0.366799 0.07829708 0.11669452
0.0682833 -0.13201535 -0.043727227 0.22642551 0.0071824803 -0.053441465 0.04912843 0.10968387
0.004576571 0.046952255 0.11721063 0.17295997 -0.15754353 -0.034761094 -0.027883898 -0.06059522
-0.12997264 -0.0496114 -0.23248102 -0.27608776 0.09363571 -0.3937012 0.021738898 -0.09816057
0.061385605 -0.23479286 -0.03421034 0.05399615 0.4654447 0.41716328 0.19523755 0.060167477
-0.23499449 -0.059875157 -0.1546951 -0.05738447 0.2800057 -0.22936206 -0.11468887 -0.14574307
0.13003305 -0.12336796 -0.1354379 0.08746758 -0.08613007 0.29933062 0.22140768 -0.10012861
-0.26464525 -0.16440345 -0.054601144 -0.140027 0.03179618 -0.21946532 0.3124845 -0.14540422
0.15926495 1.0254991 0.021685146 -0.13878259 0.1109595 0.0130477175 -0.036263067 -0.14944305
-0.19482496 -0.14581041 -0.2867437 0.06537701 0.57959044 0.25207454 0.27765834 0.07501162
-0.052511554 -0.06434358 0.12162876 -0.06586814 -0.25598294 0.20012696 0.7823715 0.11486283
0.2549889 0.16498224 -0.13129903 0.015142421 -0.11247348 0.037002128 -0.1722862 0.042460375
-0.16264084 0.029366033 0.008484919 -0.05893449 -0.1861943 0.20699096 0.05150923 -0.04890954

linear2.weight f4 [3, 256]
00000000: 09ba 103e 7ede 833c e6de 983e 799c 3b3e
00000010: 6b14 1cbe 5412 343d 13ba fa3e 6b3b 9dbe
00000020: 88d6 f9be 0d58 413e bfc7 f3be 5cbf 7ebe
00000030: b46d bcbd 1639 93bd 5897 2dbf 47d0 b43d
00000040: b72e e5be 21f5 a1be ce01 c03d 6cc4 c83e
00000050: b97f 903e 6cec e33e 82bc 7f3d a542 063d
00000060: a3ab debd 11bc b73e 8f10 f53d 6616 d13e
00000070: 247f 15bf ecbc ce3e 2c93 f13c c538 f33e
00000080: 623e 0a3f 5b36 95bd 8844 3d3e a9b0 b1be
00000090: 9e4e 143d a967 2dbf da6b 91bc d3dd d2be
000000a0: c849 46be 7a53 c13e 6a46 693e 90d6 9ebe
000000b0: 1652 83bb 2bd1 623e 8aaf 08be 1f5b d53e
000000c0: 59f0 5dbc b867 dc3e b4be 6c3e b2b4 c23e
000000d0: 8de0 fa3c 6d7d 213e e813 783e 38c4 023f
000000e0: 972b 08be fd29 f1bc 67e5 433e 5309 0f3e
000000f0: 3711 ff3e 7197 f1bb 8ed6 863d 4031 793c
00000100: 6d4f 8c3d 7deb 7c3e 448a 3eba ce5f 113e
00000110: ad8e 15bd 395c b53e 776c 81be 4870 5bbc
00000120: 1403 513e 2008 15be 7839 bfbd 2608 4b3d
00000130: 0f13 933e 4994 8dbe d072 c2bd f2f2 0dbe
00000140: bc4b 343f 861c 763e 14a5 ba3d 8cdf 943c
00000150: c53b 4ebe 9e93 98bc 832f aabe f011 e23e
00000160: f6bc 17be 7201 9cbe fb58 c13e 26d8 4abd
00000170: e555 263e a627 8f3e f6b7 0ebe f079 95be
00000180: 95b1 c33e 52bf 09bd cd73 3abe cad1 7f3e
00000190: 6982 9ebd cef4 1cbf 6978 8e3b 350a 62bd
000001a0: 440a 85be d5ce 0fbf b588 7ebe 7b6a 803d
000001b0: 8805 49bd 4fbb cfbe 5a0c 21be 41bb e83e
000001c0: c9a8 07bd 574f d93e 4d93 133e a2ab 52bd
000001d0: 0466 d13e 4702 583e 39e9 dcbd fb49 9bbd
000001e0: 53e7 1e3e 70cc 78be 75f4 563e 8b49 72be
000001f0: cca7 e63c a1f9 f3be 1033 473e e43d 8ebe
00000200: ed94 ea3d 1a8f 073e 5584 a43e e2da 053f
00000210: 5bcc 35bf 8b22 c7be c0fb 9d3e 9acd 063f
00000220: b366 5d3d a7ad aabb 4370 c7be 5b05 f7bc
00000230: e1a3 03be b890 0abe e3ee 30bf 680c 653e
00000240: d556 b93d 5186 c43e 5889 893e 7bfb c9be
00000250: de1a ae3d f712 ef3e 2cf5 efbc 4751 7fbe
00000260: 8f2b 1e3e f83c 83be ad74 d2be 5517 1bbe
00000270: b5f7 81be 42e0 493e 6189 c53e 65b6 b53e
00000280: 484a 61bf 6058 66bb 5224 debe 0124 083b
00000290: f6b8 5f3e ad5f ba3e e2ce 423e 435a e23d
000002a0: 797f 3cbe 4a91 ffbe 7d23 913e ff01 323e
000002b0: bd8d 333c 2c1a 013f 6906 2a3e 5aac b9be
000002c0: 9b37 02bd 7fdb be3e c54a 15bd 35f7 323d
000002d0: 5565 52be 7b54 febd de07 e7be 47e9 3ebe
000002e0: 0ee9 b23e d3e4 d8be 9a4f 5b3d 6677 2f3e
000002f0: 3fc0 363e b806 8b3e c021 2a3e 55c3 c2be
00000300: 3c98 e6bc 6d30 d6be 26b3 39bf 20c8 ca3e
00000310: 1ba8 8c3e 8bff 9dbe 783a c63c 7cfe 6cbe
00000320: 5f65 babd e89e 22be 3a20 30be b851 463e
00000330: 24fe 04bf 5f81 f23e ff43 2dbe d951 89be
00000340: 0317 0abc 4028 4bbe 79e7 0c3c 1a6c fcbe
00000350: 9daf 99be 6832 c9bc d8fb 2f3f 8fc8 3a3d
00000360: de41 d23d 11c3 6f3e a1f6 ac3d b5b2 abbd
00000370: 623e b43e 91e2 fd3d 7eef 99be a387 f0bd
00000380: f7f1 0ebf 48b1 883e 6b28 e73d e7cd 3fbe
00000390: 4e9d ac3e 6109 3f3e 075e cd3e 69b1 9ebe
000003a0: 5927 febe 84fe 9dbb a1cc 30bd d963 c4bd
000003b0: 18aa 31bd 1c13 6abe 2d88 3e3e f212 5c3e
000003c0: c9b2 b53e 1198 c53e 3cb2 523d 1808 f93e
000003d0: b537 48be 38d1 06be 1783 86bd 34c3 1ebe
000003e0: 5046 4e3e f12f 7fbe 9779 e23e 2cfd 0fbf
000003f0: c42d e2bb d4de c63e beb5 82be cbfb 123f
0.14133467 0.016097303 0.29857558 0.18321408 -0.15242164 0.04396279 0.48970088 -0.30709395
-0.48796487 0.18881245 -0.47613332 -0.24877685 -0.09200612 -0.07188623 -0.6780906 0.08828788
-0.44762203 -0.3163233 0.09375344 0.39212358 0.28222445 0.44516313 0.062435634 0.0327784
-0.10872581 0.3588567 0.11966049 0.408374 -0.58397126 0.4037851 0.029489122 0.4750425
0.5400144 -0.07285758 0.18483174 -0.34705094 0.036207788 -0.677363 -0.017751623 -0.41184863
-0.19364083 0.37759 0.22780767 -0.31023073 -0.004007588 0.22150104 -0.13348213 0.41671082
-0.013546073 0.4304788 0.23119622 0.38028485 0.030624652 0.15770502 0.24226344 0.51080656
-0.13297878 -0.029438967 0.19130479 0.139684 0.4981782 -0.0073727896 0.06583892 0.015209496
0.06851087 0.24699207 -0.0007268528 0.14196703 -0.03651302 0.35421923 -0.25278065 -0.013393469
0.2041133 -0.1455388 -0.09337133 0.049568318 0.28725478 -0.27652195 -0.09494555 -0.13862208
0.7042806 0.24034318 0.091135174 0.018173002 -0.20139988 -0.018625077 -0.33239374 0.4415431
-0.14818177 -0.30469853 0.377632 -0.04952254 0.16243704 0.27959937 -0.13937363 -0.29194593
0.38221422 -0.033629723 -0.18208237 0.24982372 -0.077397175 -0.6131104 0.00434785 -0.055185515
-0.25984395 -0.56174976 -0.24856837 0.062703095 -0.04907754 -0.40572593 -0.15727368 0.45455363
-0.03311995 0.42443344 0.1441166 -0.051433213 0.40898144 0.21094619 -0.10786671 -0.0758247
0.1551793 -0.24296737 0.2099169 -0.23660867 0.028156184 -0.4765139 0.19453073 -0.27781594
0.114541866 0.13238183 0.3213221 0.52287114 -0.71014947 -0.38893542 0.30856133 0.52657473
0.05405302 -0.0052086893 -0.38952836 -0.03015392 -0.12855484 -0.13531768 -0.6911451 0.22368014
0.09049765 0.38383725 0.26862597 -0.39449677 0.08501218 0.46694157 -0.029291712 -0.24933349
0.15446304 -0.25632453 -0.41104642 -0.15145619 -0.25384298 0.19714454 0.38581374 0.35490718
-0.8800397 -0.003514789 -0.43387085 0.0020773413 0.21847901 0.3640112 0.19024232 0.11052372
-0.18408002 -0.49915534 0.28347388 0.17383574 0.010959086 0.5043056 0.16604008 -0.36264306
-0.03179131 0.37276837 -0.03644826 0.043692786 -0.20546468 -0.12418457 -0.4512319 -0.18643676
0.34943432 -0.4236208 0.05354271 0.1713539 0.17846774 0.27153563 0.16614437 -0.38039652
-0.028148763 -0.4183382 -0.72538984 0.39605808 0.27472004 -0.30859026 0.024197802 -0.23143953
-0.09101366 -0.1588093 -0.17199793 0.1936711 -0.5195029 0.47364327 -0.1692047 -0.26820257
-0.008428338 -0.19839573 0.008600109 -0.49301225 -0.30016795 -0.024560168 0.6874366 0.045601424
0.102664694 0.23414256 0.08445478 -0.08383695 0.35203844 0.1239673 -0.3006553 -0.11744621
-0.5583796 0.26697755 0.11287006 -0.1873089 0.33713764 0.18655922 0.401108 -0.30994728
-0.49639395 -0.0048216004 -0.0431639 -0.09589357 -0.043375105 -0.22858852 0.18606634 0.21491602
0.35487965 0.3859258 0.05143951 0.48638988 -0.195525 -0.13165748 -0.06567972 -0.15504152
0.2014401 -0.24920632 0.4423339 -0.56245685 -0.0069024283 0.3884188 -0.25529283 0.57415456

linear2.bias f4 [3]
00000000: 1c32 923e c6bf 4f3e eb7f b33d
0.28553855 0.20288 0.08764633
